mlartifacts/0/fb7a61089de74558ae14bbc27475aa7f/artifacts/models/data/model.pth (torch, 975278 bytes, 7 tensors)

weight f4 [51, 83]
0	0x3ff43450	1.9078465
1	0x3f8c0270	1.0938244
2	0xbf6b1b81	-0.9183884
3	0x3f555f09	0.8334814
4	0xbe943c7c	-0.28952396
5	0x3e930acf	0.28719184
6	0x3df54b59	0.11977262
7	0xbfb5b383	-1.4195408
8	0xbff2f612	-1.8981345
9	0xbe4bd6d5	-0.1990617
10	0x3f51b6c4	0.81919503
11	0x3f01d057	0.50708526
12	0xbe900d41	-0.28135112
13	0xbfd0ad9d	-1.6302983
14	0xbc703f47	-0.014663524
15	0x3f9d6827	1.229741
16	0xbf1a9c07	-0.6039433
17	0xbf86504f	-1.0493258
18	0xbe9a9c5e	-0.30197424
19	0x3f5b510c	0.8567054
20	0x3f714408	0.9424443
21	0xbd9f5211	-0.07779325
22	0x3ecae535	0.39627996
23	0x3f825c12	1.0184348
24	0x3ea002fb	0.31252274
25	0x3ec43ecc	0.3832916
26	0x3f3c8fc5	0.73656875
27	0x3e849c20	0.25900364
28	0x3d8e471b	0.06947156
29	0xbe79a65c	-0.24379867
30	0x400e1b15	2.220403
31	0x4003e554	2.060872
32	0x3f78d399	0.9719787
33	0xbe7e5c86	-0.24839982
34	0xbf1dffd7	-0.61718506
35	0xbf0cb7e1	-0.54968077
36	0xbf83bfb2	-1.0292876
37	0x3f664bbd	0.8995932
38	0xbe0be3ce	-0.1366112
39	0x3ec69f7d	0.38793555
40	0xbf0a2bb1	-0.5397292
41	0x3f5f253a	0.8716618
42	0xbf354967	-0.7081513
43	0x3f845bda	1.0340531
44	0xbe797fdc	-0.2436518
45	0xbe43728b	-0.19086663
46	0xbf402cb0	-0.7506819
47	0x3e58fdc9	0.21190561
48	0xbf9d1345	-1.2271506
49	0x3ff13e6f	1.8847178
50	0x3cf4a942	0.029865865
51	0x3f419cc0	0.75629807
52	0x40254446	2.582292
53	0x3f170149	0.58986336
54	0x3fb5008a	1.414079
55	0x3eccf73b	0.40032372
56	0x3f63fc42	0.8905679
57	0xc000c6a9	-2.0121253
58	0xbfba8e14	-1.4574609
59	0x3fdc2b78	1.7200766
60	0x3ff4fd83	1.9139866
61	0x3f63e91b	0.89027566
62	0x3db36eb9	0.08761353
63	0x3ebf9a4a	0.374224
64	0xbccde974	-0.025135733
65	0xbe6cc325	-0.23121317
66	0xbfa6f7d3	-1.304438
67	0xbeff4578	-0.49857688
68	0xbeac202a	-0.3361829
69	0x3db25d28	0.087091744
70	0x3f0550c7	0.5207638
71	0x3f60e119	0.8784347
72	0xbf80570e	-1.0026567
73	0x3ff33b6d	1.900251
74	0x3ee1ddf9	0.44114664
75	0x3e022fcf	0.1271355
76	0x3e9f5054	0.31115973
77	0x3fdb4629	1.7130786
78	0x3e0e2e22	0.13884786
79	0x3f266d9a	0.6501099
80	0x3e049d56	0.12950644
81	0x403ab6be	2.9174037
82	0xbf401715	-0.7503522
83	0x3e461d63	0.19347148
84	0xbfae5f82	-1.3622897
85	0x3ed72768	0.42022252
86	0x3fddf891	1.7341481
87	0xbf534e42	-0.82541287
88	0xbf3d56ba	-0.7396046
89	0x3dab24cf	0.0835663
90	0xbe66dd11	-0.22545268
91	0xbf1346e8	-0.5753007
92	0x3edd01d7	0.43165466
93	0x3faf4541	1.369301
94	0xbe7f4a3d	-0.24930663
95	0x3ff4166e	1.9069345
96	0xbf39244d	-0.72321016
97	0x3e9e9e40	0.3098011
98	0x3e8b1518	0.2716453
99	0x3ee3e1ed	0.44508305
100	0xbfa32248	-1.2744837
101	0x3f6e6c6f	0.93134207
102	0xbce815d7	-0.028330727
103	0xbe6c3bdd	-0.23069711
104	0xbccf35eb	-0.025294265
105	0xbdb09432	-0.08622016
106	0xbf9b935a	-1.2154343
107	0x3fccc251	1.5996801
108	0x3f0e94c5	0.55695754
109	0x3f822d8e	1.0170152
110	0x3f01dcf7	0.5072779
111	0xbdfce2ac	-0.12347922
112	0x3fd852ca	1.6900265
113	0x4001ab77	2.0260904
114	0xbdeaa5f1	-0.11457432
115	0x3efd145d	0.49429598
116	0xbeecb6d2	-0.4623323
117	0xbf9f8f43	-1.2465595
118	0xbf1120e9	-0.5669084
119	0x3f2eae50	0.6823473
120	0xbef8db2f	-0.48604724
121	0x3f818182	1.0117648
122	0x3e8d3cf8	0.27585578
123	0xbfed9240	-1.8560257
124	0x3eb1dfe5	0.3474113
125	0x3f6b9c25	0.9203513
126	0x400eb69a	2.229895
127	0xbf7f59ff	-0.997467
128	0x3f63773a	0.888538
129	0xbfba5eaf	-1.4560145
130	0xbf3cbd46	-0.7372631
131	0xbeac8ef4	-0.33702815
132	0x3f9fcf6e	1.2485178
133	0x3fb9e76e	1.4523752
134	0xbd5fd7bf	-0.05464911
135	0x3c3b5b1f	0.011435299
136	0xbfb8753c	-1.4410777
137	0xbecfe6da	-0.40605813
138	0xbdb55fde	-0.08856176
139	0x3eafe6df	0.34355828
140	0x3ebda49b	0.37039647
141	0x3e8a0353	0.2695566
142	0x3f4fab8d	0.8112114
143	0x3f73ac95	0.95185214
144	0xbf175c82	-0.5912553
145	0x3ef9a088	0.48755288
146	0x3ed6aef1	0.41930345
147	0xc03038bb	-2.7534626
148	0xbf1ee302	-0.62065136
149	0x3fb4b8c6	1.4118888
150	0x3e7a21c7	0.24426948
151	0x3f30139a	0.6877991
152	0xbfae75a2	-1.3629649
153	0x3f50e55c	0.81599975
154	0x3f4c0533	0.79695433
155	0x3ee1e18d	0.44117394
156	0x3fb32b16	1.3997524
157	0x3fb54f24	1.4164777
158	0xbf39c2c9	-0.72562844
159	0xbf00869e	-0.5020541
160	0x3e7a4757	0.24441276
161	0x3f59c207	0.8506169
162	0x3dcad7e7	0.09904461
163	0xbe97565e	-0.2955808
164	0xbfb65d7e	-1.4247282
165	0xbfae829a	-1.3633606
166	0xbf8a2289	-1.0791789
167	0xbef80d30	-0.4844756
168	0xbfb81c07	-1.4383553
169	0x3f2c28e4	0.67249894
170	0xbe9025f8	-0.28153968
171	0x3f66578f	0.89977354
172	0xbd91c2c1	-0.071172245
173	0x3f83e8ee	1.030546
174	0xbec8950b	-0.3917621
175	0x3f37f1fa	0.718536
176	0x3fc24340	1.5176773
177	0xbf90f1bb	-1.132377
178	0x4008dc29	2.1384375
179	0x401ec54a	2.4807916
180	0xbf3013de	-0.68780315
181	0xbed9d5fc	-0.4254607
182	0xbfe8a720	-1.8176003
183	0xbfb4c9c8	-1.4124079
184	0x3fb88267	1.4414796
185	0x3eb0f097	0.34558555
186	0x3dfc96fd	0.12333486
187	0x3fd1ac83	1.6380771
188	0xbefbf42f	-0.49209735
189	0xbec5ac78	-0.38608146
190	0xbfb53fb8	-1.416007
191	0x3fd4a031	1.6611387
192	0x3d767126	0.0601665
193	0x3f9b2343	1.2120136
194	0x3d823471	0.06357659
195	0x3f9218f7	1.1413869
196	0x3fa40147	1.281289
197	0x3fc2bfde	1.5214803
198	0x3e0dc231	0.1384361
199	0x3f95be23	1.169865
200	0x402bf64b	2.6869075
201	0x3f33e5d5	0.7027257
202	0x3f2ad7db	0.6673562
203	0xbe21867f	-0.15773962
204	0xbf256554	-0.6460774
205	0xbf0c5a00	-0.5482483
206	0xbf08b921	-0.53407484
207	0xbf96db1d	-1.1785618
208	0xbec83f69	-0.39110878
209	0x3e4cd1b1	0.20001866
210	0xbfc9e493	-1.577288
211	0x3e2e536c	0.1702401
212	0x3ead3bb5	0.33834615
213	0x3db44a3f	0.08803224
214	0xbfaa0ce4	-1.3285184
215	0x3fd4d033	1.6626037
216	0x3f8a7b0c	1.0818801
217	0x3f39070a	0.72276366
218	0xbf4112b5	-0.7541917
219	0x3f45c274	0.77249837
220	0x3f159071	0.58423525
221	0xbf7c2981	-0.9850083
222	0x3f43920e	0.76394737
223	0xbf0583d8	-0.521543
224	0x4040d41e	3.0129466
225	0xbf85ee62	-1.0463374
226	0xbebff591	-0.3749204
227	0xbf88fb9b	-1.0701784
228	0xbd6312cd	-0.05543785
229	0xbf841f71	-1.0322095
230	0x3f5be628	0.85898066
231	0x3fa57546	1.2926414
232	0xbf2b987a	-0.67029536
233	0x3f8f48ea	1.1194127
234	0x3fbf6f93	1.4955925
235	0x3f82b087	1.0210122
236	0x3fa03cff	1.2518615
237	0xbf17a3ef	-0.5923452
238	0xbf724243	-0.9463236
239	0xbf7e60c2	-0.9936639
240	0x3f9cc2a3	1.2246898
241	0x3e5d89d0	0.21634603
242	0x3f35603d	0.7084997
243	0x3f819722	1.0124247
244	0x3f8e0f3e	1.1098402
245	0x3f71242b	0.9419581
246	0xbec0f446	-0.37686366
247	0xbfacef9d	-1.3510624
248	0x3f9b769b	1.214557
249	0x3f046576	0.5171732
250	0x3ed4b46d	0.41543904
251	0xbef0adaa	-0.47007495
252	0x3e482bf0	0.19548011
253	0xbf76c20d	-0.9638985
254	0xbd108a4f	-0.03528815
255	0x3f063719	0.5242782

weight_ih_l0 f4 [800, 83]
0	0xbb2dabe5	-0.0026500162
1	0xbda6fe93	-0.08154025
2	0xbd2926de	-0.041296832
3	0xbd16123c	-0.036638483
4	0x3c38a96b	0.011270861
5	0x3d6e4088	0.05816701
6	0xbd4f194c	-0.050561234
7	0xbd8acea9	-0.067776985
8	0xbdf03ef8	-0.1173076
9	0x3cf4bd7b	0.029875508
10	0x3d04bbb4	0.03240557
11	0xbdd1de68	-0.10247499
12	0x3c960731	0.018313976
13	0x3d443f94	0.047912195
14	0x3ab9b8e2	0.0014169479
15	0x3dac5023	0.08413722
16	0x3d0207d4	0.031745747
17	0x3cbc2f6e	0.022971835
18	0x3d76b3c3	0.060230028
19	0x3de18f09	0.1101361
20	0x3e00c356	0.12574515
21	0x3d903c6c	0.070427746
22	0x3d7fb1a3	0.062425267
23	0xbd888496	-0.06665914
24	0xbda696ae	-0.081342086
25	0x3c952a62	0.018208686
26	0x3cbe36b8	0.023219451
27	0x3d1ffe7e	0.039061062
28	0xbc6ccf92	-0.0144537855
29	0xbd4e78b9	-0.0504081
30	0x3d731c9c	0.059353456
31	0x3b72bbc8	0.0037038196
32	0x3d3dbd64	0.046323195
33	0xbcc215b2	-0.023691986
34	0xbcda2269	-0.026627736
35	0x3c6465eb	0.013940315
36	0x3cf0fded	0.029417956
37	0xbdc0511d	-0.09390471
38	0xbd4c303c	-0.049850687
39	0x3d725cd6	0.059170566
40	0x3cb626c1	0.022235276
41	0x3db591b5	0.08865682
42	0xbb8d5c3a	-0.004313973
43	0xbc87cf4d	-0.01657834
44	0xbd9ab905	-0.07554821
45	0xbcb67981	-0.022274734
46	0xbd184047	-0.037170675
47	0x3d0a626a	0.03378526
48	0xbb857178	-0.0040723644
49	0x3cbc4791	0.022983344
50	0x3d4f3b9f	0.05059397
51	0x3ca41578	0.020029768
52	0x3c8bd042	0.017067079
53	0xbd7753c0	-0.060382605
54	0x3d16ec64	0.036846533
55	0xbd817c68	-0.06322557
56	0xbc113b02	-0.008864166
57	0xbc8466d3	-0.016162312
58	0x3d6f127c	0.058367237
59	0xbd3a07fd	-0.045417774
60	0x3d777c07	0.060421016
61	0xbdaece1e	-0.085354075
62	0x3bcebf65	0.006309437
63	0xbce79258	-0.028268024
64	0xbd40c42c	-0.047062084
65	0x3c3a6331	0.011376188
66	0xbd25628a	-0.040377177
67	0x3cec3519	0.028833913
68	0x3dd81773	0.105513476
69	0xbc874b49	-0.016515391
70	0x3daf1d16	0.085504696
71	0xbc71c6f0	-0.014756903
72	0xbc913d98	-0.017729566
73	0xbcb5f2e3	-0.022210544
74	0xbc66777d	-0.014066574
75	0x3b6887f6	0.003548143
76	0x3d904418	0.07044238
77	0x3d79d14b	0.060990613
78	0xbdc4eef9	-0.09615893
79	0xbd4fa64a	-0.050695695
80	0x3db77eb5	0.08959714
81	0xbd8be6c5	-0.06831125
82	0x3d538495	0.051640112
83	0x3da0e37a	0.07855888
84	0x3cbde207	0.023179067
85	0x3d2c6ac0	0.042093992
86	0x3c828283	0.015931373
87	0xbce8c468	-0.028413966
88	0xbda96643	-0.08271458
89	0x3ccb8df0	0.024847955
90	0x3b479fce	0.0030460241
91	0x3d047f39	0.03234789
92	0xbce8e899	-0.028431224
93	0xbd46ab29	-0.048503075
94	0xbd9696e4	-0.07352999
95	0xbd86c97c	-0.06581399
96	0x39d69365	0.00040927078
97	0xbde883a6	-0.11353235
98	0x3d67b7aa	0.05657164
99	0x3dfd5951	0.123705514
100	0x3d8fd7f9	0.070236154
101	0xbd252cc7	-0.040325906
102	0xbddd4f58	-0.10806149
103	0xbe0f38c3	-0.13986497
104	0xbd4b0817	-0.049568262
105	0xbdedd8c6	-0.11613612
106	0x3d00f67e	0.031485073
107	0x3c484d5f	0.012225478
108	0x3bc1f70a	0.005919342
109	0x3d36f807	0.04467013
110	0xbd9bd576	-0.07609074
111	0x3d8621dd	0.06549428
112	0x3d6f8530	0.058476627
113	0x3bbd9d12	0.0057865465
114	0xbdff4717	-0.12464731
115	0x3ce40e89	0.027838962
116	0xbcf1ac05	-0.02950097
117	0xbaea196d	-0.0017860361
118	0xbde509ee	-0.111835346
119	0x3b7440b7	0.0037270018
120	0xbdaee24b	-0.08539256
121	0x3dbce2d8	0.092229545
122	0x3d410310	0.04712206
123	0x3ccd9d0f	0.025099305
124	0x3cad1c24	0.021131583
125	0x3dce6a2e	0.10078846
126	0xbb74a066	-0.003732705
127	0x3da9ed2a	0.082971886
128	0x3d475427	0.04866424
129	0xbda9a645	-0.082836665
130	0x3cb1f51c	0.021723323
131	0x3d2e5313	0.042559694
132	0xbd6321ca	-0.055452146
133	0x3d3397fe	0.043846123
134	0x3d3bf3d6	0.045886837
135	0x3dcd039b	0.10010453
136	0xbcdb3b5b	-0.026761701
137	0xbdb0fe26	-0.08642225
138	0x3c6dffba	0.014526302
139	0x3d52e784	0.05149032
140	0x3b91da80	0.004451096
141	0x3d1f740d	0.038929034
142	0x3d42ec51	0.04758865
143	0x3c9e2cd8	0.019308493
144	0xbdc1bf15	-0.09460274
145	0x3b3fe40d	0.0029280216
146	0x3d9bc789	0.07606418
147	0xbd83f4a7	-0.06443148
148	0xbdd96bc7	-0.1061626
149	0x3caa117e	0.020760294
150	0xbd2ecdad	-0.042676616
151	0xbd94a735	-0.07258455
152	0xbb5f9a05	-0.0034118902
153	0x3b722efc	0.0036954274
154	0xbc7a610f	-0.01528193
155	0x3d725178	0.059159726
156	0xbaabb0ac	-0.0013098917
157	0x3dab6507	0.08368879
158	0x3d1dba1b	0.038507562
159	0xbd8dafc6	-0.06918292
160	0xbd24f488	-0.040272266
161	0x3b28ba62	0.0025745858
162	0x3d4887d4	0.04895766
163	0x3da87516	0.08225457
164	0xbd774cb2	-0.060375877
165	0xbd2bff54	-0.041991547
166	0xbd4bc6b9	-0.049750064
167	0x3be51320	0.0069908053
168	0xbdbab5da	-0.09116717
169	0x3cffe926	0.031239104
170	0xbb1d0e05	-0.0023964655
171	0x3bb24575	0.005440409
172	0x3e2367fa	0.15957633
173	0x3da913ed	0.08255754
174	0xbd924f20	-0.07143998
175	0x3db51f45	0.08843855
176	0xbd2c3596	-0.04204329
177	0xbbc60df4	-0.006044144
178	0x3da04556	0.07825725
179	0x3bf3f24c	0.0074446555
180	0x3c855c9c	0.016279511
181	0xbc9321fc	-0.017960541
182	0xbc4e9137	-0.012607864
183	0xbca482a3	-0.020081824
184	0x3d4566c1	0.048193697
185	0x3ca6631f	0.020310936
186	0x3d409ec8	0.047026426
187	0x3c9b5e70	0.01896593
188	0x3cfb2211	0.030655893
189	0x3d13b7e4	0.036064044
190	0x3cbdd040	0.02317059
191	0x3da3985d	0.07988045
192	0x3c337092	0.010952132
193	0x3d86b19c	0.06576845
194	0xbd11306e	-0.035446577
195	0xbd214ddd	-0.039380897
196	0x3d5dffe1	0.054199103
197	0x3d1139dc	0.03545557
198	0xbd2b825b	-0.041872364
199	0x3c94db77	0.018171055
200	0xbd1009d8	-0.035165638
201	0xbcd79c24	-0.02631957
202	0x3d738924	0.05945696
203	0xbd4656bf	-0.04842257
204	0xbc73ac9f	-0.014872699
205	0x3d991f4f	0.07476675
206	0x3d4a3a87	0.049372222
207	0x3d4c3b39	0.049861167
208	0xbd8105a9	-0.06299908
209	0xbd0620ca	-0.032746114
210	0x3c08cc0f	0.008349433
211	0x3db1a76b	0.086745106
212	0x3c8161bf	0.01579368
213	0x3c95b2b2	0.018273685
214	0xbc62f442	-0.013852181
215	0xbcd8e2a3	-0.026475256
216	0xbc965281	-0.018349888
217	0x3e1bf273	0.15229206
218	0x3c79e03c	0.015251216
219	0x3d782c32	0.060589023
220	0xbdab2845	-0.0835729
221	0xbce91581	-0.028452637
222	0x3dff2a4d	0.1245924
223	0xbb6bfde3	-0.0036009483
224	0x3d2f1eed	0.042754102
225	0xbd92205c	-0.07135078
226	0x3d1aef89	0.037826095
227	0xbdacbd02	-0.08434488
228	0xbd6e2ddb	-0.0581492
229	0xbd950694	-0.07276645
230	0xbc8f1880	-0.017467737
231	0xbdc39d3b	-0.09551474
232	0xbd180b68	-0.037120253
233	0xbb67cf25	-0.003537127
234	0xbcffa259	-0.031205343
235	0x3dba9ca3	0.09111907
236	0x3b8b56e3	0.004252301
237	0x3d420ba3	0.04737438
238	0xbc5bb5ce	-0.013410045
239	0x3c5f0ba3	0.013613614
240	0x3db5fe65	0.088864125
241	0xbc4efcda	-0.012633527
242	0xbd4a1e70	-0.049345434
243	0x3d8b2852	0.067948
244	0x3d179b08	0.037013084
245	0x3d84b207	0.064792685
246	0xbc5b25b6	-0.01337569
247	0xbd324055	-0.043518383
248	0x3cd67453	0.026178515
249	0xbd1a70af	-0.03770512
250	0x3cb1548f	0.021646766
251	0x3cb3b548	0.021937028
252	0xbbce881a	-0.0063028457
253	0xbd0ae416	-0.033908926
254	0x3b80315e	0.003912135
255	0x3d250416	0.0402871

weight_hh_l0 f4 [800, 200]
0	0xbd20080b	-0.03907017
1	0x3dded673	0.10880747
2	0xbb2b275d	-0.0026115992
3	0xbe180e84	-0.14849287
4	0xbd8c78de	-0.06858991
5	0x3d163422	0.03667081
6	0x3de236b1	0.11045588
7	0x3cc4eb34	0.024037935
8	0x3d80b018	0.06283587
9	0x3d8ecb49	0.06972367
10	0x3d53b1a2	0.051683076
11	0x3c96cea9	0.01840909
12	0xbcfc5f74	-0.030807234
13	0x3df7dd50	0.12102759
14	0xbd91fb53	-0.071280144
15	0x3cdeed04	0.027212627
16	0x3dc8d3fc	0.09806058
17	0xbd70755d	-0.058705676
18	0x3d3cffec	0.046142504
19	0xbbd93005	-0.006628039
20	0x3c61255b	0.013741816
21	0xbdf9d57f	-0.12198924
22	0x3d97fba6	0.07421045
23	0xbdf4885f	-0.11940073
24	0xbd2e2ad1	-0.0425213
25	0xbc4ef2e1	-0.012631149
26	0x3c0611a1	0.008182914
27	0x3b8d4e7a	0.0043123337
28	0xbd0cdac6	-0.034388326
29	0x3e0b1062	0.13580468
30	0x3d452109	0.048127208
31	0xbd051a38	-0.032495707
32	0x3d53a9f7	0.051675763
33	0xbd33e76d	-0.043921877
34	0xbc1cc3c5	-0.0095681595
35	0xbcf4efdb	-0.029899528
36	0xbd39056b	-0.045171183
37	0x3db34488	0.08753306
38	0xbd18580b	-0.03719334
39	0x3dfa5f59	0.12225217
40	0x3dd474e7	0.1037386
41	0xbd00963b	-0.03139327
42	0x3da41db2	0.080134764
43	0xbc886298	-0.016648576
44	0x3d643703	0.055716526
45	0x3de8460f	0.113414876
46	0x3de09614	0.10966125
47	0xbd381d48	-0.0449498
48	0x3d55246b	0.052036684
49	0xbdab1224	-0.083530694
50	0xbd330a71	-0.04371113
51	0x3daa2b44	0.083090335
52	0x3e086ff6	0.1332396
53	0xbb332b75	-0.0027339135
54	0xbdb08317	-0.086187534
55	0x3e191d44	0.1495257
56	0xbca6d6d7	-0.020366115
57	0xbd1d2fac	-0.03837554
58	0x3e13ddba	0.1444005
59	0x3cd9bee6	0.026580285
60	0xbe0f34fe	-0.13985059
61	0xbdbacf52	-0.091215745
62	0x3cee6217	0.029099507
63	0xbd7a1296	-0.06105288
64	0x3bc0bdb4	0.0058819894
65	0xbd9ef324	-0.07761219
66	0xbd4a72bf	-0.049425837
67	0xbe214949	-0.15750612
68	0xbdd245f5	-0.102672495
69	0x3c129f58	0.008949123
70	0xbdbc6a60	-0.09199977
71	0x3de0e6b9	0.10981507
72	0xbd2851bc	-0.041093573
73	0x3dc05254	0.09390703
74	0xbcaeb61b	-0.021327069
75	0x3b24bbaa	0.002513627
76	0x3d54fe23	0.052000176
77	0xbcfd479e	-0.030917939
78	0x3e08351d	0.13301511
79	0x3d9b0abe	0.07570408
80	0xbe069d73	-0.13146
81	0x3d6995d4	0.057027653
82	0x3dd623bd	0.10456035
83	0x3d04a523	0.03238405
84	0x3ddf8c2d	0.10915408
85	0xbc7f7bad	-0.015593451
86	0xbc218b9c	-0.009859946
87	0xbe03db2c	-0.12876576
88	0x3c8cc9d6	0.017186087
89	0xbe173a80	-0.1476841
90	0x3d892599	0.06696624
91	0xbd1ded56	-0.03855642
92	0x3cae7013	0.021293676
93	0xbdf58c0c	-0.119896024
94	0xbd90ef78	-0.07076925
95	0xbc9dafbe	-0.01924884
96	0xbddeb406	-0.108741805
97	0xbe12a2b3	-0.14319877
98	0xbde35e67	-0.1110199
99	0xbd6f5fd5	-0.058441002
100	0xbdb84a75	-0.089985766
101	0xbdbc4dca	-0.091945246
102	0xbcb23e5a	-0.021758247
103	0xbdd89d16	-0.10576837
104	0x3cd4cbcc	0.025976084
105	0x3dfb5a98	0.12273139
106	0xbe0fcd89	-0.14043249
107	0xbe0b88ff	-0.13626479
108	0x3e1086d6	0.14113936
109	0x3d92de6e	0.07171331
110	0x3d91918c	0.07107839
111	0x3e15941b	0.14607279
112	0x3df6e073	0.12054529
113	0x3d362862	0.044472106
114	0x3bca7ee1	0.006179676
115	0xbdbb8368	-0.09155923
116	0x3d36ef74	0.044661954
117	0xbcc70615	-0.024294892
118	0x3e1dbfe9	0.15405239
119	0x3e29bc66	0.16575775
120	0xbe1cf689	-0.1532842
121	0xbe11f136	-0.14252171
122	0x3d885d7a	0.06658454
123	0x3d7e401a	0.06207285
124	0x3cbba476	0.02290557
125	0xbd3bf934	-0.045891955
126	0xbca35646	-0.0199386
127	0xbde1c49a	-0.11023827
128	0x3ddf2285	0.10895256
129	0xbdde662a	-0.1085933
130	0xbe03329c	-0.12812275
131	0x3cd2338a	0.025659341
132	0x3db1c982	0.08681013
133	0xbcfdb328	-0.030969217
134	0xbcce6e72	-0.025199149
135	0xbd27c9e7	-0.040964033
136	0xbb52637a	-0.003210275
137	0x3d409f94	0.047027186
138	0x3d2ddfb6	0.042449676
139	0x3dc837fe	0.09776305
140	0x3d408929	0.047005806
141	0x3e2fb309	0.1715814
142	0x3de32357	0.11090725
143	0xbd614299	-0.054995153
144	0x3de97195	0.11398617
145	0xbd83e34d	-0.064398386
146	0xbcb29b00	-0.021802425
147	0x3e05032b	0.1298949
148	0x3d92bc68	0.07164842
149	0xbda607da	-0.08106966
150	0xb887889a	-6.462746e-05
151	0xbe215a35	-0.15757068
152	0xbb7095f2	-0.0036710468
153	0x3dc53d38	0.09630817
154	0xbdf84f48	-0.12124497
155	0x3ddee110	0.10882771
156	0x3da8fcfe	0.082513794
157	0xbd944873	-0.07240381
158	0x3deb4669	0.11488039
159	0x3b543cc4	0.0032384852
160	0x3dc7ae77	0.097500734
161	0x3dcc448d	0.099740125
162	0xbd72364d	-0.059133817
163	0x3d340beb	0.04395668
164	0x3d6ab4ac	0.05730121
165	0x3da97bb0	0.08275545
166	0x3d1f3d6c	0.038876936
167	0xbd8ca694	-0.0686771
168	0x3d49948f	0.049213942
169	0x3dfaa453	0.122383736
170	0xbd56a24d	-0.052400876
171	0x3d840685	0.06446556
172	0x3d8f7535	0.07004777
173	0x3cf48df9	0.029852854
174	0x3db4091a	0.087907985
175	0xbb853fe4	-0.0040664542
176	0x3d6926ce	0.056921773
177	0xbb06bf4e	-0.0020560804
178	0x3d85bdaa	0.06530316
179	0xbd4f15b2	-0.0505578
180	0xbe0b3726	-0.13595256
181	0x3d90924f	0.07059156
182	0xbd847b17	-0.0646879
183	0x3dfeee7d	0.12447832
184	0xbd8ce5c8	-0.06879765
185	0xbe10907c	-0.14117616
186	0x3cc32963	0.023823446
187	0x3d1988b9	0.037483905
188	0xbd8b16d1	-0.06791461
189	0xbc96dc4f	-0.018415598
190	0x3dd2fa8e	0.10301696
191	0xbd2cc3ac	-0.042178795
192	0x3c935cf5	0.017988661
193	0x3e1a0883	0.1504231
194	0x3d115a8c	0.035486743
195	0xbd888097	-0.066651516
196	0x3d21b6b7	0.03948089
197	0x3da3de66	0.080014035
198	0x3caa8e72	0.020819876
199	0x3dc4f061	0.09616161
200	0x3d925f4c	0.07147083
201	0xbd7704b0	-0.060307205
202	0xbc93bb5d	-0.018033678
203	0xbddd3369	-0.10800821
204	0xbd98a623	-0.07453563
205	0xbd52952d	-0.051411796
206	0xbd07f75e	-0.033194892
207	0xbc808821	-0.015689911
208	0x3d8f21bc	0.06988856
209	0xbd22e187	-0.03976586
210	0x3cb77463	0.022394365
211	0x3db66e41	0.08907748
212	0x3db1cfc3	0.086822055
213	0x3d9a37fd	0.0753021
214	0x3c410556	0.011781057
215	0x3d01e936	0.031716548
216	0xbc371669	-0.011174777
217	0xbdff0477	-0.124520235
218	0x3d87355f	0.066019766
219	0xbccad268	-0.024758533
220	0xbddc1b23	-0.107473634
221	0xbc055f59	-0.008140408
222	0xbd73d41b	-0.05952845
223	0xbcc4c931	-0.024021717
224	0x3d788cb3	0.060681056
225	0xbd825c86	-0.06365304
226	0xbc33c82d	-0.010973019
227	0x3d646de3	0.05576886
228	0xbd0ff4c5	-0.03514554
229	0x3b800b22	0.003907577
230	0x3d13dea5	0.036101002
231	0xbd70298e	-0.05863338
232	0x3d323bea	0.04351417
233	0xbd92d42c	-0.07169375
234	0xbd51a673	-0.05118413
235	0xbd78c2f8	-0.06073281
236	0xbd0f79ea	-0.035028376
237	0x3b7297b6	0.0037016696
238	0x3cc8e782	0.024524454
239	0x3dffc800	0.12489319
240	0x3c468d45	0.012118642
241	0x3a461a68	0.00075570354
242	0xbc5137fe	-0.012769697
243	0x3ca48224	0.020081587
244	0x3b13a819	0.0022530614
245	0xbd4287ea	-0.0474929
246	0xbc36091c	-0.01111057
247	0x3e068518	0.13136709
248	0xbd38d954	-0.045129135
249	0x3b099e2b	0.0020998816
250	0x3db87634	0.090069205
251	0x3d67326b	0.056444567
252	0x3d855c45	0.0651174
253	0x3d0dcf6c	0.03462164
254	0x3d2800cb	0.04101638
255	0xbba8ec1a	-0.0051550986

bias_ih_l0 f4 [800]
0	0x3e1a5601	0.1507187
1	0x3d3e98ca	0.04653243
2	0x3d6126ac	0.05496852
3	0x3de736cb	0.11289748
4	0x3dc5ab3f	0.09651803
5	0x3dff3d75	0.12462894
6	0x3bdc2dbb	0.0067193187
7	0x3d5b9bd6	0.053615414
8	0x3d2f4bc6	0.042796873
9	0x3e02b3c3	0.12763886
10	0x3e0b8dad	0.13628264
11	0x3baed7b8	0.0053357743
12	0x3d1cecd5	0.038311798
13	0x3e140dcc	0.14458388
14	0x3c019f26	0.007911479
15	0x3d51307f	0.05107164
16	0x3dc3609b	0.095399104
17	0x3d0dcc2b	0.034618538
18	0x3defd076	0.11709683
19	0x3c9326bb	0.017962804
20	0x3df6cfa9	0.12051327
21	0x3d71c1bc	0.05902265
22	0x3cab2198	0.020890042
23	0x3dcb1f93	0.09918132
24	0x3c733f47	0.014846629
25	0x3cc51edd	0.024062568
26	0x3e09848d	0.1342947
27	0x3dff6840	0.12471056
28	0xbc549ddc	-0.01297709
29	0x3d2fe8c0	0.042946577
30	0x3deca3fd	0.11554716
31	0x3d98cebb	0.07461306
32	0x3df0cab8	0.117574155
33	0x3cbbeacb	0.022939106
34	0x3d893111	0.06698812
35	0x3da61c00	0.08110809
36	0x3cc46eaa	0.02397855
37	0x3d91bb8f	0.07115852
38	0x3d648634	0.05579205
39	0x3dc0954e	0.094034776
40	0x3dd3f323	0.10349109
41	0x3ccc7432	0.02495775
42	0x3d1283b4	0.035770133
43	0x3dace113	0.08441367
44	0x3d9a63fe	0.07538603
45	0xbc5957fd	-0.013265607
46	0x3d9d5e7f	0.07684039
47	0x3dd4d2a9	0.10391743
48	0x39c6e5d1	0.0003793673
49	0x3db0c3e3	0.086311124
50	0x3de6b428	0.11264831
51	0x3c4d1603	0.012517455
52	0x3d5795f5	0.052633245
53	0x3e0c3225	0.13691004
54	0x3db9e598	0.09076995
55	0x3ccf0322	0.025270049
56	0x3de69a10	0.11259854
57	0x3bb2e510	0.0054594353
58	0x3d5f1206	0.054460548
59	0x3dec7e5f	0.11547541
60	0x3de8b8fc	0.11363408
61	0x3ccdc209	0.025116937
62	0x3db95d5c	0.0905101
63	0x3b8b0166	0.00424211
64	0x3d92b7f8	0.071639955
65	0xbc4f3831	-0.012647674
66	0x3d361b19	0.044459436
67	0xbd16d6b0	-0.036825836
68	0xbc6987b9	-0.01425355
69	0x3d90c68b	0.07069119
70	0x3c05c965	0.008165692
71	0x3c9f41d8	0.019440576
72	0x3d70ec49	0.05881909
73	0x3dadd48e	0.08487807
74	0x3df091dc	0.117465705
75	0x3e1d6e53	0.15374117
76	0x3dd33179	0.103121705
77	0x3dac5979	0.08415503
78	0x3db6c323	0.08923938
79	0x3cd15e99	0.025557803
80	0xbc21885c	-0.009859171
81	0x3d9bb9d0	0.076038
82	0x3d29b269	0.04142991
83	0x3c492fd7	0.012279472
84	0x3d929345	0.07156996
85	0x3c9271fd	0.01787662
86	0x3e25cdea	0.16191831
87	0x3c9b5e2e	0.018965807
88	0x3e29d3c2	0.16584685
89	0x3cb40377	0.021974308
90	0x3d910261	0.07080532
91	0x3d64880a	0.0557938
92	0x3cb32ffe	0.02187347
93	0x3d9d1927	0.07670813
94	0x3da7b80e	0.081894025
95	0x3dcb732d	0.099340774
96	0x3d4ea84a	0.05045346
97	0x3d98d594	0.07462612
98	0xbd08de1d	-0.03341495
99	0x3db709dc	0.089374274
100	0x3d054907	0.032540347
101	0x3c44f1ba	0.012020523
102	0x3e069b7e	0.13145253
103	0x3dc99c47	0.09844261
104	0xbcbc2012	-0.022964511
105	0x3db2f3ad	0.08737884
106	0x3cdd7643	0.02703393
107	0x3d1ecb73	0.038768243
108	0x3df50501	0.11963845
109	0x3df477dd	0.119369246
110	0x3e03ba07	0.12863933
111	0x3d9d977c	0.07694909
112	0xbbd0ce3f	-0.0063722427
113	0x3dd113c8	0.10208851
114	0x3d791605	0.060812015
115	0x3d2de776	0.042457066
116	0x3d15b698	0.036551088
117	0x3caba64f	0.020953326
118	0x3dad1a46	0.08452277
119	0x3be5b5f7	0.0070102173
120	0x3d73bfce	0.05950909
121	0x3dfbe726	0.122999474
122	0x3dbf792b	0.09349283
123	0x3d1428d1	0.036171738
124	0x3c1a8a49	0.009432384
125	0x3e11ba7e	0.14231297
126	0x3d6a3bde	0.057186
127	0x3e066bab	0.1312701
128	0xbc956f9e	-0.0182417
129	0x3dd3dc1b	0.10344716
130	0x3d6fc083	0.058533203
131	0x3d056208	0.032564193
132	0x3e02c3c3	0.1276999
133	0x3d45d486	0.04829838
134	0x3cce4bf1	0.025182696
135	0x3e1aad79	0.15105237
136	0x3dfbb594	0.12290493
137	0x3df3be32	0.11901511
138	0xbd006de6	-0.031354807
139	0x3cb47c7b	0.022032013
140	0x3da6aca6	0.08138399
141	0x3dd0c416	0.101936504
142	0x3de9e834	0.11421242
143	0x3dda40dd	0.10656903
144	0x3d777612	0.060415335
145	0x3db5f0d8	0.08883828
146	0xbb6439e2	-0.003482454
147	0x3dddd2e3	0.10831239
148	0x3dee6e26	0.11642103
149	0xbc915853	-0.017742312
150	0x3dec7d35	0.11547319
151	0x3dd4c00f	0.10388195
152	0x3d6cb6cb	0.057791512
153	0x3d0b9412	0.034076758
154	0x39cd032b	0.00039103007
155	0x3d303e08	0.043027908
156	0x3dea42d1	0.114385255
157	0x3d8539ec	0.06505188
158	0x3d2a52fd	0.04158305
159	0x3d872305	0.06598476
160	0x3d0548fa	0.0325403
161	0x3e077358	0.13227594
162	0x3d94d5d6	0.072673485
163	0x3c306b6e	0.010767801
164	0x3daab06a	0.083344296
165	0xbbd12833	-0.006382966
166	0x3c33413d	0.010940847
167	0x3d39232a	0.04519955
168	0x3d6323ad	0.055453945
169	0x3d619d4e	0.055081658
170	0x3dd3e126	0.10345678
171	0x3d5934d2	0.05302889
172	0x3e0cf6f2	0.13766077
173	0x3e14c8c3	0.1452971
174	0x3bec74f5	0.007216091
175	0x3daf91bf	0.08572721
176	0x3d6709bf	0.05640578
177	0x3cff2d51	0.031149538
178	0x3d884dd6	0.06655471
179	0x3de4be5a	0.11169119
180	0x3ddb47dc	0.107070655
181	0x3d432ad5	0.04764827
182	0x3e009c2a	0.12559572
183	0x3ca9efe2	0.020744268
184	0x3e171958	0.14755762
185	0x3db5d39d	0.08878253
186	0x3ced108f	0.02893856
187	0x3dc7ec02	0.09761812
188	0x3dc8ac8e	0.09798537
189	0xbce62ff2	-0.028099034
190	0xbb568e52	-0.0032738638
191	0x3d7079c5	0.05870988
192	0x3c876368	0.016526893
193	0x3d31f69a	0.04344807
194	0x3d460016	0.048339926
195	0x3dc45004	0.09585574
196	0xbb857dea	-0.004073848
197	0x3dc8bae4	0.098012716
198	0x3bfc6a0f	0.007703073
199	0x3dc03d40	0.093866825
200	0xbd0f36b8	-0.034964293
201	0xbcc0420a	-0.02346899
202	0x3cf56a9e	0.029958066
203	0x3d147053	0.036239933
204	0x3d82f156	0.063936874
205	0x3d4f12b6	0.050554954
206	0x3d919899	0.07109184
207	0x3d895c6f	0.067070834
208	0x3d9a8247	0.0754438
209	0x3dae28a7	0.085038476
210	0x3cab5469	0.020914273
211	0xbd195c58	-0.03744158
212	0x3d5d04b3	0.05395956
213	0x3d506ac1	0.05088306
214	0x3d88cc83	0.066796325
215	0xbcbbc0e3	-0.022919124
216	0x3cccc6bf	0.024997113
217	0x3cde4daa	0.027136642
218	0x3c26afe3	0.010173771
219	0xbc703a4e	-0.014662338
220	0x3d5dc0f9	0.05413911
221	0x3d9cd3e5	0.07657603
222	0x3cb5c082	0.022186521
223	0x3bfb8ff9	0.007677075
224	0x3d47af2f	0.048751052
225	0x3d53b17c	0.051682934
226	0x3c3df6eb	0.011594514
227	0x3d79b4c8	0.060963422
228	0xbd11ac3b	-0.035564642
229	0xbc1e1687	-0.009648926
230	0x3dab89b1	0.08375872
231	0x3caa5a09	0.020794885
232	0x3ba70737	0.0050972956
233	0xbc81f1f4	-0.015862443
234	0x3c852e57	0.016257448
235	0xbd8fd991	-0.070239194
236	0x3d1653c2	0.03670097
237	0x3d3a2f59	0.04545531
238	0x3ce10fbb	0.027473321
239	0x3d5eb77f	0.054374214
240	0x3d905827	0.07048064
241	0x3d7af601	0.061269764
242	0xbc0b1ebb	-0.008491213
243	0xbd291115	-0.041276056
244	0x3d75a1fb	0.05996893
245	0x3c171574	0.009221423
246	0x3d59cf24	0.05317606
247	0x3c40f6bb	0.011777575
248	0x3cd0b433	0.02547655
249	0x3c498c22	0.012301477
250	0x3d0663b8	0.032809943
251	0xbc8a8bf8	-0.016912445
252	0x3dc4c9ae	0.0960878
253	0xbd6816dd	-0.05666243
254	0x3d90c0a6	0.07067995
255	0xbd7e2e34	-0.06205578

bias_hh_l0 f4 [800]
0	0x3d0df1d0	0.03465444
1	0x3da985d4	0.08277479
2	0x3d739a88	0.059473544
3	0x3cf93c37	0.03042422
4	0x3d04d95f	0.032433864
5	0x3db7eb8b	0.08980473
6	0x3c9a0bc4	0.018804438
7	0x3de2d50d	0.110757925
8	0xbd1a7772	-0.03771157
9	0x3de3cdfb	0.11123272
10	0x3d127027	0.035751488
11	0x3cdc4d32	0.026892278
12	0x3de24574	0.110484034
13	0x3e15fe94	0.14647895
14	0x3db21b06	0.086965606
15	0x3e04ea9d	0.12980123
16	0x3d81825c	0.06323692
17	0x3dfeb26b	0.12436374
18	0x3cb23f5e	0.021758731
19	0x3d507538	0.05089304
20	0x3dd2bbda	0.10289736
21	0x3e01b982	0.12668422
22	0x3d486b68	0.048930556
23	0x3d098da5	0.03358235
24	0x3c002203	0.007820609
25	0x3db6ed03	0.08931925
26	0x3cd8f777	0.026485188
27	0x3d8ab196	0.06772153
28	0x3cff454b	0.031160971
29	0x3d4eeeba	0.050520636
30	0x3df591f3	0.11990728
31	0x3db9c36f	0.09070479
32	0x3c8d5e5e	0.017256912
33	0x3c50a398	0.012734316
34	0x3e116b3a	0.1420106
35	0x3e03b1be	0.12860772
36	0x3dcee020	0.10101342
37	0x3dcf6f87	0.10128694
38	0x3d87a339	0.06622929
39	0x3d352b66	0.04423084
40	0x3c8a0ff6	0.016853314
41	0x3d2a437c	0.041568264
42	0x3db47100	0.088106155
43	0x3e22cd9c	0.15898746
44	0xbcb90d72	-0.022589419
45	0x3d9fcc61	0.07802654
46	0x3cc13037	0.023582561
47	0x3d847d24	0.06469181
48	0x3ca0203a	0.019546617
49	0x3db8ebf7	0.09029382
50	0x3e1a71a9	0.1508242
51	0x3cc5f05e	0.024162468
52	0x3d848324	0.064703256
53	0x3da09eb4	0.0784277
54	0x3b77351e	0.003772087
55	0x3d75ddab	0.060025852
56	0x3dd7e07c	0.10540864
57	0x3dd08c83	0.101830505
58	0x3d327556	0.04356893
59	0x3d93e019	0.072204776
60	0x3d36e475	0.044651467
61	0xbc6e406c	-0.014541727
62	0x3d446a21	0.047952775
63	0x3c5c6d81	0.013453842
64	0x3cd1a5e6	0.025591802
65	0x3c047313	0.008084076
66	0x3dd7315e	0.10507463
67	0x3d4e046e	0.050297193
68	0x3d95cb14	0.07314125
69	0x3d34240b	0.043979686
70	0x3d043ab4	0.032282546
71	0x3b5c6470	0.0033629201
72	0x3dc76405	0.09735874
73	0x3d194c61	0.037426356
74	0x3df30990	0.11867058
75	0x3dff86ed	0.12476907
76	0x3dbddf43	0.092710994
77	0x3da0d1f5	0.07852546
78	0xbbcbf225	-0.0062239342
79	0x3d57f6af	0.05272549
80	0x3d9c3ea9	0.07629139
81	0x3de73ace	0.11290513
82	0x3ce3a408	0.027788177
83	0x3d83f265	0.064427175
84	0x3d47d61c	0.048788175
85	0xbbf76f5e	-0.007551118
86	0x3df12ef4	0.11776534
87	0x3d6194e8	0.05507365
88	0x3cf67978	0.030087218
89	0x3dad6e09	0.08468253
90	0x3c7a0721	0.015260489
91	0x3df79d21	0.12090517
92	0x3cc3e06a	0.02391072
93	0x3c34aa6b	0.011026959
94	0x3e200098	0.15625226
95	0x3cc79395	0.024362365
96	0x3e0f9c55	0.1402448
97	0x3dedc6fc	0.11610219
98	0x3dcd7f67	0.10034066
99	0x3d8b4499	0.06800193
100	0x3dc105ef	0.0942496
101	0x3d207897	0.039177503
102	0x3d66e1d8	0.056367725
103	0x3c9c5f23	0.019088333
104	0xbcbc3e32	-0.022978876
105	0x3dfa9888	0.12236124
106	0x3de29387	0.11063295
107	0x3da750f4	0.081697375
108	0x3de68795	0.11256329
109	0x3dc1dfa0	0.09466481
110	0x3dddb8fe	0.108263
111	0xbc88d958	-0.0167052
112	0xbc6a0fce	-0.014285995
113	0x3d91c85b	0.07118293
114	0x3dc87296	0.097874805
115	0x3d1d137d	0.038348664
116	0x3a8c8aba	0.0010722496
117	0x3d35a7a1	0.044349317
118	0x3c6790bb	0.0141336275
119	0x3d40201e	0.04690563
120	0x3d6f4558	0.05841574
121	0x3d4e1f85	0.050323028
122	0x3d98ed9a	0.07467194
123	0x3df64b8d	0.12026129
124	0x3d648c6b	0.055797976
125	0x3d9fc7e5	0.07801799
126	0x3de5066e	0.11182867
127	0x3dba2aaf	0.090901725
128	0xbca00380	-0.019532919
129	0x3d008782	0.03137923
130	0x3d7517d7	0.05983719
131	0x3b6eb780	0.0036425292
132	0x3e1f647b	0.15565674
133	0x3e08c531	0.13356473
134	0x3e08091d	0.13284726
135	0x3d655b4c	0.05599527
136	0x3dd39dee	0.10332857
137	0x3dd56c02	0.104209915
138	0xb99d6567	-0.00030020924
139	0x3de170b2	0.11007823
140	0x3c766b01	0.01504016
141	0x3cbfcc5d	0.023412878
142	0x3e08d890	0.13363862
143	0x3d7ccc24	0.06171812
144	0x3df84021	0.121216066
145	0x3cda34a8	0.026636437
146	0x3da7f902	0.08201791
147	0x3d6fbd71	0.058530275
148	0x3de53916	0.11192529
149	0x3d1a3436	0.03764745
150	0x3e13f289	0.14447989
151	0x3d5a168a	0.05324415
152	0x3d38093b	0.044930678
153	0x3d11190e	0.035424285
154	0x3dd380e4	0.10327318
155	0x3d45c99f	0.048287984
156	0x3e279972	0.16367128
157	0x3cced4b1	0.025247904
158	0x3d9ef84e	0.07762204
159	0x3b0d7fbe	0.0021591033
160	0x3da9913c	0.082796544
161	0x3d4b9a35	0.04970761
162	0x3d0f2c23	0.0349542
163	0x3d6bf160	0.05760324
164	0x3c7587dc	0.014986005
165	0x3d99ed97	0.0751602
166	0x3dbed254	0.09317461
167	0x3d1adb25	0.03780665
168	0x3d892e9d	0.06698344
169	0x3c145f7e	0.00905597
170	0x3dfe4d8b	0.12417134
171	0x3da766b4	0.08173886
172	0x3d3b2c84	0.04569675
173	0x3d434161	0.047669772
174	0x3c8e1d55	0.017347971
175	0x3d9664f8	0.07343477
176	0x3dc3f4ac	0.09568152
177	0x3c879c82	0.01655412
178	0xbc04fdc8	-0.008117147
179	0x3c4e7890	0.0126019865
180	0x3dd80a7a	0.10548873
181	0x3cad893e	0.021183606
182	0x3d2d0e45	0.042249937
183	0x3da28bae	0.07936798
184	0x3d7b238d	0.0613132
185	0x3de1a831	0.11018408
186	0x3dc0b088	0.09408671
187	0x3da92c6b	0.08260425
188	0x3db7f3d8	0.089820564
189	0x3d661732	0.056174465
190	0x3de103e5	0.10987071
191	0x3d973a13	0.07384124
192	0x3dc63397	0.09677809
193	0x3d909289	0.07059199
194	0x3dcd2879	0.10017485
195	0x3d8f2841	0.069901
196	0xbcceb785	-0.025233993
197	0x3d0362f4	0.03207679
198	0x3df1ae13	0.1180078
199	0x3db0dc36	0.08635752
200	0xbd0ecc48	-0.034862787
201	0x3c117bb6	0.008879593
202	0x3d2a6711	0.041602198
203	0x3c9bdc6c	0.019026004
204	0x3d0c723f	0.03428864
205	0xbc5b58bc	-0.013387855
206	0x3d3d6a15	0.046243746
207	0x3caa31e6	0.020775747
208	0xbd05fbac	-0.032710716
209	0x3d6b135c	0.05739151
210	0x3d38fe7b	0.045164566
211	0x3b612f1d	0.0034360357
212	0xbd4d0527	-0.05005374
213	0x3d1303ad	0.035892177
214	0x3dad0a40	0.08449221
215	0x3c07999a	0.008276368
216	0xbd13bc74	-0.036068395
217	0xbcaeefe6	-0.021354627
218	0xbb6e5c6c	-0.0036371006
219	0x3c48744e	0.01223476
220	0xb9e6b76c	-0.00044005679
221	0x3d1e4cfb	0.038647633
222	0xbc77fa04	-0.015135292
223	0x3d86c33f	0.06580209
224	0x3d6e415d	0.058167804
225	0x3d87dd0e	0.0663396
226	0x3dacedcf	0.08443796
227	0x3ccd0db4	0.025030948
228	0x3b504a8c	0.0031782715
229	0x3dc18b72	0.09450425
230	0xbb96bf65	-0.0046004527
231	0x3a614595	0.00085934374
232	0xbd545a06	-0.051843666
233	0xbad25a2e	-0.0016048604
234	0x3cf117c4	0.029430278
235	0x3cb63b9b	0.022245219
236	0x3c3188a1	0.0108357975
237	0xbbf314b0	-0.0074182376
238	0x3d9aacbf	0.0755248
239	0x3d9d4e63	0.07680967
240	0x3c8ee70c	0.017444156
241	0x3d8be7d2	0.068313256
242	0x3c8ec703	0.01742888
243	0x3ca721b7	0.020401819
244	0x3da0a0bc	0.07843158
245	0x3d3d94f9	0.04628465
246	0x3d8e1e98	0.06939429
247	0xbc2d1171	-0.01056324
248	0xbb76d2e4	-0.0037662322
249	0xbb6b8a12	-0.003594045
250	0xbd7de684	-0.061987415
251	0x3dae161e	0.08500312
252	0x3cc892a3	0.024483984
253	0x3d25dc24	0.040493146
254	0x3bf87b7b	0.0075830794
255	0xbc0f9387	-0.008763201

weight f4 [49, 200]
0	0x3e3869ff	0.18009184
1	0x3df75445	0.1207662
2	0x3d6c0306	0.05762007
3	0x3b98acb1	0.0046592583
4	0xba37d3fa	-0.0007012483
5	0xbcd28c36	-0.025701623
6	0x3d80e603	0.06293871
7	0x3cdcf472	0.02697203
8	0x3d1b92c2	0.037981756
9	0x3d7f91c9	0.06239489
10	0x3dcc5bfe	0.099784836
11	0x3d888be9	0.06667311
12	0x3ddc4b7f	0.10756587
13	0x3da957f8	0.08268732
14	0xbdead89e	-0.11467098
15	0x3da88597	0.08228605
16	0x3dcba508	0.099435866
17	0x3c66685b	0.014062966
18	0x3cd44831	0.02591333
19	0x3c8dc08d	0.01730373
20	0x3da0d29b	0.0785267
21	0xbe04c1e4	-0.12964588
22	0x3cc7f069	0.024406629
23	0xbd69c7b6	-0.057075225
24	0xbddfe38f	-0.10932075
25	0xbd23108e	-0.03981071
26	0x3dc1ffc5	0.09472612
27	0x3cc566f1	0.024096938
28	0x3da46436	0.08026926
29	0xbce73be2	-0.028226797
30	0x3c28fc54	0.010314066
31	0xbd504047	-0.05084255
32	0x3d718c9f	0.058971997
33	0xbd0a7571	-0.033803407
34	0x3df42a23	0.119220994
35	0x3e137228	0.14399016
36	0xbe20fdb7	-0.15721785
37	0xbe0135da	-0.12618199
38	0x3d5a793a	0.053338267
39	0xbdd18bec	-0.10231766
40	0xbdea9c82	-0.11455633
41	0x3d05bc7d	0.03265046
42	0x3d88bf85	0.066771545
43	0x3da72fc5	0.08163408
44	0x3daa5da4	0.08318642
45	0x3e3ef6fa	0.18648902
46	0x3d01b058	0.031662315
47	0xbdf05030	-0.117340446
48	0x3e093a71	0.134012
49	0xbcfce06f	-0.030868737
50	0x3c9225d7	0.017840309
51	0x3c9325a5	0.017962286
52	0x3d337dea	0.043821253
53	0xbd994f4f	-0.0748583
54	0xbb1a30f9	-0.0023527725
55	0x3de078c7	0.109605365
56	0xbdbbda28	-0.091724694
57	0xbd97c116	-0.07409875
58	0x3d989b31	0.074514754
59	0xbdf51e79	-0.11968703
60	0xbd208da7	-0.03919759
61	0xbd8e2ed9	-0.06942529
62	0xbddbc59f	-0.107310526
63	0xbdcdb550	-0.10044348
64	0xbdbba438	-0.091621816
65	0xbd44e0ec	-0.048066065
66	0xbddab82c	-0.10679659
67	0xbd9a7c40	-0.0754323
68	0xbd719742	-0.05898214
69	0xbcea427a	-0.028596152
70	0xbd86b1e3	-0.06576898
71	0x3d4330f2	0.0476541
72	0xbdae3e77	-0.08508008
73	0x3dd49de2	0.10381676
74	0xbe06d7e0	-0.13168287
75	0xbd89ccb5	-0.06728498
76	0x3d1f6684	0.038916126
77	0xbdd1258a	-0.10212238
78	0x3e169259	0.14704265
79	0xbd4b0f34	-0.049575046
80	0xbd92f216	-0.071750805
81	0xbd65dc1d	-0.05611812
82	0x3cfc4338	0.030793771
83	0xbb705d39	-0.0036676659
84	0x3d83f174	0.06442538
85	0x3dd3e540	0.1034646
86	0xbd2eb2c7	-0.042650964
87	0xbd8bdb2c	-0.06828913
88	0x3c8935d5	0.016749302
89	0xbd351ea2	-0.044218667
90	0x3d8c0a51	0.06837905
91	0x3e21b01e	0.1578984
92	0x3d5efc69	0.054439936
93	0x3cc0487d	0.023472065
94	0xbd0aac69	-0.03385583
95	0xbd628e4a	-0.05531148
96	0x3e0b3f77	0.13598429
97	0xbd22044e	-0.039554887
98	0xbd08a9a7	-0.033364918
99	0x3d355c78	0.04427764
100	0xbd81f2ff	-0.06345176
101	0xbd838ea5	-0.06423692
102	0xbe0a1237	-0.13483511
103	0xbda870d8	-0.08224648
104	0x3d6ee590	0.058324397
105	0x3d9d8982	0.07692243
106	0x3c676f18	0.014125608
107	0xbd6e1e1c	-0.058134183
108	0x3d63dd6e	0.055631094
109	0xbe0594e1	-0.13045074
110	0x3d029143	0.031876814
111	0x3d9b0dba	0.075709775
112	0x3d1376a5	0.03600182
113	0x3b862352	0.004093566
114	0x3e6f3144	0.23358637
115	0xbd11272b	-0.035437744
116	0x3dc1a6d0	0.09455645
117	0x3d1ec3d1	0.038760964
118	0x3da46075	0.0802621
119	0x3d594b6e	0.05305045
120	0x3befd509	0.007319097
121	0xbd59e9a2	-0.053201325
122	0x3d89ceab	0.06728872
123	0x3dd4e130	0.103945136
124	0xbd12a1f3	-0.035798978
125	0xbd94b847	-0.072617106
126	0xbbbeda1f	-0.005824342
127	0x3dc06be6	0.0939558
128	0x3d33c64d	0.043890286
129	0x3e08b52c	0.13350362
130	0xbd97d922	-0.07414462
131	0xbd6525bd	-0.055944193
132	0x3cba8136	0.02276669
133	0x3db767a2	0.08955313
134	0xbc2a008f	-0.01037611
135	0xbde951cb	-0.11392554
136	0xbdc1231a	-0.09430523
137	0x3d2e0965	0.042489428
138	0x3d82b72d	0.06382594
139	0x3d24dee5	0.04025163
140	0x3c0abcd4	0.008467872
141	0x3d85b3ed	0.06528459
142	0x3bbf32f2	0.0058349306
143	0x3c91d9f7	0.017804129
144	0xbb47172c	-0.0030378802
145	0x3d2fa710	0.042883933
146	0xbd6dc83e	-0.058052294
147	0x3a934ae3	0.0011237528
148	0x3dcce51d	0.100046374
149	0xbda39582	-0.07987501
150	0x3d56f54c	0.052480027
151	0xbdac6be0	-0.08419013
152	0x3d00600f	0.03134161
153	0x3dec9025	0.11550931
154	0xbd07d3b9	-0.0331609
155	0x3c32aa32	0.010904836
156	0xbdf88b46	-0.12135939
157	0xbdc3532d	-0.09537349
158	0x3da08950	0.0783869
159	0x3cfe5d9b	0.031050494
160	0x3db7ee60	0.08981013
161	0x3d1959d4	0.037439182
162	0xbdd67b9f	-0.104727976
163	0x3e00e2fe	0.1258659
164	0x3cb12981	0.021626236
165	0x3d80c740	0.06288004
166	0x3d643c3e	0.055721514
167	0x3c83c8ca	0.016086955
168	0x3d00b868	0.031425864
169	0xbcde9b5e	-0.027173694
170	0xbc5ea2c0	-0.013588607
171	0x3dac8e13	0.08425536
172	0x3e04698c	0.12930888
173	0xbdddcc08	-0.108299315
174	0x3d93b8d9	0.07212991
175	0xbd4794f6	-0.048726045
176	0xbbe8c878	-0.007103976
177	0xbd95e6ae	-0.07319389
178	0x3d0855ee	0.033285074
179	0x3da97bd9	0.08275575
180	0x3c2e5772	0.010640966
181	0x3cb5022f	0.022095768
182	0xbd96a12d	-0.073549606
183	0x3d37f075	0.044907052
184	0xbda89693	-0.08231845
185	0xbd6c2d8f	-0.057660636
186	0x3d5878bd	0.05284952
187	0x3d985458	0.07437962
188	0xbda0134a	-0.07816179
189	0xbdece9f7	-0.11568063
190	0x3b9ad8c4	0.0047255475
191	0xbd947164	-0.0724819
192	0x3de10365	0.109869756
193	0x3d0285ff	0.03186607
194	0xbbb62b95	-0.0055593946
195	0xbdbb7e94	-0.09155002
196	0x3d504a58	0.05085215
197	0x3d4a2207	0.049348857
198	0x3d85f771	0.06541336
199	0x3d668f70	0.056289136
200	0x3b87996a	0.0041381614
201	0x3d971a8f	0.073781125
202	0x3e15b100	0.14618301
203	0xbdd0c202	-0.10193254
204	0x3b503e82	0.0031775539
205	0x3e03ff22	0.12890294
206	0xbce7617c	-0.028244726
207	0x3ddd5457	0.10807102
208	0x3da5722a	0.08078416
209	0xbc22a5eb	-0.009927253
210	0x3d55c2d8	0.05218777
211	0xbbb4a964	-0.005513357
212	0x3de19ba1	0.11016012
213	0xbd1320cb	-0.035919946
214	0xbc0197a9	-0.007909694
215	0xbd620b9f	-0.055186864
216	0xbc5c51da	-0.013447249
217	0xbdcfe26b	-0.10150608
218	0x3e21f1a4	0.15814835
219	0xbdf09c55	-0.11748568
220	0xbdb3c7cf	-0.08778345
221	0xbdba74ce	-0.0910431
222	0x3c48db5b	0.01225933
223	0x3e026b35	0.12736209
224	0xbdfef12b	-0.12448343
225	0xbde0f389	-0.10983951
226	0xbddeb1d2	-0.1087376
227	0x3dd588a6	0.10426454
228	0x3da996d4	0.08280721
229	0x3db1056c	0.08643612
230	0x3dbe5c7c	0.09294984
231	0xbd8fcef7	-0.07021897
232	0x3db9228a	0.09039791
233	0x3898ed48	7.292122e-05
234	0xbe2495b6	-0.16072735
235	0xbe02229c	-0.12708515
236	0xbe01fc98	-0.12694013
237	0x3e04a57c	0.12953752
238	0xbddbdb8a	-0.10735233
239	0x3d6bc4a7	0.05756059
240	0x3da789f0	0.08180606
241	0xbcab70bc	-0.02092778
242	0x3c7c3781	0.015394093
243	0x3c15c38b	0.009140859
244	0xbc0b1f09	-0.008491286
245	0xbc9487bf	-0.018131135
246	0xbcc2fa17	-0.023800893
247	0xbd0678d7	-0.032830086
248	0xbd8f49b5	-0.069964804
249	0xbdf9e9d0	-0.12202799
250	0x3dd6b433	0.10483589
251	0xbd1eca18	-0.03876695
252	0xbde209ff	-0.11037063
253	0xbdf18971	-0.11793793
254	0x3dcd2f54	0.10018793
255	0xbe0716b4	-0.13192254

bias f4 [49]
0	0xbd650def	-0.05592149
1	0x3d490921	0.04908097
2	0xbcb3fd00	-0.021971226
3	0xbce1c0e4	-0.027557798
4	0x3cc6c7ad	0.024265135
5	0xbd29a18f	-0.04141384
6	0x3d16c3d7	0.03680786
7	0x3da145ac	0.07874617
8	0xbc85260e	-0.016253497
9	0x3bff12d4	0.007784227
10	0x3c4f7bb3	0.01266377
11	0x3cc5d2af	0.024148313
12	0x3cbddf74	0.02317784
13	0x3d109176	0.035294972
14	0xbc90fff5	-0.017700175
15	0x3d2a60c8	0.041596204
16	0x3be2fd59	0.006927174
17	0xbd9de3ab	-0.0770944
18	0xbb6d34ed	-0.0036194876
19	0xbdc16b90	-0.09444344
20	0xbacf9af2	-0.0015839024
21	0x3ca6f387	0.020379795
22	0xbd2410b6	-0.040055
23	0x3c2c8b92	0.010531323
24	0xbd89af69	-0.0672291
25	0x3ccc6eb6	0.024955135
26	0xbd0765fb	-0.03305624
27	0xbd6bcef8	-0.057570428
28	0xbc55f982	-0.013059976
29	0x3d53482d	0.051582504
30	0xbdb703cc	-0.08936271
31	0x3d08d2e6	0.033404253
32	0xbbc603f3	-0.0060429513
33	0xbd0ca293	-0.03433473
34	0xbd67652c	-0.05649297
35	0x3d295a76	0.041346036
36	0x3d17d488	0.03706792
37	0x3d1f9827	0.038963463
38	0xbce738b1	-0.028225275
39	0xbda4621a	-0.08026524
40	0xbd68ced2	-0.056837864
41	0x3d1db7d9	0.03850541
42	0x3d1c3042	0.03813196
43	0xbd0f7c25	-0.035030503
44	0x3d2ebec6	0.042662404
45	0xbce7a81d	-0.028278405
46	0x3d663212	0.056200095
47	0xbbadc023	-0.0053024455
48	0xbd827049	-0.06369073
