mlartifacts/0/6cf6aeae21254137875c59d205b71df5/artifacts/models/data/model.pth (torch, 975278 bytes, 7 tensors)

weight f4 [51, 83]
00000000: bcc9 f23f 24ac 8b3f b373 68bf 1d6f 583f
00000010: a7ad 95be 1ddb 7c3e 2237 dc3d 9d48 b5bf
00000020: 2692 f1bf 37a0 49be 1345 523f 1cc5 ff3e
00000030: 6e77 94be e2bb d0bf c6cf 1dbc cf7e 9d3f
00000040: 3030 10bf e175 86bf 7313 82be e3be 583f
00000050: 5f99 703f 8dd7 8abd ecff d03e a849 823f
00000060: db51 a13e 3697 c03e c4c0 3c3f c702 763e
00000070: a275 773d 7ead 6fbe c17a 0d40 4189 0340
00000080: cedc 7a3f d3ec 88be f841 1cbf d9b0 11bf
00000090: bcfb 83bf a3de 673f 0a63 1fbe 7d72 cc3e
000000a0: d500 09bf 26db 613f 6e9c 39bf 4f4e 833f
000000b0: c604 6fbe 9da9 3dbe 4b43 40bf 7129 343e
000000c0: c459 9dbf 58de f03f a3c6 0f3d cd2d 453f
000000d0: 55d3 2540 f184 193f f670 b63f 8f68 da3e
000000e0: 02ee 683f b5ac 00c0 86d0 bbbf f6d2 da3f
000000f0: 8d8c f33f bede 693f 8f80 a53d 333e be3e
00000100: c42f f8bc 03be 74be 8a92 a8bf 2b72 03bf
00000110: 67c0 b1be 4875 a33d 61cf 043f 149b 613f
00000120: 5eac 7fbf 38da f23f 60a5 dd3e 578b 033e
00000130: 3a29 973e 0bb1 db3f 22ac 233e 757f 273f
00000140: ac0f 083e dcd0 3a40 b1bb 42bf 00b9 413e
00000150: 69d4 afbf c3cf d53e baa6 df3f 7559 50bf
00000160: f0d2 3ebf b2a5 b03d 6d69 6abe a61c 15bf
00000170: 6660 dd3e 81b7 af3f 1a8f 87be c66d f53f
00000180: 97f5 38bf 9b44 a23e b050 8a3e 18b4 e03e
00000190: b963 a5bf ae04 753f 9adf 11bd f70f 71be
000001a0: 4848 c3bc ffc5 c1bd a154 9cbf eaa6 cc3f
000001b0: 9b21 103f dbcc 813f 9c7d 003f b459 04be
000001c0: 4985 d83f ce3e 0140 b744 fbbd b157 003f
000001d0: 8187 edbe a4d3 9fbf 65ab 0fbf 063a 2e3f
000001e0: 0fca 00bf c7a3 813f c0c2 903e 75fa efbf
000001f0: 1178 b73e 0423 6b3f 98e1 0f40 8e12 80bf
00000200: de00 643f cd97 bbbf 270a 3fbf 71ac a6be
00000210: 8f3a a03f b710 bb3f 1dc3 6bbd cce1 733c
00000220: a080 b8bf 9053 d4be c53b aebd fc25 af3e
00000230: 163d ca3e 4be9 8a3e 1463 4f3f 57cc 763f
00000240: 31f4 15bf 8b4b fb3e c586 dc3e 2617 31c0
00000250: f568 1ebf f9e2 b53f 3cd8 793e 7bd5 303f
00000260: 05c0 aebf ee65 523f cc30 4b3f e91a e03e
00000270: 0631 b23f 4e26 b63f 0fec 3bbf 5c63 00bf
00000280: 0ce3 7f3e 5a7e 5b3f 5d89 de3d 26dd 98be
00000290: cdfb b6bf 2be4 aebf 6110 89bf c9b2 f5be
000002a0: d879 b4bf 29d7 213f d1b9 8bbe eace 663f
000002b0: 5776 58bd 3986 823f 0792 c8be dce9 3f3f
000002c0: 1d6a bf3f 608b 92bf 8ef1 0940 6b88 1e40
000002d0: 03dc 31bf d4d7 d6be 9c15 e7bf 3ff1 b3bf
000002e0: 106a bb3f 4711 ad3e cc4a 033e c9b5 d03f
000002f0: e240 ffbe 52aa bfbe 1fe5 b2bf dad8 d43f
00000300: fe49 433d 2fca 9c3f 4685 783d 8de6 913f
00000310: 5a35 a43f fa00 c13f 09e0 f93d d7eb 953f
00000320: 3de8 2a40 d741 313f eea5 2b3f 9601 2dbe
00000330: a469 28bf 5cd9 13bf 090d 09bf 7367 97bf
00000340: 57e6 cabe 616e 5b3e 771f c9bf 97bd 353e
00000350: 0c02 9e3e be42 b83d 6890 a9bf afa6 d43f
00000360: c622 8c3f 09fa 3b3f 2052 41bf 72e3 423f
00000370: 9bfc 173f 45c2 78bf 3416 433f e65a 00bf
00000380: 9e65 4240 fe44 89bf e286 bdbe 2842 8bbf
00000390: d10a 8abd 7bd5 81bf e606 5a3f 7963 a53f
000003a0: 2828 2bbf 574c 8c3f 2e0e c33f 07fc 853f
000003b0: 3e2c 9c3f f534 1bbf 4740 74bf 705f 7ebf
000003c0: 30f0 983f 0222 7b3e 7d1c 343f 6efb 833f
000003d0: 0d2a 8d3f f7a7 783f 257e cabe 7a6e b2bf
000003e0: 7ecd 9b3f 789e 023f 1245 c33e 2c84 ecbe
000003f0: 54fc 453e 4a86 60bf 56a8 40bc 7d74 0e3f
1.8967814 1.0911908 -0.90801543 0.84544545 -0.2923405 0.2469296 0.10752703 -1.4162785
-1.8872726 -0.19690023 0.8213665 0.4995507 -0.28997368 -1.6307337 -0.009632057 1.2304324
-0.5632353 -1.0504724 -0.25405464 0.8466627 0.93984026 -0.06779394 0.40820253 1.0178728
0.31507763 0.37615365 0.73731637 0.24024497 0.060414918 -0.23406026 2.2106173 2.0552523
0.9799317 -0.26743183 -0.6103816 -0.56910473 -1.0311198 0.9057409 -0.15565124 0.39931098
-0.53516895 0.8822502 -0.7250432 1.0258273 -0.23341665 -0.18521734 -0.7510268 0.17593934
-1.2293019 1.8817854 0.035101544 0.7702301 2.5910237 0.5996848 1.4253223 0.42657897
0.9098817 -2.0105412 -1.4673011 1.709563 1.9027268 0.913555 0.08081161 0.3715683
-0.030296214 -0.23900609 -1.316972 -0.5134608 -0.34717104 0.07981354 0.51878935 0.88127255
-0.99872386 1.8972845 0.43290234 0.12846123 0.2952364 1.7163404 0.15983632 0.6542886
0.13287228 2.9189978 -0.76067644 0.18918228 -1.3736697 0.41760072 1.7472756 -0.813865
-0.74540615 0.08625354 -0.22891779 -0.5824684 0.4323761 1.3727876 -0.26476365 1.9174125
-0.7224974 0.31692967 0.27014685 0.438874 -1.2921058 0.95710266 -0.035613634 -0.23541246
-0.023838177 -0.09461593 -1.2213327 1.5988438 0.5630128 1.0140642 0.50191665 -0.12924844
1.6915675 2.0194583 -0.12268966 0.50133806 -0.46392444 -1.2486463 -0.561209 0.68057287
-0.50308317 1.0128106 0.28273582 -1.8748308 0.3583379 0.91850305 2.2481441 -1.0005662
0.89063823 -1.4655701 -0.74624866 -0.32553437 1.2517871 1.4614476 -0.05755912 0.014885377
-1.4414253 -0.41470003 -0.08507494 0.34208667 0.3949973 0.27131113 0.81010556 0.9640555
-0.5857573 0.49081072 0.4307157 -2.7670379 -0.618789 1.4209892 0.24398893 0.69075745
-1.365235 0.8218678 0.79371333 0.4377053 1.3921211 1.423044 -0.7340707 -0.5015161
0.24988955 0.8573967 0.10866044 -0.29856223 -1.4295594 -1.3663381 -1.0708123 -0.47987965
-1.4099684 0.63218933 -0.27290204 0.90159476 -0.052847233 1.0197212 -0.3917391 0.74966216
1.4954258 -1.1448784 2.1553683 2.4770763 -0.69476336 -0.4196154 -1.805347 -1.4057997
1.4641743 0.33802244 0.12821501 1.6305476 -0.4985419 -0.37434632 -1.3976172 1.6628678
0.047677986 1.2249202 0.060673974 1.1398484 1.2828782 1.5078423 0.122009344 1.1712598
2.6704247 0.6924109 0.67050064 -0.16895136 -0.65786195 -0.5775354 -0.53535515 -1.1828445
-0.3962886 0.21428825 -1.5712727 0.17748104 0.30860937 0.08997105 -1.3247194 1.6613368
1.0948112 0.734284 -0.7551594 0.76128304 0.5936982 -0.9717143 0.76205754 -0.501387
3.0374522 -1.072418 -0.3701697 -1.0879564 -0.06740344 -1.0143274 0.85166776 1.2920982
-0.6685815 1.0960797 1.5238702 1.0467538 1.2201002 -0.6062768 -0.9541058 -0.99364376
1.19483 0.24524692 0.7035597 1.0311105 1.1028458 0.97131294 -0.39549366 -1.3939965
1.2172086 0.51023054 0.38138634 -0.4619459 0.19334537 -0.8770491 -0.011758884 0.55646497

weight_ih_l0 f4 [800, 83]
00000000: ff9c 3c3c c522 a0bd 5e1f 59bc f16d f3bc
00000010: 126f 19bb 6222 673d a566 1bbd 460b a3bd
00000020: fb28 13be 4cb9 b3bb 2dac b53c 82b6 a9bc
00000030: 0fb9 c23c 36d7 923c cce4 353c bb8e d23d
00000040: c280 9f3b 57f6 d5ba ae84 b43b d867 a23d
00000050: 8f73 073e 8e1f eb3c 8482 823c c048 06bd
00000060: 22a5 8bbd 301e a73c 9caa 243b 6170 ce3d
00000070: fc7e e2bc b5bd 82bd 11c0 9c3d b010 c93c
00000080: 3465 c13d 8a60 89bc d60f 7abc 3bf9 313c
00000090: 4ee1 043c 7b70 c9bd 1e06 24bd 3a08 803d
000000a0: 313d d33c 76ed 083e f3c6 e0bb 7cb2 15bd
000000b0: b564 a6bd 208e 33bd 9ee1 1dbd 7a14 233d
000000c0: 38a0 b43c bad3 bdbb f497 0a3d fee9 8b3b
000000d0: ee1d b03a 2b68 8abd c167 863d 7cce f7bd
000000e0: 6396 33bc e87b 06bd 3515 653d 538a 84bd
000000f0: cc08 7b3d 5ef6 cbbd 0836 383c 2dd5 94bc
00000100: fc3e 18bd 3af7 56bc a86e 1dbc 9016 313b
00000110: a2ff ba3d 57fb 8a3b 266f d03d f8d9 39bc
00000120: bd2e 68bd 4e67 ebbc 444f 8cb7 7557 38bc
00000130: a31e 0a3d 0ec9 823d baa1 58bd a63c 56bd
00000140: 6c93 883d 7fac 96bd b50b 343d 11b3 233c
00000150: bd6d c43c 52dd b83c aed5 1f3d fe7f 85bd
00000160: ecf6 63bd e88b 473d a709 173d 4218 c0ba
00000170: 3ab2 e0bb 03bb abba 39fb 75bd 8e84 03bd
00000180: 62ec 5d3d dcd0 d7bd 3fed 9cbc 7d07 8c3d
00000190: 6ee5 663d ac0c e43a 382d f1bd d362 00be
000001a0: d153 993c 300f babd c70a ca3b 6704 a9bc
000001b0: ffc1 733d 0c0e 1d3d 2257 13bd 749a d13c
000001c0: bb0d 953d b79f 243d a5f0 80bd 3493 423d
000001d0: d35b e13c dfc8 003d 1fa7 79bd 309b d4bc
000001e0: f3ba 97bd 8b3d 893d a1a5 533d 83a8 913c
000001f0: 5d9d 27bd 720b de3d af24 6ebb 4dfb c93c
00000200: 9338 643d 71e1 a4bd 49f1 213d dd01 c1bb
00000210: 26a2 bdba 912e 873d 5416 3b3d 67ca 863d
00000220: 7ee3 bbbc 29bd 7bbd 9d52 febc 33e4 c03d
00000230: 4ed9 49bc 9842 9b3d 7837 503d 2ad6 873a
00000240: 4412 01be 8de1 853c da6f 0c3d 5506 31bd
00000250: 98a3 5abd 50e7 323c b070 2e3b e135 43bd
00000260: 40b5 643c 46da 583d 86fc 1fba a330 213c
00000270: 7f86 b6bc 60a2 e33d 5a9e 02bc cb22 5d3a
00000280: 4371 6ebd 520d 623d 6c5e 6a3d 97b9 7c3d
00000290: 8884 8ebd 2d18 21bc eb0d 33bd 9f6a 453c
000002a0: 13d2 f6bd f26c d73a ad2b 963a 0a95 0bbd
000002b0: 7b79 003e dfc5 863d 157f 35bd baee cb3d
000002c0: aa9c 73bd cfb8 37bc 746d a23d 31e8 843a
000002d0: 0a01 483c 782a 3ebc a4c3 6abc a9b9 55bb
000002e0: 3420 433d 096e 083d cbf9 c73c 5e84 6c39
000002f0: a35d 0a3d c228 063d 996e 113d fd3e 203d
00000300: e10f 4f3c 1fd6 543d d224 a3bd ee24 3dbd
00000310: e338 1d3d b90e 3f3d 61e8 52bd b00e f0bb
00000320: 3e09 f2bc ff3b 51bd 3058 9f3d 1af6 49bd
00000330: cff5 21bc cdcf 873d 8aee 493d ce62 613d
00000340: fa77 01bd 3313 03bd 12bf ecba cb61 d43d
00000350: 314e 603c 1c03 c43c 8d38 ff3b fca8 e9bc
00000360: 89e8 cfbc 23a1 143e 84ad 853c d4e4 9d3d
00000370: c57f bcbd 2852 0ebd 9d3a 9e3d 7c91 dc38
00000380: eb74 2f3d 7e98 91bd 3a2d d83c 3ce1 49bd
00000390: bbcc 39bd 966b 46bd 1635 15bd ba40 8cbd
000003a0: bbfb 62bd f489 17bc 41bf 1bbd 71eb cf3d
000003b0: 4f07 ffbc a18a fc3c 3606 8ebb 7ee5 e83c
000003c0: ede7 8c3d 94d2 21bc e237 2dbd 3727 9b3d
000003d0: 7e3a 1a3d bf6b 393d b319 0f3d 531b 3ebd
000003e0: b26a 0b3c 3d4d 38bd 4bb0 5c3c e22b 143b
000003f0: bc3f f4bb 79f9 00bd b171 023d c0a0 403d
0.01151204 -0.07819132 -0.013252107 -0.02971551 -0.002341215 0.056429274 -0.037939686 -0.079611346
-0.14371102 -0.0054847356 0.022176826 -0.02071691 0.023769883 0.017924886 0.011101913 0.1028113
0.004867644 -0.0016324025 0.0055089807 0.07929963 0.13227676 0.02870157 0.015931375 -0.032784224
-0.06818606 0.020400137 0.0025126105 0.10080028 -0.027648441 -0.0638384 0.07653821 0.02454409
0.09443131 -0.016769666 -0.015262565 0.010862644 0.008110357 -0.09835907 -0.040044896 0.06251569
0.025786014 0.13371834 -0.006859654 -0.03654717 -0.08124677 -0.043836713 -0.038545243 0.03981445
0.022049055 -0.005793062 0.03383632 0.0042698374 0.0013436654 -0.0675815 0.06562758 -0.12099931
-0.010961148 -0.03283301 0.055928428 -0.06471696 0.061287686 -0.099591 0.011243351 -0.018168056
-0.03716944 -0.013120467 -0.009608902 0.0027021505 0.09130789 0.004241388 0.1017745 -0.011343472
-0.056685198 -0.028735783 -1.6726211e-05 -0.01125132 0.033720624 0.063860044 -0.05288861 -0.052303933
0.066687435 -0.0735712 0.043956477 0.009991423 0.023978109 0.022566471 0.03902214 -0.06518553
-0.055655405 0.04871741 0.03687444 -0.0014655667 -0.0068571838 -0.0013101998 -0.060054038 -0.032108836
0.05418051 -0.10537884 -0.019156097 0.06837366 0.056371145 0.0017398796 -0.11776203 -0.12537698
0.018716725 -0.09084928 0.0061658355 -0.020631982 0.05951118 0.038343474 -0.03597177 0.025586344
0.072780095 0.04019138 -0.06295899 0.047503665 0.027509606 0.031441566 -0.060950395 -0.025952905
-0.074087046 0.067011915 0.051671628 0.017780548 -0.040921558 0.10842027 -0.0036337783 0.024655962
0.055718016 -0.08050812 0.039536748 -0.0058901147 -0.001446788 0.06600679 0.04567559 0.06581574
-0.022935625 -0.061459694 -0.031045252 0.094185255 -0.012319876 0.07581061 0.05083415 0.0010363508
-0.12604624 0.016342903 0.034286357 -0.04321893 -0.05337867 0.010919407 0.002661746 -0.047658805
0.013959229 0.052942537 -0.00061029976 0.009838256 -0.02228093 0.11114955 -0.007972324 0.00084356655
-0.058213484 0.055188484 0.057218954 0.06170043 -0.06958872 -0.009832424 -0.043714445 0.012049346
-0.12051787 0.0016435666 0.0011457108 -0.03407768 0.12546341 0.0658071 -0.044310648 0.09957643
-0.05947558 -0.011213495 0.07931033 0.0010139999 0.012207279 -0.011606805 -0.014328871 -0.0032611883
0.047638133 0.033308063 0.024411103 0.00022556024 0.033780705 0.032753713 0.035505865 0.03912257
0.012638063 0.051962014 -0.07966007 -0.046177797 0.03838433 0.0466449 -0.051491145 -0.0073259696
-0.029545423 -0.051082607 0.07780492 -0.049306966 -0.0098852655 0.06631432 0.049299754 0.055025868
-0.03160856 -0.03200073 -0.0018062314 0.10370215 0.013690517 0.023927264 0.007788724 -0.02852296
-0.025379436 0.14514594 0.01631809 0.07709661 -0.092040576 -0.03474632 0.07726023 0.00010517516
0.04283611 -0.07109164 0.026388753 -0.049287066 -0.04536126 -0.048442446 -0.03642758 -0.06848283
-0.05541585 -0.009249199 -0.03802419 0.10152329 -0.031131415 0.030827822 -0.0043342365 0.028429743
0.06880174 -0.009876866 -0.042289622 0.07575839 0.03765344 0.04526877 0.034936618 -0.046412777
0.008509325 -0.044995535 0.013469766 0.0022609164 -0.007453887 -0.031487916 0.031846706 0.047028303

weight_hh_l0 f4 [800, 200]
00000000: 6fad dfbc 862f b53d 3423 903c b326 1abe
00000010: e560 79bd c65f e53c ad86 063e ee09 bf3d
00000020: ee1b 823d a7dc 043e cf31 073d 5120 2cbd
00000030: 813c e83b bdb6 d93d b99c b9bd 359a d13b
00000040: c564 4b3d 7463 8cbd 72eb c63c 9691 f03c
00000050: 39e6 e6bc 01bb 0ebe 2052 be3d c6f3 d0bd
00000060: bdd3 00bd b33b 8f3a b1b1 42bc cc5f da3c
00000070: bfaf 6dbd e651 e83d b88c 453d b359 bfbc
00000080: 2d43 a33c ac55 78bd 9ca4 4bbd 2d44 eb39
00000090: 8245 1dbc 8437 193e 0c13 f6bc eb9b 143e
000000a0: a335 0d3e 20c1 6fbd 0663 773d 1c23 1bbd
000000b0: e883 523d 9ea4 3a3d 6bc6 eb3d c503 2cbd
000000c0: 966c bf3d f8ec eebd b3b5 9cbc d2a8 b83d
000000d0: 45df ed3d 5c8a 883c e006 84bd 3c56 223e
000000e0: 3408 86bb f7ba 51bd 1392 1b3e 7e8d acbc
000000f0: b707 d8bd 18d7 86bd 1235 ebbc 2b32 33bd
00000100: 55f2 08bd cdc5 a8bd a573 9dbd d5d8 20be
00000110: f712 00be 3b39 3d3c d14d 44bd fb39 963d
00000120: cdc6 8fba 3ce4 1a3e 2f96 7e3c 2cde 983c
00000130: 05d2 bb3d 9ba4 edbc cd30 c43d 0111 8a3d
00000140: 711b b7bd e462 ad3d 90a2 d73d 693b 293d
00000150: bb43 c03d 5dee 83bc cb74 1d3d 4aed 15be
00000160: bc2f 33bc 5a10 41be bcdb 1f3d 66ec 24bc
00000170: a3de 4a3d cf96 1cbe cfd9 cbbd 8a7a 16bd
00000180: 64e3 fdbd 0f97 e8bd 3500 c9bd 0f10 04be
00000190: 3c26 d2bd 84ad f5bd 08a5 a1bc 1d56 d2bd
000001a0: e52c c13c 335e 003e 4bff 25be 4b26 e7bd
000001b0: fe26 123e db2a 213d e330 ab3d f323 203e
000001c0: 1ce0 073e cb9c 2f3d 0c4d 95bd 28c0 1bbd
000001d0: a85d 923c c3a3 d7bc e63a 183e 622f 2d3e
000001e0: 6a43 fabd 2ec8 0fbe e888 6f3d 4afc 8f3d
000001f0: 6033 403d 9905 89bd 32e7 02bd 241e c1bd
00000200: a22f 9b3d 46c1 a3bd 9a9e c3bd af9d 0139
00000210: 64dd b13d 49e5 7ebd 1d3f 5a3b 701a e3bc
00000220: 12d0 23bc eb0c 56bd 14bf 533d 6e9b e63d
00000230: b778 6a3d 6227 203e 94eb cc3d d199 63bd
00000240: aa90 db3d 27bc 87bd dd10 3c3c 414b 033e
00000250: 54bd b13d f428 bfbd b999 243c ccfb 10be
00000260: 4edd 4c3d 281f a83d 8cc7 02be 9bb6 813d
00000270: ad31 f63b ae98 96bd 4859 993d 9966 e4bc
00000280: ff67 b53d 32e0 5d3d 55be 86bd 9554 413c
00000290: 78cf 963d 92e2 533d db9a 3dbb ad7b 99bd
000002a0: 5d9a 553d 22cd 243e 64fa a8bd 7252 8d3d
000002b0: b4fb 883d 9515 683d ca96 c93d 1ce1 f6b9
000002c0: 4c2b 90bc 6ebf bb3c 16a9 853d 2eeb 04bd
000002d0: d78a d9bd bc27 5f3d 600e a3bd 0d1d 023e
000002e0: 4067 4fbd 4e55 1dbe cabb 933c d92e 493d
000002f0: 2120 f3bd 6778 5c3c d123 e33d a86a 45bd
00000300: 8f72 e03c bcc5 d83d 2323 3ebd 74ae 70bd
00000310: 3c9e 5f3d 5bf6 903d 46e9 a23c 683b e53d
00000320: ff3d 013e 5190 c4bc a7c9 da3c 54c7 e2bd
00000330: 1094 c9bd 9380 27bd 8870 a13c 2e1b c53c
00000340: aa47 9d3d 4d23 eabc db90 c73c 2830 3c3d
00000350: bade e13d 5932 083d 4ba4 c3bc 4615 0f3d
00000360: e41c 99bb 4901 debd e2ee 013d 07d4 60bd
00000370: 388f 97bd 3199 7ebd 92e8 1abd 7189 07bd
00000380: 37c5 06bd 2cc8 e0bc b77e 67bc a4c8 ae3d
00000390: 3b19 92bd 74f7 27ba a9b9 a13d 1387 94bd
000003a0: 212b 703d 08bc c4bd 7a7f 93bd 4626 68bd
000003b0: 8832 8cbd fb3a 273d 5652 b0bc 9041 033e
000003c0: b11a 05bb 761f 2c3d bf35 853b 070b debb
000003d0: f513 183c ba12 a23b fc99 583c 2488 f53c
000003e0: 66d8 a53c f70f 5cbd 7148 6c3d d7a6 863d
000003f0: a5c4 a13d 99cd d4bb d5ab 043d ef55 89ba
-0.02730438 0.08846955 0.017594911 -0.15053825 -0.06088342 0.02799977 0.13137312 0.09328066
0.063529834 0.12974797 0.033006486 -0.042023007 0.0070872908 0.10630558 -0.090630956 0.0063965567
0.04965665 -0.06854907 0.024282191 0.029366296 -0.02818595 -0.13938524 0.09293008 -0.10202746
-0.03145193 0.0010927826 -0.011883185 0.026657008 -0.058028933 0.11343746 0.048229903 -0.023358202
0.019929493 -0.060628578 -0.04971753 0.00044873488 -0.0095990915 0.14962584 -0.03003838 0.14512603
0.13789992 -0.058533788 0.06039717 -0.03787528 0.051395327 0.045567147 0.115124546 -0.041995782
0.09346883 -0.11666292 -0.01912961 0.09016575 0.11614851 0.016667537 -0.06446624 0.15853208
-0.0040903334 -0.051203694 0.15192442 -0.021063562 -0.105483465 -0.065839946 -0.02871183 -0.043749016
-0.03343423 -0.082408525 -0.07688073 -0.15707715 -0.12507235 0.011549289 -0.047925774 0.07335278
-0.0010969281 0.15126127 0.015538736 0.018660627 0.091709174 -0.029009154 0.095796205 0.067415245
-0.08940781 0.084661275 0.10529053 0.041316424 0.093879186 -0.016104871 0.03844146 -0.146413
-0.010936674 -0.18853894 0.039027914 -0.010066127 0.04952873 -0.15291904 -0.09953653 -0.036737956
-0.12396887 -0.11356937 -0.098144926 -0.12896751 -0.10261199 -0.11995986 -0.019732013 -0.10270331
0.023580978 0.12535934 -0.16210668 -0.11286601 0.14272687 0.03934751 0.08358934 0.15638714
0.13269085 0.04287414 -0.07290086 -0.03802505 0.017866924 -0.026323205 0.14866218 0.16912606
-0.122198895 -0.14041206 0.058480173 0.07030542 0.046923995 -0.06690521 -0.031958766 -0.09429577
0.075774446 -0.07995848 -0.09551735 0.0001236114 0.08684805 -0.062230382 0.0033301779 -0.027722567
-0.009998338 -0.052258413 0.0516959 0.112601146 0.05724403 0.15640023 0.100058705 -0.055566613
0.10720952 -0.06627684 0.01147863 0.12821676 0.086786896 -0.09333983 0.010046416 -0.14158553
0.05001574 0.082090676 -0.12771434 0.06333657 0.007513246 -0.0735334 0.07487732 -0.027880954
0.08857726 0.054168887 -0.06579272 0.011799951 0.0736379 0.051729746 -0.0028931412 -0.074942924
0.052149165 0.16093877 -0.08250883 0.06900491 0.066886336 0.056661207 0.09843214 -0.00047088496
-0.01759877 0.02291843 0.06526391 -0.032450847 -0.10622185 0.054481253 -0.07961726 0.12706394
-0.050635576 -0.15364572 0.01803388 0.049116943 -0.118713625 0.0134564405 0.11090816 -0.04819742
0.027398376 0.1058459 -0.046420228 -0.05876012 0.054594263 0.070782386 0.019886624 0.111929715
0.12621306 -0.023994597 0.026707483 -0.11073175 -0.09842694 -0.040894102 0.01970698 0.024060812
0.076796845 -0.028581286 0.024361065 0.045944363 0.1102881 0.03325114 -0.023882052 0.034932397
-0.0046726335 -0.10840089 0.031721957 -0.054889705 -0.07400364 -0.062157813 -0.037819453 -0.03309006
-0.032902922 -0.0274392 -0.014129332 0.08534363 -0.071337186 -0.0006407418 0.0789674 -0.07252326
0.05863488 -0.096061766 -0.072020486 -0.056677125 -0.068455756 0.040827733 -0.021523636 0.12817979
-0.0020310099 0.04202219 0.004065245 -0.006776217 0.009282102 0.00494608 0.0132203065 0.029972143
0.020244788 -0.053726163 0.057686273 0.06574791 0.07898835 -0.0064942357 0.032390434 -0.0010477881

bias_ih_l0 f4 [800]
00000000: 1663 173e 3449 6d3d a102 9f3d 8a93 bc3d
00000010: 2fd7 d73d 6046 0d3e 1316 ad3b 035d 6a3d
00000020: 8f1d 423d a20c 093e 4e6a e23d 3c27 953c
00000030: 1750 f53c 511d 103e 03e3 a2ba 0373 5d3d
00000040: bbbf b93d 91d0 043d bc8e f83d 81ea 2b3c
00000050: c196 e43d 9e18 0b3d 603e ea3c edc0 c73d
00000060: 94f5 1d3d 3b19 393d 411a f53d 805e 143e
00000070: 7dd7 33bc bb1b 833d ce7e f33d c7fc a73d
00000080: 2357 dd3d 3323 bd3c 37b7 533d bb85 ac3d
00000090: 4c56 da3c a326 a13d 8ec1 593d 1612 ba3d
000000a0: 7463 cf3d 4a93 b03c b17d a93d 6c33 ad3d
000000b0: 4ef0 a23d 1bf5 05bc 9cb6 843d c64b dc3d
000000c0: f31e bd3c a17e a23d 6b83 c13d 6d8f a63c
000000d0: d324 7b3d d240 163e 84db d33d 725b dd3c
000000e0: 8f6a ff3d 6f05 2e3c 7e9a 8e3d 3d4f fd3d
000000f0: 3589 e83d d71f 213d 0105 c63d 0280 ad3b
00000100: 2837 9f3d 67c1 6fbc f5f8 483d 3f7e 35bd
00000110: 749f 09bd 1231 dc3d ed4e 703c bd9e 8c3c
00000120: 061d 873d 9c0c a63d 726b 063e f925 023e
00000130: cd94 ca3d d48e a83d 49e1 c03d a574 0d3d
00000140: 8535 05ba 5e7f d43d a2bb 343d a613 a13c
00000150: 8c19 cb3d aee0 fa3c 1479 1d3e 7003 233d
00000160: 60de 0a3e e506 c43c 42c9 863d c15c 593d
00000170: e7e0 c23c 09bd ac3d 81fb bb3d 5833 c73d
00000180: d679 703d b6e3 903d ca73 813a ec80 cd3d
00000190: 95f3 873c ce6c 7a3b 2fc8 e13d ca5e cf3d
000001a0: 2981 0dbc 66cb ac3d 9f2d 073d 78ca 053d
000001b0: 3007 0e3e eb0b 143e 955e db3d c300 b83d
000001c0: 063d 663a eadf 093e 3b70 363d 9f97 263d
000001d0: 1f51 fd3c 3a04 ca3c 1f68 af3d 2f7a 943c
000001e0: 90e7 6a3d cc45 043e 9949 bd3d 4d37 b13c
000001f0: ea95 d3ba 63fb 083e 2b6a 393d bb85 013e
00000200: 9164 c2bc 7946 c03d b95c 4a3d 7913 2e3d
00000210: 5a74 cd3d 57c3 6a3d 93b4 d0bc af5f 153e
00000220: c1a9 e63d 5dae 023e c037 90bc f7b0 003d
00000230: 9cbe 9d3d 1a55 053e e237 ae3d 7871 c73d
00000240: 6530 2b3d 9223 d53d 037b a4bb a864 db3d
00000250: 6d04 d03d 3e74 b1bc 7bec cc3d 1894 da3d
00000260: df61 523d 7047 823d 3fc1 303c c4cd 603d
00000270: ac75 c83d 59d8 943d 8315 2b3d 957a 933d
00000280: 581d 1e3d eec9 ce3d 6e84 4c3d d6c9 2cbb
00000290: 528a 663d e1f7 3ebc bf27 99bc 0f3a 3a3d
000002a0: 726f a43d a475 463d ee4a de3d acae 663d
000002b0: 2e7e 103e bb13 1b3e 755d 883c d9c3 ad3d
000002c0: d54a 143d 501d 3f3d 2c01 5f3d 756c de3d
000002d0: 0bb1 f63d 1999 823d 1267 d63d c101 c43c
000002e0: f157 263e f17e bc3d fb4f 023d a388 e73d
000002f0: 3f25 a23d 041f 0cbd bac2 dcbb c3e7 7a3d
00000300: 8d52 c33b 1d30 6a3d 186a ad3d ce7b c03d
00000310: 9c31 0bbc 4b1c be3d 50eb 6e3b dfc6 d43d
00000320: 7e3d 32bd 0e35 cdbc 2009 2e3d 6739 0c3d
00000330: 5640 ab3d 2f77 2f3d e14a b33d 4b96 8b3d
00000340: 53d7 ae3d 1b3f d03d 768b cc3b 8f86 0bbd
00000350: 4df5 983d 1cca 403d 6b33 763d a0fb 67bc
00000360: 641e 7c3c b01f db3c 0613 b33c c3b5 88bb
00000370: ade4 2f3d 21d1 623d 426b 553c e6c7 46bb
00000380: eafc 4c3d c574 4d3d 8bc4 a43b 48cc 613d
00000390: 0bcf 2cbd 48f6 9bbc 3216 b73d cecb c03c
000003a0: cef1 663c d2c5 89bc d47c 1f3c 31fd 3fbd
000003b0: 490c 1c3d 035b 6e3d 02d2 ae3c 869a 763d
000003c0: 2484 9b3d feb5 923d cded 14bd 54c4 6dbd
000003d0: a48a 4c3d 06d8 3ebc db10 1c3d 4e53 50bb
000003e0: 26ed a03c f893 0f3c 8f3b 263d da65 7cbc
000003f0: 078d b53d a79e 7dbd 4d6f 8c3d 8703 65bd
0.14783892 0.05793114 0.07764173 0.09207828 0.1053909 0.13796377 0.0052821725 0.05721761
0.04739147 0.13383725 0.11055432 0.018207185 0.029945416 0.14073683 -0.0012427274 0.05406476
0.09069773 0.032425467 0.121365994 0.010492922 0.111615665 0.033959024 0.028594196 0.097535945
0.03856428 0.045190077 0.11967898 0.14489174 -0.010976669 0.064017735 0.118894204 0.0820251
0.10807636 0.023088073 0.0516884 0.084239446 0.026652478 0.078686975 0.053163104 0.09085481
0.10126391 0.021554608 0.08275927 0.084570736 0.07955991 -0.0081761135 0.064801425 0.1075664
0.023086047 0.07934309 0.09448894 0.020332063 0.061314415 0.14673164 0.10344604 0.027021144
0.12471496 0.010621413 0.06963061 0.12368629 0.11354295 0.039337005 0.09668923 0.0052948007
0.07774192 -0.014633513 0.04906555 -0.04430985 -0.033599332 0.10751547 0.014667255 0.017165536
0.06597333 0.08107874 0.13126925 0.12709798 0.09891663 0.08230367 0.0941797 0.03453507
-0.00050815224 0.10375856 0.044124253 0.01966269 0.09916982 0.030624714 0.15378219 0.0397982
0.13561392 0.023929069 0.06581356 0.053066973 0.023788882 0.08434493 0.0917883 0.0972659
0.05870994 0.070746824 0.0009876427 0.100343555 0.016595641 0.0038211825 0.1102451 0.101255015
-0.008636751 0.08437233 0.033002492 0.032663792 0.1386993 0.14457671 0.107113995 0.0898452
0.0008782897 0.13464323 0.044540625 0.04067194 0.03092247 0.024660219 0.085647814 0.018124668
0.05734974 0.1291725 0.09242553 0.021632815 -0.00161427 0.13377146 0.045267265 0.1264867
-0.023729594 0.093884416 0.049404833 0.04249904 0.10031958 0.057315197 -0.02547673 0.14587282
0.11262847 0.12761827 -0.017604709 0.031418767 0.077023715 0.13020745 0.085067526 0.09738439
0.0417942 0.10407175 -0.005019547 0.10712558 0.10157094 -0.021661874 0.100060426 0.10672778
0.05136287 0.06361282 0.010788261 0.054883733 0.09788069 0.072678275 0.041768562 0.07201115
0.038602203 0.10097109 0.049930982 -0.002636542 0.056284256 -0.011655779 -0.01869571 0.045465525
0.08029069 0.048452035 0.108541355 0.056318924 0.14110634 0.15144245 0.016646126 0.084846206
0.036204178 0.046658814 0.054444477 0.1086053 0.12045487 0.06376857 0.10468878 0.023926618
0.16244484 0.092039 0.031814557 0.11305358 0.079172604 -0.034209266 -0.0067370804 0.06125618
0.0059607686 0.05717479 0.084675014 0.09398614 -0.0084957145 0.0928274 0.0036456175 0.10389494
-0.043515675 -0.025049713 0.04248917 0.03423443 0.083618805 0.04283827 0.087545164 0.068157755
0.085371636 0.101682864 0.006242211 -0.034063872 0.074686624 0.047067747 0.06010763 -0.014159113
0.015388105 0.026748508 0.021859657 -0.0041720583 0.04294269 0.055375222 0.013026061 -0.003033155
0.050045885 0.05016019 0.0050283126 0.05512646 -0.04218964 -0.019038334 0.0893978 0.023534682
0.014095737 -0.01681796 0.009734351 -0.04687232 0.038097654 0.058192264 0.021340374 0.06020596
0.07593563 0.071636185 -0.036359597 -0.05804856 0.049936906 -0.011648184 0.038102012 -0.0031787935
0.019644331 0.008763306 0.040584143 -0.015405143 0.088647895 -0.06191888 0.068571664 -0.055911567

bias_hh_l0 f4 [800]
00000000: 5526 023d 0ede c03d 8e3c a83d 7f5e 1d3c
00000010: 3231 293d e33a d33d d545 8e3c a435 ea3d
00000020: a6a5 07bd b17f f03d 0738 243c 43df 223d
00000030: 1f23 d13d 170e 123e 975b 9f3d 3dfb 073e
00000040: fcc2 6f3d a434 fa3d 6938 d53c 7ddc 313d
00000050: f782 c03d 701e d03d cbf9 673d 53d0 023d
00000060: 452e 013d e631 e23d 2978 423c 5906 b43d
00000070: 30d4 073d b59e 923d c36c fc3d 79f1 c83d
00000080: b23f fe3b 5914 533c 83c0 013e 9ae6 063e
00000090: 0a5a d43d 98da de3d e140 823d 1425 283d
000000a0: 23a2 6f3c 1353 1c3d 6556 0a3e d0f6 223e
000000b0: 32dc 96bc c338 aa3d 8721 3d3c 3df6 8b3d
000000c0: d011 2d3d b5a6 aa3d 4fd9 073e 60fa 023d
000000d0: 8f4a 963d ffbb b43d 6abe 863c ca09 7d3d
000000e0: ffb0 f03d d21e db3d 5598 703d feb0 a43d
000000f0: 0585 363d 02a6 a8b9 54b9 5d3d b3ac 6d3c
00000100: 4cd1 013d d7d3 c73b 47a0 e03d f15c 2f3d
00000110: 9858 5c3d 957c a53d 20dc 1e3d 4897 8e3a
00000120: f20a d63d 73bc 093d 4da7 073e 34f6 c83d
00000130: 9342 b53d 4f07 9d3d 473d a8ba 04bc 7c3d
00000140: 4965 af3d 2f00 103e 8eb6 f93c 5411 933d
00000150: 5c71 9c3d 374b aa3b 6585 e03d a074 9b3d
00000160: 31fe 18b9 e56e b13d 403e 283c 8407 f23d
00000170: 5891 d33c c2e4 983c 4e22 2a3e 3d94 b63c
00000180: c210 183e 15d5 e53d 27fa 093e a9bb a13d
00000190: 4a5e a03d e7c5 fd3c 4a04 103d 1069 b33c
000001a0: 69bd 0dbc 4270 f43d cacc ee3d 71d0 9a3d
000001b0: 7bc8 063e 9e7f f53d 82a3 b13d 4aa2 79bb
000001c0: 9e89 e6bb 7574 d43d ba1f a73d a5c3 153d
000001d0: c94d 95bb 9ad6 443d 8dff 793c 81a6 6d3d
000001e0: 1a6d 663d 7568 673d 06be 963d e284 d83d
000001f0: 1c4d 373d 9f49 8e3d 8e9d cc3d d15e b03d
00000200: 82f8 ccbc 77b8 b23c 0eb4 4f3d b673 5e3c
00000210: ea5a 033e e700 123e 1752 a83d 4524 503d
00000220: 1b92 be3d 8a0a e73d cf5c 5c3c 05aa f43d
00000230: cefa 2e3c 61b2 533d d400 d63d 5a2d 573d
00000240: 491d d23d d07f 2b3d 1bd3 a43d efe0 6a3d
00000250: 59cf c63d 4326 0a3d 2a2a 043e 9fbe 653d
00000260: 52b4 1d3d ec09 853d 0acc e83d 5759 763d
00000270: dab2 163e 3aa7 063d 8f59 9f3d 7d1c 063c
00000280: 6afb b53d 8fc1 963c 7b13 483c e009 353d
00000290: 27d2 45bc 2321 8f3d 3c20 823d 10f2 1b3d
000002a0: 340c bc3d 5e03 1f3b aa5b 043e 9d23 ae3d
000002b0: 9c49 493d 566d 5c3d 965d db3c 1197 943d
000002c0: 2295 9a3d eb54 033d f4b3 a5bc c9e9 1b3c
000002d0: a973 f33d f4cb 183d 8ad7 ae3c 2510 a93d
000002e0: e60e 9c3d 8153 e83d 5594 c63d 0ac9 c83d
000002f0: 8d6c 913d 2c10 4d3d 28ec d93d 1371 9c3d
00000300: fc8f b03d 4daf ac3d 3fc9 0b3e 0054 8b3d
00000310: f8f0 f2bc c34b dc3c cc5e e93d db65 c53d
00000320: 0ed3 31bd 432b ef3b e4ba 5d3d a16e 8b3c
00000330: 2b10 5d3d 5ce3 acbc 6967 803d 6b19 b33c
00000340: 3da3 babc 1da0 973d 5dcb f93c c945 df3b
00000350: 8c3e f0bc f762 033d 7057 9f3d da8f 8b3c
00000360: 3418 3bbd d21d b2bc 06df 033c d229 ba3c
00000370: dca6 3ebc a7ec 8e3c e807 c7bc 09a8 613d
00000380: 188f 733d abbe 843d 3f7b 9f3d ce3c 9d3c
00000390: 3ee2 61bb b350 ae3d 3120 883a b8df 6b3b
000003a0: 727e 2fbd 7fcb 27bb d6a7 bb3c bbd3 3a3d
000003b0: b06a 483c 5a48 ae3b 531d 8e3d d53f a93d
000003c0: 1a97 bb3c cc22 a13d 7f0a 2bbc f1d8 6d3b
000003d0: 1215 8c3d 4833 d03c ff7e 5e3d 830e d1bc
000003e0: dc42 1dbc 72b5 e9bb b50e 5ebd 5e2c b13d
000003f0: e59f 8b3c 5b54 103d d066 b33b f4a2 2bbb
0.031774838 0.094173536 0.08214675 0.009605049 0.041306682 0.10313966 0.017367283 0.114360124
-0.03311696 0.11743105 0.010023124 0.0397637 0.10211777 0.14263187 0.07781141 0.13279434
0.05853556 0.12217072 0.026027875 0.043423165 0.093999796 0.101620555 0.056634706 0.031936955
0.031538267 0.110446736 0.011869469 0.08790273 0.033161342 0.07159177 0.12325432 0.09811682
0.007759058 0.012883269 0.12671094 0.13173905 0.10368736 0.10881537 0.06360031 0.041050985
0.014626059 0.038165163 0.1350952 0.15914464 -0.018415544 0.08311608 0.011543638 0.068340756
0.042253315 0.08332578 0.1326649 0.031977057 0.0733844 0.0882492 0.016448218 0.061776914
0.11752509 0.10699238 0.058739025 0.08041571 0.04456045 -0.00032167142 0.05413182 0.014506507
0.03169374 0.0060982513 0.109680705 0.042813245 0.053795427 0.08080403 0.038784146 0.0010878826
0.104513064 0.033626985 0.13247414 0.098125845 0.08850589 0.0766741 -0.0012835645 0.061702743
0.085642405 0.1406257 0.030482557 0.071810395 0.07638809 0.0051969546 0.10962943 0.07590604
-0.00014590543 0.086637296 0.010268748 0.1181784 0.025826141 0.018663768 0.16614649 0.022287482
0.14850143 0.11222283 0.13474332 0.078971215 0.07830484 0.030978156 0.03516034 0.021900684
-0.008651116 0.11935474 0.11660154 0.07559288 0.13162415 0.11987232 0.08673765 -0.0038091117
-0.007035448 0.10373775 0.08160348 0.036563534 -0.004556392 0.048056222 0.015258682 0.05802012
0.05625639 0.056496102 0.07360463 0.105722204 0.04475127 0.06947636 0.09990989 0.08611835
-0.025020842 0.021816475 0.050708823 0.013577392 0.1282765 0.14258157 0.082187824 0.05081584
0.09305211 0.11281307 0.013449862 0.11946491 0.010679914 0.051683787 0.10449377 0.052533485
0.10259492 0.04186994 0.08048078 0.05734342 0.09707517 0.033727895 0.1290671 0.056089994
0.038502045 0.06496033 0.11367042 0.060143795 0.14716664 0.032874323 0.07780754 0.008185503
0.08885844 0.018402843 0.012211676 0.04419887 -0.01207403 0.06988742 0.063538045 0.038072646
0.09182015 0.0024263482 0.12925592 0.085028864 0.049142465 0.05381521 0.026778024 0.07255376
0.07547976 0.032063406 -0.02022741 0.009516188 0.11887295 0.03730388 0.021343011 0.082550324
0.07620029 0.11344052 0.09696261 0.0980397 0.071007825 0.05006425 0.10640746 0.07638755
0.08621213 0.084318735 0.13650988 0.06803131 -0.029655918 0.026891595 0.11395034 0.09638568
-0.043414168 0.0072988584 0.05413331 0.017020525 0.053970497 -0.021104507 0.06269724 0.021862706
-0.022782916 0.07403586 0.030492479 0.006813739 -0.0293267 0.032076802 0.07780349 0.017036367
-0.04567738 -0.021742735 0.008048778 0.02272502 -0.011636462 0.017446829 -0.024295762 0.05509189
0.059462637 0.064816795 0.07787179 0.019194033 -0.0034467126 0.08511486 0.001038557 0.00359915
-0.042845197 -0.002560347 0.022907179 0.04561208 0.0122324675 0.0053186836 0.06939187 0.08264128
0.0228992 0.07867965 -0.010439514 0.0036292637 0.06839956 0.025415078 0.05432033 -0.025519615
-0.00959846 -0.0071322257 -0.054213244 0.086510405 0.017044017 0.035236698 0.0054749027 -0.0026189657

weight f4 [49, 200]
00000000: a6f2 3d3e 7689 013e 6a34 213d c499 ee3b
00000010: 0746 37bb e86a d8bc f6a5 823d 1101 6b3c
00000020: 273f 013d cae7 293d eb99 de3d 03c3 ad3d
00000030: e2ac c23d 441d 7c3d e441 bdbd 3134 843d
00000040: efc2 963d 26ee b63c 4d75 c43c d14a bb3b
00000050: e4e0 9c3d 63dc 0dbe 9548 1b3d 9014 48bd
00000060: 9a01 e5bd af68 c1bc 24ec cf3d 665a 103c
00000070: 9277 b13d 2e5b adbc 4bb3 be3c b72a a3bd
00000080: 2dd2 3e3d cc1e 0fbd 17ef f43d 10bf 323e
00000090: 2ae6 2dbe f81c 00be e4a4 be3d c0a6 c7bd
000000a0: 0c8b e2bd c78c 193d 6e97 dd3d 0d72 ca3d
000000b0: ea4e bb3d 626c 3c3e d366 e23c 9c03 04be
000000c0: dca8 9d3d 3e96 a2bc d30d 0c3d 33ea fa3c
000000d0: cc4d 303d 950f 8bbd db91 423a f7a0 c93d
000000e0: 9ffd a5bd ae43 a0bd 8d2f be3d 8622 f5bd
000000f0: cc05 cdbc 348e 96bd 3caf a3bd 06ab dcbd
00000100: b1f6 cbbd 5ac8 2fbd da1e babd a914 75bd
00000110: c164 50bd 4ba1 a3bc b857 aabd a0ee 473d
00000120: abf5 eebd bee9 b43d 6297 febd 26cc 09bd
00000130: 8d3a 433d aa06 c2bd 520a 033e 270c 9ebd
00000140: 1476 d7bd 6a89 debd e409 113c b144 ccbb
00000150: a3af 9e3d 96da 9b3d 75bd d0bc 9884 88bd
00000160: cf85 653d 2171 9dbc f06f a43d 82d0 123e
00000170: 3526 273d deca c13c 1d5b aabb 2d8e 8bbd
00000180: be3f fe3d 69c0 2bbd 5237 7bbd 2df2 1a3d
00000190: 77c1 69bd 1cc0 62bd f22c efbd c2f9 aabd
000001a0: 3771 623d 9187 9f3d 0fce c9bb bc61 6abd
000001b0: b3ff 503d 8b9e ebbd ca69 a6bb 8d7c 963d
000001c0: 7dc0 103d 745e bd3c ef78 703e 9eb5 01bd
000001d0: 0dc0 e93d 6276 5d3c 44b6 b13d 3405 533d
000001e0: 4e77 953c 65c8 3fbd 0a1b 7b3d b81d e73d
000001f0: 695f debc 598e 7abd 51fb aebc 9812 3b3d
00000200: c56f 123d baa2 e53d 1bdc 53bd 591c 66bd
00000210: 2acb d93c 0fa0 9f3d a0c0 6a3b 2900 aabd
00000220: 0713 97bd 7a23 c53d 3e0a 743d 07c4 983c
00000230: 5345 7e3c 0d18 aa3d e4b2 a3bc 6a9c db39
00000240: e2d5 5b3c 5ef7 3e3d 753b 8fbd efb5 3f3b
00000250: e2bb e73d 7e75 a1bd 7400 5a3c a82e 97bd
00000260: 9e0d 053d 01ca d13d 4f8f a1bb 56c7 98bb
00000270: 8068 06be b0dc ccbd 53ab 9a3d 28db 9f3c
00000280: bb5b b03d 995e 513d 863b b5bd f1c7 093e
00000290: ac05 c93b dc59 8b3d 6577 a23d 96f0 403a
000002a0: 1e6f ed3c 9a0f fdbc ed34 99bb edac 9b3d
000002b0: f5b4 233e 52f8 d0bd edaa 963d 77ad fcbc
000002c0: 9c17 c7bc 303c a0bd 9158 1b3d 2025 ab3d
000002d0: 42a5 29bc e7a5 db3c 04f1 c8bd 2594 093d
000002e0: a58f bdbd 913d 47bd 0dbf 213d d3cd 3d3d
000002f0: 14c8 8abd ee3f a4bd 3332 b2bb a2f9 82bd
00000300: 457d b13d 7f86 1d3c 7a8c 33bd 0646 d3bd
00000310: c01a 423d 876e 1e3d 7da9 943d 3c33 af3d
00000320: e91b ee3b a2f3 6a3d f464 053e 47f9 c6bd
00000330: 8fa8 c23b abd2 f53d 065f aabc 69f5 a93d
00000340: d0be ab3d 9a47 6e3d e3ee dd3c fba1 2abc
00000350: aafe 323d 55dc ffbc dee7 8fb9 5054 86bd
00000360: ec44 9ebc 59eb 99bd 83d9 013e 4bde dbbd
00000370: 90f9 e4bd 3f3b c4bd d2a3 6d3c ddc8 223e
00000380: b9c2 eabd ae41 19be dce3 97bd 0204 e93d
00000390: cc03 af3d 4e84 a13d 4162 a53d 02bd 78bd
000003a0: ba2b 493d df4d 7f3b 525e 19be 470f 16be
000003b0: 5407 d0bd a156 113e cce4 06be 5d2e 4d3d
000003c0: ff67 8e3d d817 e1bc ee28 3d3d 0248 83bb
000003d0: e984 18bd 0b83 00bd 0a09 4fbd 5963 80bd
000003e0: 87c3 95bd 5fef eabd 96ce d73d 69a9 a4bc
000003f0: 95b2 07be 3dcd 05be c656 e23d 43bf cfbd
0.18549594 0.12650093 0.039356627 0.007281514 -0.0027965324 -0.026418164 0.06379311 0.014343516
0.031554367 0.041480817 0.10869201 0.08484461 0.09505631 0.061551347 -0.09241083 0.06455267
0.073613994 0.022330355 0.023981715 0.005715706 0.07660082 -0.13853602 0.037911016 -0.048847735
-0.11181946 -0.023609487 0.10152462 0.008810615 0.08665384 -0.021161642 0.023278853 -0.079671316
0.046587158 -0.03494148 0.11959665 0.17455697 -0.16982332 -0.1251105 0.09308794 -0.09748602
-0.11061677 0.03748777 0.108198985 0.09885035 0.09145911 0.1840072 0.027636921 -0.12892002
0.07698223 -0.019847032 0.03419287 0.030629253 0.043042943 -0.067900814 0.0007422247 0.09845155
-0.08105015 -0.07825409 0.09286413 -0.119694754 -0.025027178 -0.07351342 -0.07992408 -0.10774808
-0.09959162 -0.04291568 -0.09087916 -0.059834156 -0.050877336 -0.019974371 -0.08317512 0.048811555
-0.11667951 0.08833645 -0.12431218 -0.033641957 0.04766326 -0.09473927 0.12796906 -0.077171616
-0.105205685 -0.108660534 0.008852456 -0.0062337746 0.07748344 0.07610051 -0.025480965 -0.06665915
0.056035813 -0.019218983 0.08029163 0.14337352 0.04080792 0.023656305 -0.00519885 -0.06814227
0.124145016 -0.041931543 -0.061332054 0.037828613 -0.057069268 -0.05535899 -0.116784945 -0.08348419
0.05528375 0.07789529 -0.0061585973 -0.057222113 0.051025104 -0.11504849 -0.005078529 0.07347975
0.03533982 0.023116328 0.23483633 -0.031667344 0.11413584 0.013516994 0.086773425 0.051518634
0.018245365 -0.04682197 0.061305083 0.11284965 -0.027145104 -0.06117091 -0.021360071 0.04567203
0.035751123 0.11212678 -0.05172358 -0.05617938 0.026586134 0.07794201 0.003582038 -0.08300812
-0.07376676 0.09625907 0.05958008 0.01864816 0.015519458 0.083053686 -0.019982763 0.00041887473
0.013417693 0.046622626 -0.069937624 0.0029252728 0.11315133 -0.07883738 0.013305772 -0.07381946
0.03248369 0.10243607 -0.004930414 -0.0046624346 -0.13125801 -0.1000303 0.07552209 0.019513682
0.08611246 0.051115606 -0.08849244 0.13455178 0.0061347093 0.06804249 0.07932929 0.0007360069
0.028983649 -0.030891228 -0.0046754987 0.07601342 0.15986998 -0.10203613 0.0735682 -0.030844433
-0.02430325 -0.0782398 0.03792626 0.083566904 -0.010354342 0.026812507 -0.09811595 0.033588547
-0.09255914 -0.0486427 0.03948884 0.046338867 -0.06776443 -0.08020006 -0.005438113 -0.0639527
0.086664714 0.009614586 -0.04383514 -0.1031609 0.047388792 0.038679626 0.0725889 0.08554694
0.0072665107 0.057361253 0.13026792 -0.09715515 0.005940504 0.12003072 -0.020797264 0.082987614
0.08386004 0.058173753 0.02709145 -0.010414596 0.043699898 -0.031232992 -0.0002744784 -0.0655905
-0.019319974 -0.07515592 0.1268063 -0.107357584 -0.11180413 -0.09581613 0.01450439 0.15896936
-0.11462922 -0.14966461 -0.074165076 0.113777176 0.08545646 0.07886563 0.08075381 -0.060727127
0.049113967 0.0038956327 -0.14977387 -0.14654265 -0.10157648 0.14193203 -0.13173217 0.050093044
0.069534294 -0.02747719 0.04618161 -0.0040063867 -0.037236128 -0.031374972 -0.05054573 -0.06268949
-0.073126845 -0.11471438 0.1053745 -0.020100312 -0.13251717 -0.13066573 0.11051707 -0.10143902

bias f4 [49]
00000000: 9095 68bd 83a8 433d 7d96 b9bc 7060 fcbc
00000010: 56a5 2c3d 52a9 43bd 783f ff3c 481f 9b3d
00000020: d72f c3bc 3030 ed3b aa93 fdbb dbf3 cd3c
00000030: 1dee 6c3c 5ec7 1d3d c498 35bc 116a 563d
00000040: 9012 883c bb86 91bd 8cb8 f9ba f5d0 b5bd
00000050: 0b44 d13c 2a58 e53c 82e2 5cbd 95c2 5a3c
00000060: d368 8abd 1799 1b3c 06e7 03bd e632 7ebd
00000070: 66e1 47bc ff79 3f3d b746 afbd 3940 193d
00000080: 7940 a3bb 2cda d1bc 0b64 51bd 79f7 0b3d
00000090: 57ab 3d3d ff35 0d3d a716 95bc bc0e a5bd
000000a0: b392 5dbd aa34 173d 5c41 2a3d 8a36 16bd
000000b0: 47fc 103d 145a fdbc ca5e 7a3d c75f 1ebc
000000c0: 5b64 90bd
-0.05678326 0.047768127 -0.022654766 -0.030807704 0.042149864 -0.0477689 0.031158194 0.07574326
-0.023826523 0.0072384104 -0.00773855 0.025140693 0.0144610675 0.03852021 -0.011083785 0.052347247
0.016610414 -0.07105776 -0.0019052192 -0.08877746 0.02554514 0.027996141 -0.053926952 0.013352056
-0.06758275 0.009496949 -0.032202743 -0.06206026 -0.012199735 0.046747204 -0.0855841 0.037414763
-0.004982051 -0.025616728 -0.0511208 0.034171555 0.04630598 0.034475323 -0.018199278 -0.08059451
-0.05409498 0.03691546 0.041566238 -0.036673106 0.03539684 -0.030926742 0.061125554 -0.00966639
-0.07050391
