mlartifacts/0/9a5729d3aaf24497a544a75a0a243695/artifacts/models/data/model.pth (torch, 975278 bytes, 7 tensors)

weight f4 [51, 83]
00000000: 1988 f53f f143 8a3f 20ec 63bf a535 593f
00000010: 74cc 8cbe 3dc7 873e 1ab0 a03d 39d3 b6bf
00000020: 2558 f2bf 3a62 62be c6db 513f cb88 013f
00000030: ab1c 90be e20d d3bf f8da c4b9 dc97 9e3f
00000040: 3f4c 12bf 6964 85bf f3c3 8ebe fce7 593f
00000050: e8dd 6e3f d928 a3bd 6140 c43e 4c33 7e3f
00000060: dfc0 a73e 5a86 c53e 0976 3c3f 3942 743e
00000070: 66bd 883d b0e5 6fbe dafd 0c40 b918 0340
00000080: 0605 793f cfd0 87be 627d 24bf 5baa 0fbf
00000090: a30f 85bf 4275 683f cfb2 0bbe 343f c73e
000000a0: 0eb9 08bf 49b5 643f f55d 35bf d3d1 853f
000000b0: 8795 6abe 6999 35be 7d85 43bf 9571 3c3e
000000c0: 5d34 9abf ce06 f03f fa89 053d fe94 3e3f
000000d0: 625c 2540 1e05 153f fad9 b23f 9d4d da3e
000000e0: b439 6c3f 8d5c 00c0 17af bfbf 4f7a df3f
000000f0: 9e9a f53f 7523 683f d317 a73d 2615 cf3e
00000100: dd44 3cbd 1c4b 7ebe ba68 a7bf 904a f8be
00000110: e016 afbe 71e3 4a3d 1d36 023f 68b0 633f
00000120: cb8a 7bbf db6a f23f 1591 da3e a422 d43d
00000130: ee4d a13e fcc6 dc3f 9cc8 343e 2368 1e3f
00000140: cd73 383e 263b 3940 3663 44bf 0489 483e
00000150: 4d9f afbf c3d0 d63e ab07 df3f 44de 50bf
00000160: 7762 3fbf 132c b13d eb11 61be 4249 15bf
00000170: 2315 d53e ea7a af3f 4a6d 83be dc65 f43f
00000180: af83 37bf 51fe a13e 7841 913e 4581 dd3e
00000190: 1489 a4bf bf4a 723f 9106 f3bc b7ed 64be
000001a0: c103 b6bc f9b4 bdbd 84ee 9bbf b9b5 cb3f
000001b0: f782 113f b7cd 823f 3e4b 023f f880 16be
000001c0: 0765 d83f 536e 0140 5f55 dfbd 8780 ff3e
000001d0: f95a ebbe 8a70 9ebf 033d 12bf ae13 2d3f
000001e0: 05e4 f8be 4fdc 803f 7f9e 913e 730c eebf
000001f0: 61df b53e 2076 6d3f 41b2 0f40 1e17 81bf
00000200: 74dc 623f 813e babf 7a48 3abf bbe6 adbe
00000210: b66e 9f3f 6016 b93f 0b2b 5ebd a76e 503c
00000220: 6e06 b8bf 469b ccbe 0997 c4bd a02b a93e
00000230: fcf7 c13e f7d7 8b3e 32a2 4e3f 89aa 753f
00000240: 0f06 17bf 06ab fd3e abf6 d43e b765 30c0
00000250: 51ca 1dbf 86f9 b43f cee5 773e 85db 323f
00000260: aa63 aebf 9a77 513f 93f2 4a3f 4d78 e63e
00000270: cc54 b13f 9e23 b63f 70bc 3dbf f68d 00bf
00000280: 0b40 813e ff94 5a3f a70e e73d 7345 99be
00000290: b26b b6bf 508e aebf 1351 8abf ad1b 02bf
000002a0: ca54 b4bf 2ed7 213f a5dd 8fbe 2451 663f
000002b0: 66ff 47bd 2e7e 843f 328e b6be 7ec6 4b3f
000002c0: 7901 be3f e240 99bf 1d20 0b40 d364 1f40
000002d0: 23df 2cbf 2ae1 e7be ad48 e8bf 1f51 b6bf
000002e0: e331 b63f 47fd a03e 6cc3 023e 2a2c d33f
000002f0: fcaf 01bf d5ee bebe aa7c b3bf a06c d63f
00000300: 29a0 7e3d 010c 9c3f c180 a83d 01b4 923f
00000310: 1181 a13f 2c60 c23f fd6a 073e a817 973f
00000320: dcc6 2a40 a61e 343f cff7 3a3f f176 18be
00000330: 34fd 25bf ed3f 10bf 9a8a 00bf 93e4 96bf
00000340: 6e0c d7be 3787 403e 5f23 c8bf c5ec 3a3e
00000350: f058 983e 535f 6f3d c5ed a8bf 926f d53f
00000360: 38c4 8b3f a01b 3d3f 7e91 43bf 3b40 433f
00000370: e212 1a3f 1385 79bf bef2 403f 88be edbe
00000380: 55a6 4140 2faa 8abf 02a6 cfbe 153f 88bf
00000390: 866e aabd a380 82bf 90aa 523f 4bd0 a73f
000003a0: f791 39bf f741 8e3f 0dd1 c23f 15a3 853f
000003b0: d56b 9a3f 6436 20bf 1145 79bf b0b5 7fbf
000003c0: 06ef 9a3f 4dd3 8f3e 8fa1 2e3f 0e81 823f
000003d0: bc6f 8a3f e3fa 803f 3039 bdbe 20b3 b0bf
000003e0: 9522 9d3f e5de 063f 8fcd ce3e 0bb1 d3be
000003f0: d6f4 403e a43d 6cbf 2353 27bd 67ac 023f
1.9182159 1.0801984 -0.89032173 0.8484748 -0.27499735 0.26519194 0.07846089 -1.428321
-1.893315 -0.22107783 0.8197597 0.50599355 -0.28146872 -1.6488612 -0.00037547178 1.2390094
-0.5714759 -1.0421268 -0.27883872 0.85119605 0.9330735 -0.079667754 0.38330367 0.9929702
0.32764336 0.38579065 0.7361761 0.23853387 0.0667675 -0.23427463 2.2029939 2.048384
0.9727329 -0.26526496 -0.6425382 -0.56119317 -1.0395397 0.9080392 -0.13642429 0.38915408
-0.5340737 0.8933912 -0.7084649 1.0454658 -0.22908603 -0.17734303 -0.7637556 0.18402703
-1.204723 1.8752077 0.032602288 0.74446094 2.5837636 0.58210933 1.3972771 0.4263734
0.9227555 -2.0056489 -1.4975308 1.7459201 1.918781 0.90679103 0.08158841 0.40445822
-0.04596411 -0.2483334 -1.3078835 -0.48494387 -0.3419714 0.04953331 0.5086382 0.8894105
-0.98258656 1.893886 0.42688814 0.1035817 0.31504768 1.7248225 0.17654651 0.6187765
0.18012924 2.8942351 -0.76713884 0.19583517 -1.372049 0.41956148 1.7424215 -0.8158915
-0.7475962 0.086509846 -0.21979491 -0.5831491 0.4161769 1.3709385 -0.25669318 1.9093585
-0.7168531 0.3163934 0.2837026 0.43262687 -1.2854333 0.94645303 -0.029666217 -0.22356306
-0.022218587 -0.092630334 -1.2182164 1.5914832 0.5684046 1.0219029 0.5089606 -0.14697635
1.6905831 2.0223587 -0.10904955 0.49902746 -0.45967844 -1.2378094 -0.57124346 0.67608154
-0.48611465 1.0067233 0.28441235 -1.8597549 0.35521987 0.9275837 2.2452548 -1.008518
0.88617635 -1.4550325 -0.7276684 -0.33965096 1.2455661 1.4459953 -0.054240268 0.012721694
-1.4376962 -0.39962214 -0.0959912 0.33041096 0.3788451 0.27313206 0.8071624 0.9596334
-0.5899362 0.49544543 0.41594443 -2.7562082 -0.61636835 1.4138649 0.24208757 0.6986621
-1.3624165 0.8182312 0.7927639 0.45013657 1.3854003 1.422962 -0.7411566 -0.50216615
0.25244173 0.853836 0.112820916 -0.29935798 -1.4251616 -1.363718 -1.0805992 -0.5082348
-1.4088376 0.63218963 -0.2809879 0.8996756 -0.04882755 1.0351007 -0.3565536 0.7959975
1.48442 -1.1972926 2.173835 2.4905288 -0.6752798 -0.45288974 -1.8147179 -1.4243506
1.4233974 0.31443235 0.1276986 1.6497853 -0.50659156 -0.3729159 -1.402242 1.67519
0.06216446 1.2191163 0.08227683 1.1461183 1.2617513 1.5185599 0.13224407 1.1804094
2.6683874 0.70359266 0.73034376 -0.14889123 -0.6483948 -0.56347543 -0.5021149 -1.1788505
-0.4200167 0.1880158 -1.5635794 0.18254383 0.29755354 0.058440518 -1.3197562 1.6674674
1.0919256 0.7387028 -0.7639388 0.7626988 0.6018506 -0.9746868 0.75370395 -0.46434426
3.025777 -1.0833186 -0.4055634 -1.0644251 -0.08321862 -1.0195507 0.8229151 1.3110441
-0.7248835 1.1113881 1.5220047 1.0440394 1.2064158 -0.62582994 -0.9737101 -0.9988661
1.2104194 0.28090897 0.6821527 1.0195634 1.0815349 1.0076565 -0.36957693 -1.3804665
1.2276179 0.5268386 0.40391204 -0.4134601 0.18843397 -0.92281556 -0.04085077 0.51044315

weight_ih_l0 f4 [800, 83]
00000000: e8bf b93c 6621 99bd 3287 87bc 5b32 b4bc
00000010: 2619 dcbc 68a7 5c3d 10f6 77bd 6fa9 eabd
00000020: 9597 f3bd c300 4bbb f13a 813c 204b 95bd
00000030: 6c45 c03c f2e2 8239 16e9 a43c 42db 9f3d
00000040: 1e1b ec3c e538 df3c a785 583d e32b 933d
00000050: 16d4 f43d ee1e 553b 3a18 813d ef4f 76bd
00000060: b4c9 53bd da5c 753d 6393 933c 5f55 bb3d
00000070: 317f 45bd b991 00bd b742 8c3d 72bf 813c
00000080: 18cc 703d 378e aabc ce22 a9bc e702 b43c
00000090: 629a 483d ff01 f7bd 10c5 05bd 6c2a d03d
000000a0: 626c 2e3b 7341 013e 062b b9bc ea06 7fbc
000000b0: 2d00 2bbd 6ab3 51bd 438a 39bd aab5 3e3c
000000c0: a768 1c3d 74f2 003c 5db1 8d3d 0a75 373d
000000d0: bfe8 b83c 8130 2abd 1ae7 643d 00cc c0bd
000000e0: ced7 a1bc f674 3cbd 24b0 553d 688c 88bc
000000f0: 37ae 733d c2cb c0bd 463f 0dbd 2cd4 e2ba
00000100: fb3d 4cbd 7d2c 33bc 2f93 dbbc f12f 053c
00000110: cbae ba3d 9eee c7bc b760 c13d 730d 82bc
00000120: 6ecb d4bc 1408 87bc e172 fdbb 6c64 a83c
00000130: c17f ad3d ca61 643d aac6 94bd 2162 afbd
00000140: ea0d 883d 06c6 87bd c733 043d 9165 0e3d
00000150: 1a27 d33c c454 4d3c 117d 90bb 4d26 0bbd
00000160: fb2a 35bd ff80 023b b937 083d fed1 e73c
00000170: 12fa 0cbd d072 91bc 41f8 c2bd 4df0 2fbd
00000180: 0f82 8f3d 5d07 07be e78d c73c 1ac7 5b3d
00000190: d02f 663d a790 703c 8ea7 ccbd b7f1 b2bd
000001a0: 6a55 4fbb c97f 6fbd 72a7 223d 5944 31bd
000001b0: 817f fd3c 6fad 203d a4f8 efbc 0916 8c3d
000001c0: baf0 843d 0351 693c d246 92bd c0c1 c63c
000001d0: 63f2 643c 868c 833d 91a0 a0bd 934e 1d3c
000001e0: 492a cbbd 241c be3c 5122 233d cbcd 073d
000001f0: 3124 a4bd be76 843d 51f5 8abc 79fd 253d
00000200: 5382 623d bb7d 5fbd a094 823c bf7c b93c
00000210: 812a a4bc c68c 6c3d fbce 813d 878f 0b3d
00000220: 906a 823b 7650 2cbd dc6d c4bc 4f89 b03d
00000230: 2821 bbbc d268 9f3d 0293 233d 355d ddbb
00000240: 137f dbbd 2c5a bd3a b390 9c3c bbc9 febc
00000250: 1375 10bd daf4 7ebc 6a7b 09bd 652e 07bd
00000260: c7df 313d 3573 d33c a5be f3bc 794a da3c
00000270: 86d1 1bbd 8c66 ac3d 63f2 073d f6a3 b43b
00000280: b7d1 28bc c14e 013d 9861 bb3d 7ad2 2a3c
00000290: 6b55 87bd d3ff 823c 9011 06bd c727 3ebc
000002a0: adce c7bd 0c6c 923c 0e57 aaba 21f7 2fbd
000002b0: 50c9 d23d c702 753d 2247 89bd 5faf bd3d
000002c0: 961a 93bc d1c8 2dbd cb5a bd3d eea1 b7bb
000002d0: b146 183d 616f a9bc 7291 003b 1607 60bd
000002e0: 4145 4a3d 27e8 6c3d b43b a33c 28a2 f83b
000002f0: 19ab 343c 1724 6f3b 2889 553d 71e3 663d
00000300: 0486 e83c 72ad b93d 4777 d8bd c6c2 aabc
00000310: e050 993d cdfa a73d 3052 48bc fef8 cc3b
00000320: b219 27bd 0016 80bd 6f03 803d 9695 563b
00000330: aa58 413c 66aa 823d b6bc d23c c721 4b3d
00000340: df14 97bc a4d5 d2bb d81e 08bd a26e dd3d
00000350: f006 09bc 0539 883c 3871 5b3c f5fb 5fbc
00000360: 7389 663b 32b1 293e 4335 853c a71c 263d
00000370: 6363 0fbe 2c93 35bd 44eb b03d fe8f 9a3b
00000380: d282 523d 645c 08bd 57d8 8f3d fb29 82bd
00000390: 778a 93bc fda8 16bd c511 6ebd 3f7a 9cbd
000003a0: 50fa 37bd 0ca2 2fbc 1ea3 e3bc feb0 8e3d
000003b0: 05b5 9cbc 9a53 a73d e764 cf3c 983c 1f3d
000003c0: d0f6 be3d 52dc 33bd 0f63 83bd d258 f13d
000003d0: 7717 4c3d a29d 5a3d 68f2 b13c 36b0 7cbd
000003e0: a124 50bc 24c2 d1bc f653 c63c ec80 283b
000003f0: 7ed4 3dbc 93b4 13bd a1a8 e73c a3c3 9e3d
0.022674516 -0.07477073 -0.016543958 -0.021996668 -0.02686746 0.05387059 -0.060537398 -0.11458098
-0.11894146 -0.0030975796 0.015775176 -0.072897196 0.023470603 0.0002496462 0.020130675 0.07805492
0.028821524 0.02724881 0.052861836 0.07186105 0.11954515 0.0032519656 0.06303449 -0.060134824
-0.05170603 0.059903003 0.018014615 0.091471426 -0.048217002 -0.031388972 0.06848662 0.015838359
0.05878839 -0.020819766 -0.020646479 0.02197404 0.048975356 -0.120609276 -0.032658637 0.10164341
0.0026614894 0.12622623 -0.022603523 -0.015565613 -0.041748215 -0.051196493 -0.045297872 0.011639992
0.03818574 0.007870305 0.06918595 0.04478935 0.02257192 -0.041550163 0.055884458 -0.0941391
-0.019756224 -0.04600998 0.052169934 -0.016668513 0.059492316 -0.09413864 -0.03448417 -0.0017305664
-0.049863797 -0.0109359 -0.026803581 0.008129106 0.0911537 -0.024405774 0.09442275 -0.015875554
-0.02597591 -0.016483344 -0.007734642 0.020555697 0.08471633 0.05575732 -0.07264455 -0.085636385
0.06643279 -0.06629567 0.03227594 0.03476483 0.025775481 0.012532417 -0.0044094403 -0.033972073
-0.044230442 0.0019913313 0.033256266 0.028298374 -0.034418173 -0.017754942 -0.09520007 -0.042953778
0.070072286 -0.13186403 0.024359656 0.053656675 0.05619794 0.014682925 -0.09992896 -0.0873751
-0.0031636604 -0.058471475 0.03971047 -0.043278072 0.030944588 0.0392279 -0.029293366 0.0684014
0.064912274 0.014240506 -0.07142414 0.02426231 0.013973805 0.06423287 -0.078431256 0.009601253
-0.09920175 0.023206778 0.03982765 0.033155244 -0.080147155 0.06467961 -0.01696268 0.040524933
0.055300068 -0.054563265 0.01594001 0.022642491 -0.020039799 0.05775144 0.063383065 0.034072425
0.0039799884 -0.04206892 -0.023978166 0.086199395 -0.022842959 0.07783665 0.03993512 -0.006755496
-0.10717597 0.0014446429 0.019111967 -0.031102052 -0.0352679 -0.015561307 -0.033564962 -0.03300323
0.0434263 0.02581177 -0.029753992 0.02664684 -0.038041614 0.08417997 0.033190142 0.0055127097
-0.010303906 0.031569246 0.09149474 0.010426158 -0.06608089 0.015991127 -0.032731593 -0.011606163
-0.09756217 0.017873786 -0.0012995915 -0.04296029 0.102923036 0.0598171 -0.06703021 0.09261965
-0.017957013 -0.04242784 0.09245833 -0.0056040203 0.03717679 -0.020682992 0.0019617942 -0.054694258
0.049382452 0.057838585 0.01992593 0.00758769 0.011027121 0.0036490017 0.052132756 0.05636925
0.028384216 0.09066285 -0.10569625 -0.020844828 0.07486129 0.08202133 -0.012226626 0.006255268
-0.04079599 -0.06254196 0.06250655 0.0032742969 0.011800924 0.06380157 0.02572475 0.04959276
-0.01844257 -0.0064341594 -0.03323254 0.10812117 -0.00836347 0.016628752 0.013393693 -0.013670911
0.003517714 0.16571501 0.016260749 0.04055467 -0.14002757 -0.044329807 0.08638623 0.0047168722
0.05139429 -0.033291236 0.070236854 -0.063556634 -0.018010361 -0.036782254 -0.058122415 -0.07640504
-0.04491645 -0.010719787 -0.027787741 0.06967352 -0.019129286 0.081702426 0.025316669 0.038876146
0.093244195 -0.043911286 -0.06415378 0.11784519 0.049827065 0.053372987 0.021722034 -0.061691485
-0.0127040455 -0.025605269 0.024209958 0.002571161 -0.011586307 -0.03606088 0.02827865 0.077521585

weight_hh_l0 f4 [800, 200]
00000000: 3823 77bc 82b8 f23d 7697 193c 423e 1ebe
00000010: 88d5 8abd b6e8 47bd 3695 1c3e c18b 66bb
00000020: 3c66 7f3d 7959 373d 5418 d93c a9f1 8c3c
00000030: cd11 f0ba a742 ec3d 6921 7cbd a885 fb3c
00000040: a995 073d d0c5 63bd 9874 fbbc 0796 b83d
00000050: 5d98 8bbd 51cf 0ebe 59a3 ce3d 9d67 4cbd
00000060: 7edf 64bc 621b a33b e84c 1c3c 208f b538
00000070: 784b 21bd 970e e63d ad7e 383d 11e0 22bd
00000080: daea 21bc d16b 22bd cbe6 f8bc 0883 b13b
00000090: f767 03bd 6c9e b23d 26ea 1ebc 8e00 0d3e
000000a0: 4a86 f83d da8f d7bc 4a20 c43d b74d 17bd
000000b0: 5b49 f03c 5a16 da3d e4af ec3d 4205 f3bc
000000c0: 8272 b33d 43c0 88bd 9e61 40bc 7f15 c23d
000000d0: 56b8 e83d ca35 083c f760 8fbd c39d 383e
000000e0: 58df ed3c 5ad9 9fbc fd2a 1e3e ce5f b7bb
000000f0: 2e95 b4bd 8575 c8bd c0e6 df3c 6a25 27bd
00000100: b9ca 7bbd a564 84bd 7e10 6fbd 68dc 2fbe
00000110: f048 81bd 9104 163d 0716 bebc bcb2 cd3d
00000120: 659d 5bbc 3c81 f73d 6743 1b3d 9186 adbc
00000130: 5698 b83d 0c6e 4f3c 9db3 f83d d478 1c3d
00000140: bff0 e2bd 24c1 973d d409 b63d c020 073d
00000150: e141 d73d 34e4 bbbc b7c0 f73c 194c 2abe
00000160: ca59 443c 338e 4ebe 441f 283d ae32 05bd
00000170: b21c 8a3c 62d9 0ebe f7f9 b9bd 66af 313a
00000180: b239 8bbd b01c 0abe 2fd2 5dbd 4240 eebd
00000190: 3fba 22bd c5bb e7bd 54de 503c f04b 8abd
000001a0: 7d7c 2b3d 40cd e93d 24da eebd 3763 19be
000001b0: 2a1f ae3d 2465 363d 66e5 b83d afd9 063e
000001c0: 2358 0e3e 90e1 823d 79cb b9bb da9f b5bd
000001d0: 88b1 ba3c 7200 babd d7a9 d83d 5f60 183e
000001e0: cab2 f0bd 4b2b 0fbe 6894 7e3d 10ec 873d
000001f0: 8002 4f3d 23f4 573b 4857 2bbc b981 eabd
00000200: 3be8 873d 1b1b 84bd 7464 bebd d754 513c
00000210: 326b cf3d 39d9 38bd 5e86 b23c 202d 44bd
00000220: 6ec2 2f3c 90ef f0b7 d9b1 133d 44cb ba3d
00000230: 1cae 303c c822 3f3e 1394 853d 4ac1 08bd
00000240: d0de a83d ab67 06bd 947d 0e3b 022b ed3d
00000250: 72db 033e 6c27 a1bd 2237 493d 1d85 17be
00000260: e376 943d 86e1 8c3d 739f 02be b5bb 203d
00000270: 0ba2 5f3c 80a6 d5bd e3d2 c43d 3afd 32bd
00000280: cdb4 ba3d f6c9 b53d e09d 9ebd f2e3 4e3c
00000290: 23eb ca3d c4da 583d a53c edbc 85c3 8dbd
000002a0: b10a 133d 77a2 0e3e 85c4 c8bd cd75 9a3d
000002b0: 6eff 303d 5e29 cd3b f3f4 d93d dfe0 e7bb
000002c0: 9e0e 15bd 9584 afbb 697c 913d 3a13 c5ba
000002d0: 5756 fdbd 39b9 813d bfb8 c7bd 3709 0a3e
000002e0: d311 a7bd 19ce 29be 5758 8e3c 0db9 6f3d
000002f0: 76d3 a1bd d0e6 773c cb82 dd3d 5ce4 87bb
00000300: 061a 0e3b a588 013e 423d 413d 339d 92bd
00000310: e9b0 173d 6045 9b3d 4280 7bbc d6e4 c23d
00000320: 4b7e 083d ac22 e0bc 4824 333c e526 d8bd
00000330: 84f3 c2bd fd6d 5bbd df62 623c 6114 153d
00000340: 2697 b63d ed42 a5bd f9b7 023d 86a1 1b3d
00000350: fd3d bd3d 2039 483d 1413 b6bb 556a a03c
00000360: 3530 d1bb 43f1 b4bd 5309 4e3d eb33 9d3c
00000370: b2a6 b4bd 8a6d 8cbd 01d7 e0bc 54e8 d63b
00000380: 973f ed3a e89a e9bb 87d6 40bd 30b8 8a3d
00000390: b251 abbd 1316 5d3c a6c8 5b3d 3b08 6dbd
000003a0: 2006 6d3c 2958 b7bd 391b cebd 5428 0abd
000003b0: efcd b5bd 193e 3d3b 6612 1cbd 4af3 db3d
000003c0: f8aa 353c 52fb 213d db3d 7639 a9d4 6bbb
000003d0: c77e 713c d42b 233d eeaf 36bc c7c3 cb3c
000003e0: 2369 843c ad12 5dbd b9d8 753d 39d6 913d
000003f0: 8b8f af3d e4fe 163c 2ab6 f93c 3699 bcbb
-0.01508408 0.11851598 0.00937449 -0.15453437 -0.06779009 -0.048805915 0.15291294 -0.0035178515
0.062353358 0.044763062 0.026500858 0.017205076 -0.0018315852 0.115361504 -0.0615553 0.03070338
0.03310171 -0.05560857 -0.030695245 0.090129904 -0.0681617 -0.13946272 0.1008975 -0.0499035
-0.0139693 0.0049776295 0.00953982 8.657412e-05 -0.039378613 0.112332515 0.045042682 -0.039764468
-0.009882653 -0.039653603 -0.030383488 0.0054172315 -0.03208157 0.08721623 -0.00969938 0.13769743
0.121349886 -0.026313711 0.09576471 -0.03693935 0.029331854 0.106487945 0.11556986 -0.029665593
0.08762075 -0.06677296 -0.011742024 0.09476756 0.11363284 0.008313606 -0.070009165 0.18028931
0.029037163 -0.019512821 0.15446086 -0.0055961376 -0.08817516 -0.0978804 0.02733171 -0.040807165
-0.06147263 -0.06464509 -0.058365338 -0.17173922 -0.0631274 0.03662545 -0.023203863 0.100438565
-0.013404225 0.120851964 0.037906077 -0.02118233 0.09013431 0.012660515 0.121436335 0.03820117
-0.11081075 0.074098855 0.08888593 0.032990217 0.10510612 -0.022935964 0.03024326 -0.16630591
0.011984298 -0.20171432 0.041045442 -0.032519035 0.016859386 -0.13950112 -0.0908088 0.00067781506
-0.06798114 -0.13487506 -0.054155525 -0.1163335 -0.0397284 -0.11315111 0.01274832 -0.06752765
0.04186677 0.114161015 -0.11662701 -0.14979254 0.08502038 0.04453005 0.09028129 0.13168977
0.13900809 0.06390679 -0.005670008 -0.0886838 0.022789732 -0.09082116 0.105792694 0.14880513
-0.11752851 -0.13981359 0.06215325 0.06636822 0.050539494 0.0032951913 -0.010457821 -0.11450524
0.06636091 -0.064504825 -0.09296504 0.012776575 0.10127868 -0.045129035 0.021792587 -0.047894597
0.010727508 -2.8721784e-05 0.03605828 0.09120801 0.010783698 0.18665612 0.065223835 -0.03338746
0.08245623 -0.03281371 0.002174233 0.11580469 0.1287668 -0.07868847 0.049124844 -0.14796872
0.07249238 0.06878953 -0.12756138 0.03924151 0.013649474 -0.10432148 0.09610536 -0.043698527
0.09116516 0.088764116 -0.07744956 0.012627589 0.0990813 0.052943006 -0.028959582 -0.06922058
0.035898868 0.13929163 -0.09803108 0.07542 0.043212347 0.006261035 0.106424235 -0.0070763673
-0.036390893 -0.005356381 0.071038075 -0.0015035637 -0.12369984 0.063341565 -0.097520344 0.13480078
-0.081576966 -0.16582526 0.017376108 0.058526088 -0.07901661 0.015130714 0.108159624 -0.0041470956
0.0021682992 0.12649782 0.04717756 -0.071588896 0.03703395 0.075815916 -0.015350403 0.09516303
0.033323567 -0.027360283 0.010933943 -0.105542935 -0.09519103 -0.05357169 0.013817518 0.036396388
0.08915548 -0.08069406 0.03191373 0.037995838 0.09240339 0.048882604 -0.0055564735 0.019581953
-0.0063839206 -0.088350795 0.05030186 0.019189795 -0.08820857 -0.068568304 -0.027446272 0.0065584574
0.0018100616 -0.007129062 -0.04707959 0.06773412 -0.083651915 0.013494032 0.05365815 -0.057869177
0.014466792 -0.08952362 -0.10063786 -0.033729866 -0.08877169 0.0028876124 -0.038103484 0.10739763
0.011088125 0.03954632 0.00023483431 -0.003598491 0.014739699 0.03983672 -0.011150343 0.024873627
0.016163414 -0.05397289 0.060021136 0.07120938 0.085723005 0.009216044 0.03048237 -0.005755569

bias_ih_l0 f4 [800]
00000000: df07 173e bd0f 503d c79e 893d 5bef b23d
00000010: 6813 c83d aa5e 133e 81a3 f1bb 854d 6d3d
00000020: fd44 603d 89c3 0e3e 4325 e73d 69b7 423c
00000030: 9071 673d 1d05 013e 90e7 2ebc 2f97 0c3d
00000040: b317 d13d 5232 cc3c 7dc9 123e cb38 a83c
00000050: 1c50 093e 6986 de3c b1ff 833c 61c5 e23d
00000060: a48d c43c ab5b 1e3d e231 123e 9e51 153e
00000070: ea0e 3ebc 13a4 c43d c80e ed3d 3b60 993d
00000080: b5e3 c23d 11a6 0a3d e9c4 2f3d 4c9f b33d
00000090: 55ca b93b 077a b93d 15c8 813d d354 9a3d
000000a0: c5c3 d83d 3d20 64bc c1d3 3d3d d2bc b73d
000000b0: 51e5 983d 9fed 173c 9300 8a3d 7f34 f73d
000000c0: ff53 2c3d ab19 cf3d d783 e93d 76a0 763c
000000d0: 8a5e 803d feac 143e aa76 cb3d a6d2 2c3d
000000e0: bb28 e83d ad8a 3c3c 7646 b13d 0560 c03d
000000f0: 2dec d63d 44f3 483d 11be 8f3d b3c3 6c3c
00000100: f9f9 683d d0e2 59bc c194 3e3d 1eb6 10bd
00000110: 7548 39bc 7583 973d a5e7 923c 1de9 9d3c
00000120: 8ae4 8b3d 8918 9f3d 862c 0f3e fa1b 0f3e
00000130: 0085 ce3d b831 9c3d a0ae c03d 17d4 ca3c
00000140: e97d c63b 4d0a f83d 1cc7 083d 312f ce3c
00000150: 3a22 983d 6d19 583c 5b30 1b3e 1f68 013d
00000160: f224 e63d d42f 703c b723 913d 0e6d 8f3d
00000170: fd64 e33c a1da ab3d 971c 893d 3948 e53d
00000180: fc49 1b3d 98fe a73d 4dd8 abb9 faed c23d
00000190: 6478 a43b ba65 a23c f91a 043e 4177 d13d
000001a0: ca1c bcbc 31c5 9e3d e176 0f3d 54cb de3c
000001b0: d68c 113e 3680 193e b8ec de3d e35b c73d
000001c0: c863 5cbc 5983 c73d 27d7 043d 18d8 263d
000001d0: 319b 063d 0fdb 003d e7c3 cf3d c79a a13c
000001e0: 5431 853d 41e3 f63d c501 b63d 5307 1c3d
000001f0: 84c0 d33b c434 0a3e af81 3b3d 0329 bd3d
00000200: 943c a0bc e1dd ca3d e494 413d ea1c 5c3d
00000210: db7e ac3d 579b 6c3d feee 4c3c 1728 1a3e
00000220: fe79 083e dcec 033e 829b a7bb def4 853c
00000230: c0eb b33d ef45 243e 92a8 823d 68fa ce3d
00000240: 625b a83d 9c8c e23d 86e9 9abb 3297 fb3d
00000250: 5e17 d23d fd5f 553b e754 d43d e979 cc3d
00000260: df23 8a3d 9dfd e73c 5431 bd3a 6864 0b3d
00000270: 8559 e43d c50e 633d 1863 1d3d 87c4 893d
00000280: 61da dc3c e30f 003e 0d5b 813d 7d96 5b3b
00000290: a2f8 ae3d 006f 93bc e175 8b3c 72b6 8c3c
000002a0: 47c1 a13d fe43 703d 0f9a cf3d 2937 8b3d
000002b0: 6e49 253e bc00 163e 20ab b73c b08a b83d
000002c0: 3143 503d b3c2 1d3d e503 693d bee5 da3d
000002d0: 0614 ea3d 0e71 6c3d a9db c23d 0c4d f43c
000002e0: ad43 1f3e b2dc bf3d a204 583d bbd6 b53d
000002f0: 2ae1 a13d 13e4 9dbc 3d7e 2ebb b07c 973d
00000300: ea83 003c ee98 603c e67b a43d 38cf c33d
00000310: 41f9 893c 6d4b b83d d277 483c 716e d23d
00000320: 8a14 69bd f70b e2bb 70c2 1c3d a1ca b43c
00000330: 38bc b03d 4fc9 e43c 7c05 873d a605 653d
00000340: fffd b53d 05cc c53d 0dc8 973c 6368 2dbd
00000350: 4fa2 8a3d cbb7 413d 1398 653d a185 83bc
00000360: d5ba 423c f61b b33c ce55 aa3c f587 25bd
00000370: d21a 803d 407c 893d 18e6 9d3c ca46 f7bb
00000380: fb1d 8d3d f0f9 533d 4ba0 2f3c 375b 643d
00000390: 68d9 e3bc 3f6a a6bc fa81 be3d e339 283c
000003a0: 415e 643c ff12 eebc 4e59 553c a692 54bd
000003b0: 683a 273d ad50 6b3d 2178 9b3c bf70 8b3d
000003c0: b117 9d3d bed8 a83d d827 c43a a826 51bd
000003d0: c887 6b3d c0aa 983c c723 6f3d 327e 9b3b
000003e0: 2c99 5c3c 957d 6d3c 1b90 543d 33f6 b8bc
000003f0: 075d aa3d 3a01 66bd eb49 7f3d 5e2b 26bd
0.14749096 0.05079626 0.067197375 0.0873706 0.097693264 0.1439158 -0.0073742275 0.057935257
0.054753292 0.13941778 0.11286404 0.011884549 0.056504786 0.12599607 -0.010675326 0.034323867
0.102095984 0.024926338 0.14334674 0.020534893 0.13409466 0.027163701 0.016113134 0.11072803
0.02399332 0.03866164 0.14276841 0.14581916 -0.0116002355 0.09601607 0.11575085 0.07489058
0.09516088 0.03384978 0.042912398 0.08770618 0.005669872 0.09056478 0.06336991 0.0753571
0.10584215 -0.013923702 0.046344522 0.089715615 0.07465614 0.009272962 0.06738391 0.1207056
0.042072292 0.10112318 0.114020996 0.015052905 0.06268032 0.14519116 0.09934743 0.042193078
0.11335894 0.011507672 0.086560175 0.09393314 0.10494266 0.04906012 0.07018674 0.014450955
0.056879018 -0.013298705 0.04652858 -0.03532993 -0.011308779 0.0739812 0.017932722 0.019276196
0.068307 0.077683516 0.13981828 0.13975516 0.100839615 0.076266706 0.09408307 0.024759335
0.00605749 0.1211134 0.03339301 0.025168987 0.07428403 0.013189656 0.15155165 0.03159344
0.112375155 0.014659841 0.0708689 0.070032224 0.027758116 0.083913095 0.06694906 0.11195416
0.037912354 0.08202857 -0.00032776818 0.09518047 0.0050192345 0.019823898 0.12900914 0.10227824
-0.022962946 0.07752455 0.03502548 0.027196564 0.14213881 0.14990315 0.10884994 0.09734323
-0.013451524 0.097418495 0.032431748 0.040733427 0.032862846 0.03145891 0.10144787 0.019727124
0.06503549 0.12055064 0.08887056 0.038092922 0.0064621586 0.13496691 0.045777973 0.09236338
-0.019560136 0.09905601 0.047261134 0.053738512 0.08422633 0.05776533 0.012508152 0.15054356
0.13327786 0.12883323 -0.0051149735 0.016352113 0.087852 0.16042303 0.063798085 0.10106355
0.08220555 0.11061975 -0.004727545 0.122846976 0.10258363 0.0032558434 0.10367756 0.0998419
0.06745123 0.028319174 0.0014434257 0.0340313 0.11149887 0.055434007 0.03842458 0.06726938
0.0269596 0.1250606 0.06316195 0.0033506446 0.08543517 -0.017997265 0.017023982 0.01717684
0.07898193 0.058658592 0.10136806 0.0679763 0.16141292 0.14648718 0.022420466 0.090108275
0.05084533 0.038515758 0.05688848 0.10688351 0.114296004 0.057725005 0.09514553 0.029821895
0.1555316 0.09368266 0.052738793 0.08878847 0.07904275 -0.019273793 -0.0026625537 0.07396829
0.007843951 0.013708336 0.08031444 0.09561008 0.016842486 0.08998761 0.012235599 0.10274971
-0.056904353 -0.006898399 0.038271368 0.022069277 0.0862965 0.027928023 0.06592843 0.05591359
0.088863365 0.09658054 0.018528009 -0.04233588 0.06769239 0.04729442 0.056053232 -0.01605493
0.011885365 0.021863919 0.020792868 -0.04041286 0.062551156 0.06713152 0.019274756 -0.0075462805
0.06890484 0.05175203 0.010719369 0.05575105 -0.027813628 -0.020314334 0.09302135 0.0102677075
0.0139384875 -0.029061792 0.01302178 -0.051897667 0.040827185 0.057449985 0.01897818 0.06808614
0.076705344 0.08244465 0.0014965488 -0.051062256 0.057502538 0.018636107 0.05838373 0.0047452683
0.013464253 0.014495273 0.051895242 -0.022578334 0.08318525 -0.056153513 0.062326353 -0.040568702

bias_hh_l0 f4 [800]
00000000: 50b9 003d 4941 b23d b9d8 923d a779 a03b
00000010: b1a9 093d 6c6b df3d 165e 9a3b eead eb3d
00000020: 5efc d2bc 82ed fb3d 870f 4a3c 82f9 083d
00000030: e6c3 033e e3f5 023e 2e0a 8c3d 9288 e73d
00000040: 7639 8f3d e0d8 ea3d caa4 443d 41fe 5a3d
00000050: 748c ee3d b533 c23d 75da 343d 3cd9 383d
00000060: 05ff 8a3c 1dd3 d43d 3631 0f3d 9cec b53d
00000070: 6046 053d 1427 d43d befc f53d ef54 ba3d
00000080: c6f6 a8bb 1ab3 c13c de87 f13d 6073 0a3e
00000090: 1c61 a93d f92d f73d 2928 973d 0c55 d13c
000000a0: 7152 9d3c 9515 303b 0919 ca3d 7a3b 283e
000000b0: 3708 bfbc 0df5 cd3d 3271 673c fdde a63d
000000c0: 56d6 7a3d bf41 d73d 8ad9 1b3e 93b5 da3c
000000d0: b616 993d 6894 b13d 1b56 4a3c 5b97 9d3d
000000e0: 266f d93d 84ef dc3d 24f8 9a3d 8283 4f3d
000000f0: fe4a 133d 8a08 1a3c 2057 e23c 3fd8 c13c
00000100: cc73 313c cd90 f33b 2e6e db3d 0825 543d
00000110: 02d3 9b3d e19d 413d 2b3c 2c3d c09e 513b
00000120: 73d2 da3d 92a8 f73c 6168 103e 37e2 e23d
00000130: c932 b93d 33aa 903d 59e7 b4ba 6eb1 543d
00000140: 92d7 bc3d acc5 213e 70cd a13c 3f58 9e3d
00000150: 07f4 523d 4f82 48bc fdf3 db3d f5a6 8a3d
00000160: e590 bfbc 2b73 9e3d 3912 7b3c 1863 0a3e
00000170: 6d15 f43c 295b 953c ddb2 103e f673 173d
00000180: cbc4 023e faef fc3d 59a1 083e b828 973d
00000190: efa8 883d 0a6f 403d c7df 5c3d eaca bb3c
000001a0: ea3a bcbc 056a e63d 64f1 f23d 0d9e 8f3d
000001b0: 214e 0a3e 1334 003e a531 b53d 53c2 713b
000001c0: 3906 afbc 0038 883d 2b53 8e3d 1b04 163d
000001d0: 3d71 2bbb 8caf 603d d96e fe3c c836 743d
000001e0: 19f4 823d b017 443d 2f76 8f3d c03a fa3d
000001f0: ec61 583d 6bbc 903d 5ea9 cd3d d3f8 543d
00000200: 72d0 aabc 6416 dd3c 39ec 463d b84c cb3c
00000210: 59c0 e53d eb76 123e 111d f63d f845 633d
00000220: 51dc e83d 8687 e93d 4e7f d43c bece d53d
00000230: 2232 b03c e5ba a73d 8171 aa3d 473f 663d
00000240: 4770 123e e051 463d 376c a53d 00a3 953d
00000250: 4ce2 c83d 6036 703d 62de 073e 538a 493d
00000260: 339a 5f3d 9107 f33c aba8 d53d 03f0 203d
00000270: cba4 243e 990a 803c 6180 983d 87b0 613b
00000280: 5d23 9e3d 5f0c 2e3d 266d d03c ee8f 4d3d
00000290: f7e4 8b3c 5d24 823d a647 cb3d e84c 203c
000002a0: 0e5e b93d 1bfa 4e3c 6f06 fa3d 7003 c63d
000002b0: 533b 8e3d 3021 483d 9b55 053d e35d 9f3d
000002c0: 5991 b83d 95f4 c33c 81ae 91bc 4868 ff3b
000002d0: a3d6 e63d de0a 003d e153 413c fe22 b53d
000002e0: 68e6 8d3d 45b1 eb3d ad6e f13d 1e17 973d
000002f0: 7328 913d 951e 853d 5944 e23d e479 b63d
00000300: 486b b43d ae54 273d 2b52 073e 83a7 8e3d
00000310: 497b 8dbb 5e08 c53c 76f6 fa3d 6b0d c33d
00000320: 1aaa 68bd f37c d03c 3474 4c3d ba19 9f3b
00000330: 1708 683d 4084 13bd e743 283d 3097 1d3c
00000340: 9b08 9ebc 062d 8d3d 4438 2f3d c423 bfba
00000350: 3ec5 14bd af50 043d c909 973d 0b10 783c
00000360: 1171 49bd 9021 dabc 24c9 e43b 4571 5dbc
00000370: 0d9d 023c 693b ef3c 62d7 93bc a82b 4f3d
00000380: 1367 a03d 5401 883d ee22 ab3d 9e5a a23c
00000390: cb10 333c c0b3 ab3d 1dc5 983b c465 1ebc
000003a0: 5123 30bd 328d 72bc 1596 d63c 523e 263d
000003b0: 2d23 753c 50f5 953b d746 893d 6363 b93d
000003c0: 44e5 c13c 8c45 b73d d798 e03c 2aed 2d3c
000003d0: a993 9b3d f924 643d f1c8 983d 9824 90bc
000003e0: fb41 81bc c288 b7ba 2bba 2fbd 8f7b a23d
000003f0: fcbf 3d3c c8f1 273d acf7 49ba d277 503c
0.031426728 0.087038584 0.07170243 0.0048973146 0.033609096 0.10909161 0.004710923 0.11507784
-0.025755104 0.123011604 0.012332804 0.033441074 0.12867698 0.12789111 0.06837879 0.113053456
0.06993382 0.11467147 0.048008718 0.05346513 0.11647883 0.094825186 0.04415365 0.045129046
0.016967306 0.10391829 0.03495904 0.0888302 0.032537818 0.10359016 0.12011097 0.09098231
-0.005156371 0.023644973 0.11793493 0.13520575 0.08270475 0.120693155 0.07380707 0.025553249
0.01920435 0.0026868333 0.09868056 0.16428939 -0.023319347 0.10056505 0.014126109 0.081480004
0.061239563 0.10510587 0.15219703 0.02669791 0.07475035 0.08670884 0.012349631 0.076948844
0.10616903 0.107878715 0.0756686 0.050662525 0.03596019 0.00940145 0.027629435 0.023662684
0.010830831 0.007433033 0.107143745 0.05179313 0.07608606 0.047269706 0.04204957 0.0031985492
0.10684671 0.030231748 0.14102317 0.11078303 0.090428896 0.07063713 -0.0013801857 0.051927023
0.09220804 0.15798062 0.01975128 0.07731675 0.051502254 -0.012238099 0.107398964 0.06770126
-0.02338452 0.0773681 0.015324169 0.13514364 0.029795373 0.018231945 0.14130731 0.036975823
0.12770383 0.123504594 0.13342799 0.07380813 0.066728465 0.046980895 0.05392435 0.022923905
-0.022977311 0.1125069 0.11862448 0.07012568 0.13506366 0.12519865 0.088473596 0.0036889508
-0.021365272 0.06651306 0.06949457 0.03662501 -0.0026160025 0.054854915 0.031058716 0.059622556
0.06394214 0.047874153 0.070049636 0.12218237 0.05282776 0.07067188 0.1004207 0.05199511
-0.020851348 0.026988216 0.048565123 0.024816856 0.11218328 0.14303176 0.12017263 0.05548665
0.11370147 0.11402802 0.02593961 0.104398236 0.02150828 0.08189944 0.083224304 0.05621269
0.14300643 0.048417926 0.08077281 0.073064804 0.09808788 0.058645606 0.13268426 0.049204182
0.054590415 0.029666694 0.104325615 0.039291393 0.16078489 0.015630053 0.07446361 0.0034437494
0.07721589 0.042492267 0.025442671 0.05018609 0.017076952 0.06354592 0.09925775 0.009783961
0.09051143 0.012632872 0.12208258 0.096686244 0.06944909 0.048859775 0.032552343 0.07781579
0.09012098 0.023920337 -0.017783405 0.0077944137 0.112714075 0.031260364 0.011799783 0.08844565
0.06928712 0.11508421 0.11788688 0.07377456 0.07087793 0.06499974 0.110481925 0.089099675
0.08809525 0.04085224 0.13214938 0.06965544 -0.0043176753 0.024051841 0.1225404 0.09524044
-0.056802846 0.025450205 0.049915507 0.0048553618 0.05664834 -0.036014795 0.04108038 0.009618565
-0.019291213 0.06893353 0.04277827 -0.0014582803 -0.036320917 0.03230351 0.07374913 0.015140544
-0.049180094 -0.026627332 0.0069819856 -0.013515775 0.007972014 0.029203134 -0.018047038 0.050578743
0.0783216 0.06640878 0.08356272 0.0198186 0.010929297 0.08383894 0.0046621696 -0.0096678175
-0.04300243 -0.014804171 0.026194612 0.040586777 0.014962 0.0045763627 0.06702965 0.0905216
0.023668893 0.08948812 0.02741663 0.010615626 0.07596523 0.055699322 0.074602015 -0.017595574
-0.015778532 -0.0014002549 -0.042902153 0.07933723 0.011581417 0.041002065 -0.00077044475 0.01272388

weight f4 [49, 200]
00000000: eee4 313e 0fe8 e43d 25d1 7f3d f100 6f3c
00000010: 85ae 253c 207a 9dbd f7b7 8f3d 8317 503d
00000020: 3573 223d f989 023e c8b3 f93d ad9e a23d
00000030: 6533 bc3d 3369 a93d a119 dfbd b1e1 663d
00000040: 3eab c73d 5008 153d 60de 7b3d df8b 3a3d
00000050: 0020 9a3d d63a 02be bfca 223d b65e cabd
00000060: b6d0 abbd b347 8bbc 02f6 dc3d 6389 013d
00000070: ed38 a23d 417f b8bb 1d82 103d f020 b1bd
00000080: a1c5 793d ceaf 0fbd 8a27 903d 0b74 313e
00000090: 022f 1bbe f1d6 0bbe a25a 623d ffcd 81bd
000000a0: e45b c4bd cb13 323c 0199 a03d f43c be3d
000000b0: be81 bb3d 8073 473e a42f e73c 4096 13be
000000c0: c104 903d b638 f9bc e314 8f3c 1d23 103d
000000d0: 3b2f 623d 043a 15bd b7b9 09bd 28d1 e03d
000000e0: 2cee a3bd 2573 9bbd a1d6 973d 8403 97bd
000000f0: 17f4 25bd 0921 4cbd 8cbd b3bd c62d e2bd
00000100: b408 41bd ea2a 2abd 2977 d6bd 45d3 81bd
00000110: fbec 82bd 16b6 e3bc 71f4 70bd 275b 203d
00000120: 4deb 8fbd 8650 a73d 1526 0dbe 065e c9bc
00000130: ac8d fe3c 84b8 e6bd 4990 053e 6056 1dbd
00000140: 78aa debd b665 91bd 9dd5 1d3d 5b29 cbbb
00000150: 458a 223d 99da c23d cc76 47bd a527 88bd
00000160: 2997 2e3d 7c50 02bd 8777 c93d 3886 1b3e
00000170: 62bc 763d 14d9 173d 9418 583c 77a8 7abd
00000180: 8ebb b73d 674c 3cbd e504 40bd b265 913c
00000190: b03d b5bb 8b4d 81bd 2deb f0bd 3e45 6dbd
000001a0: d260 a23d 9680 a93d 0c95 1a3d d276 24bd
000001b0: 734c 753d 895b d9bd 0a95 eebc 6c4d a63d
000001c0: be0f 303d c971 333d bc6b 333e 423a 74bd
000001d0: 293a cd3d 8293 053d ebe7 dd3d 9d0d 043d
000001e0: cdeb ec3c 96dc 34bd eb9e 8d3d 8aac e23d
000001f0: 4fe5 7abd 1f0a 8bbd 6026 8ebc d2d9 6c3d
00000200: 9750 6a3d ccf9 bc3d 260d 4ebc 4098 d2bd
00000210: 3e5c 823d f12e c73d 1609 ee3c 63b0 95bd
00000220: 21c0 d7bd d877 533d 700e 7b3d 7b9b 353c
00000230: 78d0 5b3c 3764 a93d 5a9b 2c3d 8084 15bd
00000240: 990a 91bc 6288 6d3d e265 7bbd bda4 073c
00000250: 05ac dc3d 4d31 02be 283b 543b 6060 bebd
00000260: 5ad1 573c 901f af3d 3ba7 11bc 39ec 4a3a
00000270: 563b eabd a7c6 bdbd a714 973d 9f97 d83c
00000280: 5006 e83d 3b11 913c 66a8 adbd 3c92 163e
00000290: b31e 0a3d 517d 813d eb28 603d 6df6 263c
000002a0: 23a0 313d 25d7 0ebd 8abd 3f3c 2c9d 723d
000002b0: 06e1 123e c53d f0bd f15d 933d 82df 33bd
000002c0: 3973 2bbd 2708 96bd 1a82 f53c faf7 dc3d
000002d0: 5c21 cbbb f9af 0c3d f96b 83bd ff3a 343d
000002e0: 3271 8fbd 9c31 88bd a800 593d dc5d 513d
000002f0: 776a 8bbd b301 03be e5ac 50bc 9d15 b8bd
00000300: db0f c53d 64a0 203d 6900 81bd 498d c2bd
00000310: 7858 6e3d 405c 0f3d 4ac0 773d 2ee4 c23d
00000320: 3aaa f7bc 946e 963d 1191 e43d 28d2 babd
00000330: 1ca2 333c 29be 1d3e 4783 713b 0d4e e13d
00000340: 99be a03d 36cf 4c3d c4ea b63c 91f9 c8bb
00000350: b08e 8d3d 8b0b 45bd 5e9d 0fbc 88a6 e1bc
00000360: 1804 d9bb 0d61 babd 9bcf c53d 45af eebd
00000370: 0358 f1bd 3d17 94bd 63cd ae3b 9a5e 0a3e
00000380: e01e ddbd 92ff fdbd a5ac fabd be18 913d
00000390: 7863 c23d 8bbd a73d afa5 8a3d 9964 07bd
000003a0: 6a39 aa3d bf14 123c f443 ffbd dfc1 0ebe
000003b0: 6dfd efbd 2cb3 383e 17ba 04be 0414 363d
000003c0: 6003 983d 7fbf 93bb 20d8 8b3c 8b1e c1bc
000003d0: 77a1 cfbc 3fc7 01bd d255 dabc 1fa7 f8bc
000003e0: 0f28 d7bd 0bc1 e5bd 1635 ca3d 62c4 26bd
000003f0: 8729 0bbe fb25 02be 1ec5 b83d a5c4 0cbe
0.17372486 0.11177074 0.062455315 0.014587627 0.0101124095 -0.07689309 0.070175104 0.050803673
0.03966065 0.12747945 0.12192494 0.07940421 0.0918949 0.08272018 -0.1089356 0.05636758
0.09749459 0.03638488 0.06149137 0.045543548 0.07525635 -0.12717757 0.039744135 -0.09881346
-0.08389418 -0.017001962 0.1078911 0.031625163 0.07921014 -0.005630404 0.035280336 -0.086488605
0.06097949 -0.03507977 0.070387915 0.17329423 -0.15154651 -0.13656212 0.055262215 -0.06338119
-0.09587839 0.010868977 0.07841683 0.0928897 0.09155606 0.19477654 0.028220959 -0.14412785
0.07032157 -0.03042255 0.017466014 0.035189737 0.055220824 -0.03643228 -0.033624377 0.109773934
-0.08004412 -0.075903215 0.07413984 -0.073737174 -0.040515985 -0.049836192 -0.087763876 -0.11043887
-0.04712744 -0.041544832 -0.10471947 -0.063391246 -0.06392857 -0.027796786 -0.058826867 0.03914943
-0.07027302 0.081696555 -0.13784058 -0.024580967 0.031073414 -0.11265662 0.13043322 -0.03841245
-0.10872358 -0.07099478 0.038533796 -0.0061999983 0.039682645 0.095143504 -0.048697278 -0.066481866
0.042624626 -0.031815037 0.09837251 0.15187919 0.06023825 0.037072256 0.013189454 -0.061195817
0.0897132 -0.0459713 -0.046879668 0.017748687 -0.0055310354 -0.06313618 -0.11763606 -0.057927363
0.07928623 0.08276479 0.0377398 -0.04015238 0.05988736 -0.10613162 -0.029123802 0.08120236
0.042983763 0.043809686 0.17521566 -0.05962587 0.10020859 0.032611378 0.108352505 0.032239545
0.028921032 -0.04415568 0.06915077 0.110680655 -0.061253842 -0.0678904 -0.017352283 0.057824917
0.057205763 0.092273325 -0.012576377 -0.10282946 0.0636525 0.0972575 0.029057067 -0.07309034
-0.105346926 0.051627964 0.061293066 0.011084433 0.013416402 0.082710676 0.042140342 -0.036503315
-0.017705249 0.057991393 -0.06137646 0.008279023 0.107749976 -0.1271412 0.0032383893 -0.09295726
0.013172472 0.08550942 -0.0088899685 0.00077408884 -0.11437099 -0.092664056 0.07376986 0.026439486
0.11329329 0.017708411 -0.08479385 0.14704221 0.033720683 0.0632273 0.054726522 0.010190588
0.04336561 -0.034873147 0.0117029045 0.059231922 0.14343652 -0.117305316 0.07195652 -0.043914326
-0.04185793 -0.07325774 0.029969264 0.10789485 -0.006199045 0.034347508 -0.064170785 0.044001576
-0.07004012 -0.06650087 0.05297914 0.051114902 -0.06807416 -0.12793617 -0.012736534 -0.089884974
0.09622165 0.03921546 -0.06298906 -0.09499604 0.05818984 0.035000086 0.060486116 0.09516178
-0.030232538 0.0734531 0.11160482 -0.091221154 0.010963943 0.15404572 0.003685193 0.11001215
0.078488536 0.0500023 0.022328742 -0.0061332663 0.06911981 -0.04810671 -0.008765547 -0.027545229
-0.0066228025 -0.09100542 0.09658738 -0.11654524 -0.11784365 -0.07230995 0.0053345426 0.1351265
-0.107969046 -0.12402262 -0.122399606 0.07084797 0.094916284 0.08190449 0.06769883 -0.03305492
0.08311732 0.008916079 -0.12464133 -0.13941143 -0.11718259 0.18037099 -0.12961613 0.044452682
0.07422519 -0.004508912 0.01707083 -0.023574134 -0.025345547 -0.031684157 -0.02665225 -0.030353127
-0.105056874 -0.11218461 0.098734066 -0.04071463 -0.1359006 -0.12709801 0.09021972 -0.13746889

bias f4 [49]
00000000: fc3e 6cbd 2c27 453d a681 6bbc 588c abbc
00000010: 6ce2 0a3d ef70 28bd f010 bd3c 01f4 933d
00000020: 9481 d8bc b587 983b d4c2 853b 903a c93c
00000030: 2a32 d43b 19fb 1d3d d066 80bc 11a3 5a3d
00000040: b4e2 5e3c 7d2a a2bd c45a 29bc 7d33 b2bd
00000050: cca0 513c c514 233d fa93 3ebd 0d45 733c
00000060: 0525 87bd f6da da3c ca05 f7bc 7cb3 69bd
00000070: 00ae 22bc b4e4 343d 0b85 a1bd fab5 053d
00000080: 3f24 86bc bf43 07bd 8a11 4bbd 6630 3f3d
00000090: d13a ea3c 368a 373d dbbc 0dbd 2048 a0bd
000000a0: ddfc 54bd dd56 ec3c 4f1e 183d af26 3cbd
000000b0: 9dbb 303d 95a0 efbc 8f67 6c3d 2ad9 64bb
000000c0: 4c63 7ebd
-0.057677254 0.04813306 -0.014374172 -0.020940945 0.03390734 -0.041123327 0.023079365 0.072242744
-0.026428975 0.0046548494 0.004082063 0.024564058 0.0064757066 0.038569544 -0.015674025 0.05337817
0.013603855 -0.0791826 -0.010336582 -0.08701227 0.012794685 0.03981473 -0.04652784 0.014848006
-0.06598858 0.026715737 -0.030154128 -0.057055935 -0.00992918 0.04416342 -0.07886704 0.03264425
-0.016374705 -0.033023592 -0.049577273 0.046677016 0.028592499 0.044809543 -0.034603935 -0.07826257
-0.05199896 0.028850013 0.03713828 -0.04593533 0.043147672 -0.029251376 0.05771595 -0.003491948
-0.062106416
