mlartifacts/0/2ee27b0b19ca4c718684473a70f6cbc4/artifacts/models/data/model.pth (torch, 975278 bytes, 7 tensors)

weight f4 [51, 83]
1.8964921 1.0886154 -0.88251674 0.84717566 -0.29839724 0.27218497 0.095752075 -1.4391619
-1.8850678 -0.18166478 0.8151873 0.5049221 -0.2892281 -1.6500074 0.00877169 1.2365812
-0.5847732 -1.0341065 -0.2702684 0.8438625 0.9412723 -0.08548496 0.39020133 1.0235735
0.3137218 0.37244135 0.7395198 0.22111802 0.0705732 -0.2388378 2.1961014 2.0431004
0.9685998 -0.2774864 -0.63483375 -0.5470607 -1.0265999 0.896664 -0.12993103 0.40769187
-0.52761436 0.87608075 -0.72839427 1.0516329 -0.22243838 -0.19418807 -0.7296325 0.2000905
-1.2025383 1.8611778 0.027651079 0.7530362 2.5720134 0.5988274 1.4130008 0.43867767
0.9112347 -1.9925892 -1.484267 1.7338219 1.9105781 0.91656935 0.0705462 0.38486323
-0.022031201 -0.2490154 -1.2956219 -0.51522326 -0.34412572 0.07361654 0.49936748 0.9013675
-0.9754107 1.8910276 0.42107877 0.12696156 0.30073595 1.7259418 0.17542207 0.6378232
0.15473355 2.9095929 -0.77036214 0.1825807 -1.3642527 0.4232155 1.7433534 -0.8238522
-0.7380576 0.08558231 -0.22869138 -0.5744542 0.43554157 1.374013 -0.2691469 1.9081532
-0.72170013 0.3097859 0.26757133 0.45103922 -1.2714908 0.94006395 -0.03858359 -0.23201358
-0.023461543 -0.08153594 -1.2213261 1.5923494 0.5560006 1.0145159 0.49497998 -0.12569554
1.6835433 2.0174932 -0.11979523 0.49578658 -0.467435 -1.2421548 -0.5740266 0.6830055
-0.5000583 1.0179849 0.28108707 -1.863586 0.35239908 0.92755264 2.2386417 -0.9931935
0.89971 -1.4622811 -0.723443 -0.33362576 1.2478821 1.4488735 -0.053834956 0.014842524
-1.4415534 -0.40216914 -0.09018939 0.33123675 0.37987167 0.2698933 0.8137721 0.96996105
-0.5919918 0.4979498 0.42011863 -2.77522 -0.61709976 1.4261215 0.24120289 0.6916913
-1.3764789 0.8099348 0.7890339 0.44843808 1.3979706 1.4121981 -0.7374389 -0.49846888
0.24087106 0.85279477 0.102896444 -0.29457903 -1.4337661 -1.3715094 -1.0555505 -0.5172782
-1.404609 0.6390382 -0.23914951 0.8601574 -0.042048503 1.0384743 -0.38346592 0.7066716
1.4852077 -1.152021 2.1298618 2.4563272 -0.66762155 -0.42654738 -1.7898779 -1.4250125
1.4726495 0.32548684 0.13468651 1.6459417 -0.4805183 -0.368224 -1.3939505 1.6579955
0.05499505 1.192698 0.07179227 1.131634 1.2672902 1.4899592 0.13767383 1.1653615
2.6563506 0.7436628 0.69582367 -0.14135714 -0.6175611 -0.5378915 -0.5509389 -1.1714671
-0.3799278 0.19425629 -1.5630053 0.17654043 0.32746077 0.05272561 -1.3087659 1.7003473
1.0717518 0.7458444 -0.75600547 0.7665836 0.58654463 -0.9793555 0.7498256 -0.43753898
3.009456 -1.0552132 -0.4174871 -1.0459061 -0.08039408 -1.0190711 0.8661027 1.2795199
-0.7021077 1.1218077 1.5039811 1.0000863 1.2058618 -0.6185309 -0.9532082 -1.0172706
1.2126745 0.2535889 0.6920048 1.0154835 1.071736 0.9806677 -0.36830747 -1.3935368
1.1979431 0.53229266 0.32147047 -0.41361776 0.24695429 -0.9173262 -0.07100977 0.547753
00000000: 41c0 f23f c057 8b3f 9eec 61bf 81e0 583f
00000010: 86c7 98be d45b 8b3e aa19 c43d 7536 b8bf
00000020: e749 f1bf 5506 3abe 1db0 503f 9342 013f
00000030: b515 94be 7133 d3bf 22b7 0f3c 4b48 9e3f
00000040: b2b3 15bf 9a5d 84bf 9f60 8abe 5f07 583f
00000050: 39f7 703f bd12 afbd 78c8 c73e 7504 833f
00000060: 25a0 a03e a2b0 be3e 2b51 3d3f c36c 623e
00000070: af88 903d e591 74be ed8c 0c40 28c2 0240
00000080: 28f6 773f b312 8ebe 7784 22bf 2c0c 0cbf
00000090: a067 83bf c68b 653f a40c 05be fdbc d03e
000000a0: bc11 07bf d446 603f 0c78 3abf e89b 863f
000000b0: e3c6 63be 3dd9 46be 32c9 3abf 86e4 4c3e
000000c0: c6ec 99bf 133b ee3f 8484 e23c fbc6 403f
000000d0: de9b 2440 c14c 193f 36dd b43f 5c9a e03e
000000e0: ad46 693f 2a0d ffbf 76fc bdbf e0ed dd3f
000000f0: d38d f43f 4aa4 6a3f 877a 903d cb0c c53e
00000100: c77a b4bc e5fd 7ebe f0d6 a5bf ace5 03bf
00000110: 3f31 b0be 45c4 963d 18ad ff3e 05c0 663f
00000120: 84b4 79bf 310d f23f a397 d73e 3602 023e
00000130: 10fa 993e a9eb dc3f d8a1 333e 6248 233f
00000140: 7972 1e3e c536 3a40 7436 45bf 6ff6 3a3e
00000150: d59f aebf b4af d83e 3426 df3f fae7 52bf
00000160: 58f1 3cbf c745 af3d 132e 6abe 6e0f 13bf
00000170: 4eff de3e a8df af3f 9fcd 89be 5d3e f43f
00000180: 57c1 38bf 429c 9e3e 1cff 883e 9dee e63e
00000190: 36c0 a2bf 08a8 703f d409 1ebd f894 6dbe
000001a0: 6c32 c0bc 51fc a6bd 6a54 9cbf 1bd2 cb3f
000001b0: 0e56 0e3f a8db 813f 046e fd3e 55b6 00be
000001c0: 597e d73f 9c1e 0140 3457 f5bd bdd7 fd3e
000001d0: a453 efbe eefe 9ebf 68f3 12bf 73d9 2e3f
000001e0: d203 00bf 544d 823f a5ea 8f3e fc89 eebf
000001f0: a76d b43e 1774 6d3f e845 0f40 ee41 7ebf
00000200: 6553 663f 072c bbbf 8f33 39bf ffd0 aabe
00000210: 9aba 9f3f b074 b93f 0b82 5cbd 0f2e 733c
00000220: d284 b8bf 1de9 cdbe 37b5 b8bd dd97 a93e
00000230: 8a7e c23e 742f 8a3e 5e53 503f 5e4f 783f
00000240: c68c 17bf 47f3 fe3e ca19 d73e 349d 31c0
00000250: 40fa 1dbf 268b b63f e4fd 763e ae12 313f
00000260: 7630 b0bf e357 4f3f 20fe 493f ad99 e53e
00000270: b3f0 b23f e8c2 b43f ccc8 3cbf 5037 ffbe
00000280: e7a6 763e c250 5a3f 5fbb d23d 10d3 96be
00000290: a685 b7bf 9f8d afbf 471c 87bf 586c 04bf
000002a0: 3aca b3bf 0298 233f 9ce3 74be 4633 5c3f
000002b0: 0d3b 2cbd baec 843f a555 c4be 6ee8 343f
000002c0: 491b be3f 6d75 93bf a84f 0840 7734 1d40
000002d0: 3fe9 2abf 6b64 dabe b81a e5bf cf66 b6bf
000002e0: c77f bc3f 36a6 a63e 43eb 093e 38ae d23f
000002f0: 7f06 f6be db87 bcbe f86c b2bf 3239 d43f
00000300: 7d42 613d 54aa 983f d307 933d 62d9 903f
00000310: 9136 a23f fcb6 be3f 5efa 0c3e 912a 953f
00000320: a601 2a40 af60 3e3f 8021 323f edbf 10be
00000330: 7c18 1ebf 42b3 09bf 550a 0dbf a2f2 95bf
00000340: e685 c2be 1feb 463e 8f10 c8bf 04c7 343e
00000350: f0a8 a73e cff6 573d a485 a7bf fba4 d93f
00000360: 2a2f 893f a9ef 3e3f 9389 41bf d33e 443f
00000370: ca27 163f 0bb7 7abf 92f4 3f3f 1c05 e0be
00000380: ed9a 4040 3a11 87bf dfc0 d5be 40e0 85bf
00000390: a7a5 a4bd ec70 82bf e8b8 5d3f 4fc7 a33f
000003a0: 55bd 33bf 6597 8f3f 7482 c03f d402 803f
000003b0: ae59 9a3f 0b58 1ebf 7405 74bf ec35 82bf
000003c0: eb38 9b3f 68d6 813e 3a27 313f 5dfb 813f
000003d0: a52e 893f 0a0d 7b3f cc92 bcbe 6a5f b2bf
000003e0: 3356 993f 5544 083f c797 a43e b5c5 d3be
000003f0: 96e1 7c3e e4d5 6abf 926d 91bd 8a39 0c3f

weight_ih_l0 f4 [800, 83]
-0.019009138 -0.08242179 -0.022824613 -0.029117413 0.014531857 0.07901244 -0.045403007 -0.07602516
-0.15300186 -0.025258366 0.02258778 -0.073265426 0.013403766 0.029828683 -0.035272874 0.08296143
-0.014521241 0.01574514 0.008804529 0.10143406 0.12267779 0.03645162 0.025448998 -0.06619411
-0.0781404 -0.007106854 0.022802185 0.056806747 -0.0494128 -0.041057825 0.07545189 0.0047768657
0.09419104 -0.021939525 -0.00827948 0.003573928 -0.0014334876 -0.10568644 -0.059852153 0.068209045
0.022696389 0.12475302 0.006708508 -0.019251313 -0.0797739 -0.01733784 -0.026164928 0.047109216
0.035138562 -0.012971042 0.043740645 -0.009261775 0.0020446263 -0.0469608 0.06580207 -0.09687659
-0.014015418 -0.0234433 0.041663636 -0.061096173 0.06061499 -0.11275954 0.02442817 -0.053767804
-0.04040255 -0.022578007 -0.01989134 0.004743102 0.11301962 -0.0028864758 0.087273344 -0.029696852
0.0073301294 -0.021841552 0.016366877 -0.03290021 0.08178923 0.05849519 -0.066852346 -0.06301201
0.094982274 -0.057700045 0.057619587 0.07798981 0.01794453 0.04628878 0.011306131 -0.033387024
-0.074822105 0.028509114 -0.02215867 0.023870891 -0.019325249 -0.037970286 -0.0508569 -0.060872667
0.008968646 -0.10063322 0.06499791 0.103488736 0.065291 -0.040022533 -0.10273828 -0.093456075
-0.044156402 -0.0791664 0.031653397 0.00022345578 0.024431301 0.027308429 -0.07117617 0.07269034
0.047637615 0.007203016 -0.13534227 0.024956396 -0.019911509 0.0021387076 -0.1018554 -0.0062963543
-0.08429504 0.07763136 0.052118696 0.035298616 0.005390731 0.11574192 -0.01844781 0.059880916
0.061322413 -0.07616822 0.020175222 0.052247442 -0.048517607 0.038660195 0.017438574 0.07929577
-0.030172648 -0.08918741 0.0020348432 0.036624618 -0.0071989056 0.035419386 0.057596948 0.022023857
-0.09419056 0.0462975 0.074173674 -0.045928285 -0.091482215 0.019289585 -0.0491929 -0.05336127
0.014877306 0.0038045556 0.026036788 0.045413867 -0.016081266 0.08634312 -0.013785275 -0.054175142
-0.045135457 0.020759976 0.0021811416 0.07612911 -0.063228235 -0.0378903 -0.03764816 0.050391175
-0.11678106 -0.019553535 0.035355512 0.015576506 0.10133351 0.10812547 -0.021815874 0.061685767
-0.0751915 -0.005749845 0.014012179 0.014389963 -0.03703456 -0.005285123 -0.037040453 0.0069417823
-0.0065242476 0.026356373 0.035422873 -0.028730802 0.030874122 0.07349526 -0.0019938045 0.00722652
-0.018425068 -0.0005470668 -0.04731543 -0.08402306 0.023325633 0.038456295 -0.046260983 0.027406538
-0.0058697923 -0.04976562 0.020749586 0.010600553 -0.037217975 0.03461579 0.09471802 0.08066534
-0.093344234 -0.060598973 0.026231118 0.044030253 0.02950609 0.067600474 0.0035991918 -0.066455305
-0.07440442 0.1404177 0.060685646 0.06832707 -0.07708382 0.007833987 0.10075574 -0.060894493
0.0045887874 -0.09879726 0.03291398 -0.035329364 -0.05439431 -0.036785893 -0.007050267 -0.06706163
-0.08478949 -0.038952764 -0.07979707 0.123249695 -0.054547224 0.021664863 -0.012523425 -0.008033104
0.055576388 0.013415255 -0.03841691 0.06147343 -0.005615288 0.023707358 0.057588663 -0.0057539353
0.031144477 0.012318908 0.033475608 0.014018867 -0.02623862 -0.022575352 0.043554667 0.022207825
00000000: 0db9 9bbc c1cc a8bd affa babc a487 eebc
00000010: 0717 6e3c 46d1 a13d 81f8 39bd 14b3 9bbd
00000020: 85ac 1cbe a2ea cebc 020a b93c 2f0c 96bd
00000030: 789b 5b3c 485b f43c 4a7a 10bd afe7 a93d
00000040: 80ea 6dbc f4fb 803c df40 103c a9bc cf3d
00000050: 7e3e fb3d 4b4e 153d 6b7a d03c c790 87bd
00000060: 1308 a0bd 9de0 e8bb a6cb ba3c 31ae 683d
00000070: 1465 4abd 402c 28bd 8586 9a3d 4187 9c3b
00000080: 3be7 c03d 85ba b3bc a8a6 07bc 9038 6a3b
00000090: dde3 bbba 2272 d8bd 8827 75bd 2fb1 8b3d
000000a0: c7ed b93c 837e ff3d 0bd3 db3b eeb4 9dbc
000000b0: 8060 a3bd 1608 8ebc d557 d6bc 98f5 403d
000000c0: 74ed 0f3d 7e84 54bc 6429 333d b3be 17bc
000000d0: 23ff 053b f859 40bd 3cc3 863d 3c67 c6bd
000000e0: eca0 65bc 2a0c c0bc 7da7 2a3d fb3f 7abd
000000f0: 6c47 783d 79ee e6bd 961d c83c a13b 5cbd
00000100: 257d 25bd 83f5 b8bc 2af3 a2bc 066c 9b3b
00000110: d576 e73d 072b 3dbb 5ebc b23d d046 f3bc
00000120: 9531 f03b 0eed b2bc d413 863c 5fc2 06bd
00000130: 1d81 a73d a798 6f3d e2e9 88bd 710c 81bd
00000140: 1186 c23d e256 6cbd 8402 6c3d 1fb9 9f3d
00000150: 6800 933c 4e99 3d3d 5a3d 393c d5c0 08bd
00000160: 553c 99bd f28b e93c 1986 b5bc e38c c33c
00000170: fc4f 9ebc bb86 1bbd 534f 50bd 9e55 79bd
00000180: 3af1 123c ca18 cebd a01d 853d e7f1 d33d
00000190: 4ab7 853d abee 23bd 7368 d2bd e665 bfbd
000001a0: 58dd 34bd fe21 a2bd fea6 013d 744f 6a39
000001b0: 2724 c83c edb5 df3c d0c4 91bd acde 943d
000001c0: a91f 433d 4707 ec3b 2a97 0abe 5b71 cc3c
000001d0: 761d a3bc 8f29 0c3b 9099 d0bd a651 cebb
000001e0: e1a2 acbd 31fd 9e3d 6a7a 553d 4895 103d
000001f0: bba4 b03b 1a0a ed3d dd1f 97bc b145 753d
00000200: 362d 7b3d 15fe 9bbd 8246 a53c 6a01 563d
00000210: 66ba 46bd 275a 1e3d 57db 8e3c d265 a23d
00000220: a12c f7bc e4a7 b6bd 015b 053b b203 163d
00000230: cce4 ebbb eb13 113d c7ea 6b3d 606b b43c
00000240: fbe6 c0bd 73a2 3d3d 5ee8 973d 4c1f 3cbd
00000250: 075b bbbd 3105 9e3c 7f7e 49bd 5991 5abd
00000260: f2bf 733c da55 793b 1a4b d53c e403 3a3d
00000270: dcbc 83bc a9d4 b03d a2db 61bc c1e6 5dbd
00000280: f5df 38bd d310 aa3c 7cf1 0e3b 94e9 9b3d
00000290: ce7d 81bd dc32 1bbd f534 1abd fa66 4e3d
000002a0: e92a efbd bc2e a0bc f1d0 103d 9a34 7f3c
000002b0: f187 cf3d e370 dd3d 34b7 b2bc 37aa 7c3d
000002c0: 00fe 99bd 3269 bcbb 5793 653c e1c3 6b3c
000002d0: 8db1 17bd d32e adbb bbb7 17bd e477 e33b
000002e0: 5bc9 d5bb 52e9 d73c 9317 113d dc5c ebbc
000002f0: baeb fc3c af84 963d 7daa 02bb 72cc ec3b
00000300: 2bf0 96bc 0869 0fba d3cd 41bd 4814 acbd
00000310: 6615 bf3c 5984 1d3d 287c 3dbd ad83 e03c
00000320: 6357 c0bb 09d7 4bbd 09fb a93c f1ad 2d3c
00000330: e071 18bd 49c9 0d3d 85fb c13d df33 a53d
00000340: 432b bfbd a136 78bd a4e2 d63c 1159 343d
00000350: c1b6 f13c 1e72 8a3d 6be0 6b3b b819 88bd
00000360: 5861 98bd a8c9 0f3e 8391 783d 10ef 8b3d
00000370: 1fde 9dbd 1f5a 003c 0759 ce3d 816c 79bd
00000380: 8a5d 963b 3856 cabd cfd0 063d 86b5 10bd
00000390: 91cc 5ebd ceac 16bd ed05 e7bb 9c57 89bd
000003a0: 1da6 adbd ef8c 1fbd a56c a3bd 566a fc3d
000003b0: e96c 5fbd 837a b13c 0d2f 4dbc 489d 03bc
000003c0: 11a4 633d a8cb 5b3c 0d5b 1dbd 90cb 7b3d
000003d0: 7300 b8bb ef35 c23c 17e2 6b3d 828b bcbb
000003e0: b422 ff3c 3fd5 493c b81d 093d 64af 653c
000003f0: 60f2 d6bc f2ef b8bc 6166 323d 2fed b53c

weight_hh_l0 f4 [800, 200]
-0.042211153 0.10673041 0.016948696 -0.15030496 -0.037963185 0.034165952 0.14215502 0.030690558
0.06974748 0.1355716 0.031212466 -0.021694986 -0.025190948 0.11600369 -0.061453167 0.037666477
0.035565782 -0.014644429 0.05181364 0.07020554 -0.05176275 -0.11507704 0.067624584 -0.078946695
-0.020777997 0.0109622935 -0.0448917 -0.020549135 -0.03143912 0.14836787 0.061046064 0.024233554
-8.0170485e-06 -0.038448468 -0.052946273 -0.07044774 -0.045051254 0.14425014 -0.027557539 0.12078499
0.12380941 -0.0011439382 0.06690521 0.008405823 0.04050337 0.06803983 0.09472806 -0.05299408
0.05622268 -0.08059467 -0.014945834 0.06854033 0.09872726 0.074604094 -0.04039586 0.14776173
0.02341465 -0.019921385 0.12832043 -0.010248448 -0.10335436 -0.041612986 0.038258877 -0.020556668
-0.07071797 -0.06669774 -0.08701344 -0.13478534 -0.079695895 -0.033674814 -0.04858418 0.06031109
-0.026311962 0.110670105 0.022953883 0.024852809 0.06621747 0.02315352 0.11388786 0.09797965
-0.102290824 0.10296984 0.14160846 0.032852016 0.074837625 -0.030296838 0.050192684 -0.15000992
-0.010477454 -0.13653395 0.017777592 -0.032265525 0.007596598 -0.14149928 -0.062086042 0.012883866
-0.11329621 -0.121266186 -0.102922365 -0.11736515 -0.06942766 -0.1346977 -0.0064761834 -0.10315437
0.014163915 0.06821622 -0.09507353 -0.1480176 0.11985814 0.05193161 0.08341526 0.13340889
0.11719901 0.0231405 -0.034202907 -0.057167325 0.006621244 -0.008056589 0.084376335 0.16582361
-0.15063559 -0.12018056 0.065934196 0.04002986 0.06188882 -0.010620716 0.03277195 -0.08169829
0.077836126 -0.06351348 -0.032806322 0.040654086 0.10037585 -0.035525415 0.008669835 -0.016895192
0.03768884 -0.0079679135 0.026860124 0.07341436 0.054661367 0.12568198 0.06916186 -0.07240438
0.08576085 -0.07260055 0.0064885253 0.11979022 0.097027235 -0.084495336 0.04434253 -0.1220436
0.06068507 0.0797236 -0.09885802 0.026482966 -0.018544994 -0.0697182 0.10625448 -0.025194151
0.10912079 0.109738775 -0.016027713 -0.03709979 0.090668954 0.049485892 0.0033864393 -0.068201095
0.03635723 0.14688544 -0.08111285 0.059365455 0.04539607 0.013041484 0.059143733 -0.00069844304
0.010340789 -0.004762197 0.058012217 -0.06026133 -0.112157606 0.034339186 -0.10062921 0.12055707
-0.016738681 -0.13438891 0.035068244 0.027278114 -0.11932133 -0.027947985 0.10460223 -0.037257563
0.013098017 0.13316174 0.01830863 -0.06443389 0.034241263 0.063374996 0.024149274 0.089937836
0.07985049 -0.045639545 0.02748291 -0.09314612 -0.0483837 -0.0710718 0.0023469233 -0.014620032
0.09473217 -0.09646493 0.03952397 0.07487704 0.1339828 0.0053479807 -0.03101813 0.05392675
-0.016172178 -0.102973245 0.07923376 -0.027070496 -0.1279159 -0.058951978 -0.10012141 -0.014271356
-0.0002550641 -0.07196642 -0.018305518 0.074937165 -0.034284536 0.0059180073 0.053269822 -0.055426527
0.0460727 -0.07112608 -0.09156461 -0.09745474 -0.075585246 0.004468486 0.021158595 0.11159642
0.0021354994 0.08565331 -0.0064281793 0.00709313 -0.0019104308 0.023847781 -0.008992546 0.06048343
-0.03229929 -0.015078942 0.07687551 0.043235514 0.012174152 0.05221969 0.090399675 -0.032985736
00000000: 9ae5 2cbd 7995 da3d fed7 8a3c 8be9 19be
00000010: 497f 1bbd 99f1 0b3d 1691 113e c46a fb3c
00000020: c4d7 8e3d 48d3 0a3e 49b1 ff3c afb9 b1bc
00000030: 3f5d cebc 5893 ed3d 51b6 7bbd 2a48 1a3d
00000040: 6dad 113d 30ef 6fbc 8a3a 543d ecc7 8f3d
00000050: 2d05 54bd 83ad ebbd c27e 8a3d ceae a1bd
00000060: 9e36 aabc 319b 333c 5ce0 37bd a956 a8bc
00000070: 4fc6 00bd bfed 173e 700b 7a3d 7285 c63c
00000080: f680 06b7 247c 1dbd 31de 58bd e846 90bd
00000090: aa87 38bd 4fb6 133e 59c0 e1bc 1f5e f73d
000000a0: ca8f fd3d 32f0 95ba 9905 893d 94b8 093c
000000b0: dde6 253d 7758 8b3d c900 c23d 5210 59bd
000000c0: c149 663d d10e a5bd 5fdf 74bc df5e 8c3d
000000d0: 8531 ca3d 08ca 983d 2176 25bd da4e 173e
000000e0: 14d0 bf3c 2c32 a3bc 6e66 033e 1be9 27bc
000000f0: 73ab d3bd 6172 2abd 57b5 1c3d 7566 a8bc
00000100: 95d4 90bd d398 88bd 1a34 b2bd 2b05 0abe
00000110: 9a37 a3bd 9aee 09bd 3500 47bd c308 773d
00000120: 2f8c d7bc 02a7 e23d c809 bc3c 1e98 cb3c
00000130: 069d 873d 73ac bd3c 0a3e e93d 8ea9 c83d
00000140: da7d d1bd dae1 d23d cf01 113e d68f 063d
00000150: 7844 993d 1331 f8bc d896 4d3d 339c 19be
00000160: a1a9 2bbc 8ecf 0bbe 50a2 913c db28 04bd
00000170: e2ec f83b 30e5 10be ef4d 7ebd da16 533c
00000180: d807 e8bd 685a f8bd f6c8 d2bd 245d f0bd
00000190: 1730 8ebd 32ee 09be 2a36 d4bb 9942 d3bd
000001a0: c40f 683c f2b4 8b3d e9b5 c2bd ed91 17be
000001b0: 2f78 f53d 3db6 543d 9fd5 aa3d 579c 083e
000001c0: 0906 f03d 2591 bd3c 5918 0cbd 4928 6abd
000001d0: 05f7 d83b c9ff 03bc 80cd ac3d aacd 293e
000001e0: 3740 1abe 3a21 f6bd 8208 873d 5af6 233d
000001f0: 227f 7d3d 8302 2ebc e13b 063d 6f51 a7bd
00000200: 8c68 9f3d 5b13 82bd ec5f 06bd e684 263d
00000210: db91 cd3d 1983 11bd ec0b 0e3c c967 8abc
00000220: 9d5f 1a3d da8b 02bc c309 dc3c 455a 963d
00000230: 99e4 5f3d c7b2 003e bca4 8d3d bf48 94bd
00000240: 62a3 af3d 99af 94bd b29d d43b 9354 f53d
00000250: 37b6 c63d e40b adbd 83a0 353d fff1 f9bd
00000260: e890 783d 2046 a33d 1376 cabd cef2 d83c
00000270: aceb 97bc 6ac8 8ebd f39b d93d f763 cebc
00000280: b97a df3d b9be e03d 8d4c 83bc f3f5 17bd
00000290: a5b0 b93d b8b1 4a3d 06ef 5d3b 04ad 8bbd
000002a0: 52eb 143d 2369 163e 7e1e a6bd 3129 733d
000002b0: 3bf1 393d f3ab 553c b340 723d b817 37ba
000002c0: 6a6c 293c 340c 9cbb 389e 6d3d 96d4 76bd
000002d0: e3b2 e5bd 3fa7 0c3d b016 cebd a0e6 f63d
000002e0: 8f1f 89bc 3f9d 09be b8a3 0f3d 5a76 df3c
000002f0: be5e f4bd 2cf3 e4bc b239 d63d 639b 18bd
00000300: 1199 563c 8d5b 083e fbfb 953c eaf5 83bd
00000310: 9140 0c3d c0ca 813d b3d4 c53c 5431 b83d
00000320: a788 a33d 88f0 3abd d723 e13c 65c3 bebd
00000330: fd2d 46bd 188e 91bd d7ce 193b dc88 6fbc
00000340: f102 c23d 688f c5bd e3e3 213d 2259 993d
00000350: ca32 093e 1d3e af3b bc19 febc 4ce2 5c3d
00000360: 847b 84bc a3e3 d2bd 4f45 a23d f2c2 ddbc
00000370: 63fc 02be a177 71bd 740c cdbd 68d2 69bc
00000380: 20ba 85b9 2163 93bd 74f5 95bc a878 993d
00000390: f16d 0cbd d8eb c13b 7531 5a3d ed06 63bd
000003a0: bab6 3c3d 8daa 91bd 3a86 bbbd 5a96 c7bd
000003b0: 70cc 9abd 616c 923b ca54 ad3c aa8c e43d
000003c0: bcf3 0b3b 016b af3d 7aa3 d2bb 7d6d e83b
000003d0: 6c67 faba 6c5c c33c 7955 13bc 79bd 773d
000003e0: 434c 04bd ab0d 77bc e870 9d3d b917 313d
000003f0: 1876 473c 50e4 553d 7723 b93d 0d1c 07bd

bias_ih_l0 f4 [800]
0.144189 0.05263732 0.03999844 0.110830896 0.08334607 0.14123932 0.0055825384 0.06909645
0.05130195 0.12709326 0.09516498 0.020761535 0.048105102 0.12537482 0.015329775 0.040160228
0.10181304 0.029874926 0.148756 0.002319252 0.12773375 0.038840987 0.007038094 0.12729686
0.02880095 0.021429574 0.11685706 0.11364534 -0.012633068 0.04337019 0.10904243 0.07816118
0.122421846 0.038122892 0.053461593 0.0834058 0.024574025 0.07478097 0.04280519 0.08370171
0.10181561 0.019774307 0.03928581 0.06947635 0.085379794 -0.0034236624 0.06851643 0.119596615
0.0388961 0.09363189 0.11307005 0.018190704 0.050613567 0.14027718 0.103451215 0.040009163
0.120042585 0.038665418 0.08716859 0.11250284 0.14299719 0.049059007 0.08352687 0.00042177076
0.044777963 -0.0142779015 0.04465413 -0.022375135 -0.020584393 0.08652131 0.0007033206 0.01304528
0.0773491 0.08029943 0.14959376 0.16159543 0.085157365 0.08964445 0.08696171 0.021288296
-0.008993407 0.09166043 0.05137034 0.016815728 0.09685473 0.03405731 0.17223507 0.031893145
0.13011825 0.029108195 0.07307065 0.07327826 0.02662826 0.075229645 0.0857491 0.12330071
0.059752837 0.07513223 0.0006456281 0.100374214 0.019414807 0.004389044 0.08782639 0.11222707
-0.007867235 0.09207716 0.052461185 0.03094681 0.1386116 0.14453162 0.12937509 0.097701795
-0.011173175 0.1333321 0.036038842 0.044517092 0.055799555 0.039020993 0.08821631 0.019861337
0.06922764 0.12025846 0.07194816 0.02726552 0.0070364126 0.12869224 0.061947145 0.1010193
-0.031575438 0.10349203 0.06036565 0.042382803 0.10590703 0.074334584 -0.002499145 0.13854617
0.14199519 0.13073401 -0.011318258 0.008809745 0.0966867 0.1520176 0.09026015 0.06866571
0.07382728 0.10230498 -0.001011491 0.117196634 0.114716604 -0.00656307 0.10310279 0.10983444
0.061760005 0.045324545 0.0018807675 0.043847032 0.12175901 0.062562294 0.039270565 0.07565448
0.020367226 0.14702013 0.07437909 0.004116937 0.073923565 -0.01703444 0.022032438 0.047702175
0.08526993 0.061660904 0.12886952 0.07183022 0.1413312 0.14942054 0.012763663 0.09479413
0.05265865 0.036403365 0.09032628 0.10867326 0.11190504 0.07034912 0.09785565 0.030357137
0.13310793 0.08355831 0.03588514 0.116592064 0.09298922 -0.030012852 0.008202221 0.052274335
0.0131067345 0.07822307 0.10765505 0.10029599 0.0033601401 0.08942876 0.004696852 0.100217044
-0.0442348 -0.016514804 0.048227243 0.015838305 0.083802134 0.03611597 0.066674896 0.068868816
0.08999322 0.09286719 0.010536236 -0.024991713 0.07291556 0.053806093 0.06333139 0.004972598
0.024814293 0.025418306 0.025285129 -0.028166441 0.049190532 0.08351354 0.01672274 0.008355627
0.057866503 0.06344565 0.0140772825 0.06440023 -0.029552922 -0.00025402755 0.09156599 0.029125838
0.013827138 -0.015524859 0.0049685137 -0.063423626 0.041874252 0.055306017 0.021224244 0.06061424
0.06645938 0.08261038 0.005524984 -0.04589534 0.06200505 0.0028732195 0.06688667 0.010941017
0.016326228 0.0084822485 0.028782032 -0.025397262 0.095547825 -0.04514073 0.05920941 -0.044973638
00000000: 48a6 133e 3b9a 573d 67d5 233d 4ffb e23d
00000010: 58b1 aa3d 0aa1 103e baed b63b 7182 8d3d
00000020: fe21 523d bc24 023e dbe5 c23d 1814 aa3c
00000030: db09 453d 4262 003e bd29 7b3c 0d7f 243d
00000040: 5b83 d03d 43bc f43c 7e53 183e 97fe 173b
00000050: a3cc 023e ba17 1f3d d09f e63b 1c5a 023e
00000060: f8ef eb3c 138d af3c c152 ef3d e3be e83d
00000070: edfa 4ebc f1a4 313d a351 df3d f812 a03d
00000080: 4eb8 fa3d c026 1c3d 8bfa 5a3d a9d0 aa3d
00000090: 774f c93c c426 993d 7f54 2f3d cd6b ab3d
000000a0: b484 d03d bafd a13c 28ea 203d 9e49 8e3d
000000b0: 9adb ae3d 865f 60bb 5852 8c3d 12ef f43d
000000c0: 8451 1f3d 14c2 bf3d 4591 e73d ac04 953c
000000d0: 2c50 4f3d d2a4 0f3e 3bde d33d a6e0 233d
000000e0: e3d8 f53d a15f 1e3d 7285 b23d e467 e63d
000000f0: db6d 123e 19f2 483d 2310 ab3d 1d21 dd39
00000100: 1969 373d dced 69bc 40e7 363d 0f4c b7bc
00000110: 9aa0 a8bc 1632 b13d 0c5f 383a dfbb 553c
00000120: 3469 9e3d 0774 a43d 1b2f 193e 4679 253e
00000130: fc66 ae3d 8297 b73d fb18 b23d cb64 ae3c
00000140: 1559 13bc 77b8 bb3d b569 523d 23c1 893c
00000150: c65b c63d ae7f 0b3d 645e 303e 63a2 023d
00000160: b83d 053e 4f74 ee3c 11a6 953d ea12 963d
00000170: 8223 da3c 0012 9a3d 399d af3d 1585 fc3d
00000180: 64bf 743d edde 993d 5e3f 293a ff90 cd3d
00000190: cd0b 9f3c f8d1 8f3b 53de b33d 4ed7 e53d
000001a0: 93e5 00bc f392 bc3d 8ae1 563d 2a84 fd3c
000001b0: 33f0 0d3e 1900 143e e77a 043e e117 c83d
000001c0: b10f 37bc 3688 083e 779d 133d 8e57 363d
000001d0: 138e 643d 7ad4 1f3d c1aa b43d 3eb4 a23c
000001e0: 39c7 8d3d 114a f63d 8f59 933d f15b df3c
000001f0: b591 e63b e6c7 033e 4abc 7d3d 35e3 ce3d
00000200: 3f55 01bd a1f3 d33d f941 773d 9799 2d3d
00000210: c9e5 d83d bb3c 983d b2c8 23bb 0cdf 0d3e
00000220: 3067 113e 23df 053e 3770 39bc c056 103c
00000230: ad03 c63d 80aa 1b3e 50da b83d 9ca0 8c3d
00000240: c232 973d 4685 d13d 0294 84ba ca04 f03d
00000250: 8af0 ea3d 060f d7bb 8e27 d33d e1f0 e03d
00000260: 0ff8 7c3d 3ba6 393d 1684 f63a f298 333d
00000270: ca5c f93d a920 803d 2cda 203d bcf0 9a3d
00000280: 2bd9 a63c 728c 163e 1054 983d 5fe7 863b
00000290: 3d65 973d cf8b 8bbc 5f7d b43c 5b63 433d
000002a0: 00a2 ae3d 2590 7c3d 5ff6 033e b91b 933d
000002b0: 20b9 103e b301 193e af1e 513c 6d23 c23d
000002c0: 99b0 573d b21b 153d fcfc b83d 1690 de3d
000002d0: 782e e53d 3313 903d 8b68 c83d 88af f83c
000002e0: 724d 083e 9f20 ab3d 4cfc 123d d2c7 ee3d
000002f0: 2271 be3d 83dd f5bc 9c62 063c 9d1d 563d
00000300: a1bd 563c 6b33 a03d 407a dc3d fc67 cd3d
00000310: cc35 5c3b 6d26 b73d 0de8 993b 983e cd3d
00000320: 8d2f 35bd 0e4a 87bc ee89 453d 55bf 813c
00000330: 74a0 ab3d 57ee 133d d98c 883d 180b 8d3d
00000340: 5e4e b83d 2731 be3d 2da0 2c3c 6cbb ccbc
00000350: c154 953d c763 5c3d e3b3 813d 2df1 a23b
00000360: 5847 cb3c 0d3a d03c c222 cf3c 4fbd e6bc
00000370: 037c 493d 2609 ab3d 21fe 883c 0ae6 083c
00000380: 6d05 6d3d cbef 813d 67a4 663c 45e4 833d
00000390: f818 f2bc 002f 85b9 f386 bb3d 4f99 ee3c
000003a0: 388b 623c fa5b 7ebc eace a23b 3fe4 81bd
000003b0: 5684 2b3d 9088 623d 77de ad3c a346 783d
000003c0: db1b 883d a22f a93d ed0a b53b c1fc 3bbd
000003d0: 02f9 7d3d a04c 3c3b e1fb 883d f441 333c
000003e0: 95be 853c 21f9 0a3c 4cc8 eb3c eb0d d0bc
000003f0: 94ae c33d 7ce5 38bd 9185 723d 4736 38bd

bias_hh_l0 f4 [800]
0.028124964 0.088879704 0.044503473 0.028357591 0.01926181 0.10641502 0.017667685 0.12623899
-0.029206442 0.11068712 -0.005366237 0.042317998 0.12027734 0.12726985 0.09438389 0.11888982
0.06965087 0.11962012 0.053417917 0.03524949 0.11011787 0.10650258 0.035078596 0.06169787
0.021774922 0.08668624 0.009047653 0.05665636 0.03150497 0.050944235 0.11340255 0.09425293
0.022104595 0.0279181 0.12848413 0.1309055 0.101608954 0.10490936 0.053242404 0.033897888
0.015177841 0.03638483 0.09162188 0.14405023 -0.012595686 0.08786848 0.015258659 0.08037097
0.058063343 0.09761459 0.15124609 0.0298357 0.062683545 0.08179482 0.016453495 0.0747649
0.11285268 0.13503635 0.07627704 0.06923214 0.074014574 0.009400313 0.040969495 0.009633506
-0.0012701922 0.006453821 0.105269246 0.0647479 0.06681046 0.059809837 0.024820164 -0.0030323765
0.115888834 0.032847654 0.15079863 0.13262326 0.07474663 0.08401485 -0.008501597 0.048455965
0.07715711 0.12852773 0.037728608 0.06896346 0.07407294 0.008629594 0.12808222 0.068000995
-0.005641434 0.09181642 0.017525854 0.13838963 0.028665511 0.0095485365 0.1601073 0.048322387
0.1495442 0.116608344 0.13440141 0.079001926 0.081124045 0.03154597 0.012741566 0.03287276
-0.0078815995 0.12705953 0.13606016 0.07387591 0.13153647 0.119827114 0.108998656 0.0040475307
-0.019086914 0.10242658 0.07310156 0.04040869 0.020320691 0.062416997 0.017827211 0.059756767
0.06813429 0.047581986 0.053127255 0.11135494 0.053401995 0.0643973 0.116589904 0.060651015
-0.032866675 0.03142414 0.061669637 0.01346116 0.13386391 0.15960091 0.10516538 0.043489255
0.12241881 0.1159288 0.019736312 0.096855894 0.030342903 0.07349392 0.10968639 0.023814844
0.13462798 0.040103205 0.08448879 0.0674145 0.11022085 0.048826706 0.13210954 0.059196703
0.048899177 0.046672057 0.10476299 0.049107116 0.17104505 0.022758346 0.07530954 0.0118288705
0.07062352 0.0644518 0.036659773 0.05095238 0.0055653006 0.06450876 0.1042662 0.0403093
0.096799426 0.015635228 0.14958397 0.1005402 0.04936718 0.0517933 0.02289555 0.08250169
0.09193431 0.021807957 0.015654447 0.009584116 0.11032312 0.043884475 0.01450987 0.08898083
0.046863493 0.10495986 0.10103321 0.10157822 0.08482438 0.054260656 0.12134679 0.0674057
0.09335796 0.10536702 0.15949006 0.07434129 -0.017800013 0.023492929 0.11500163 0.09270772
-0.044133294 0.015833769 0.059871405 -0.0013756008 0.054153915 -0.02782682 0.0418269 0.022573737
-0.018161332 0.06522024 0.03478647 0.015885882 -0.031097732 0.0388152 0.08102732 0.036168054
-0.036251213 -0.023072949 0.01147425 -0.0012693468 -0.005388619 0.0455851 -0.020599065 0.06648066
0.067283265 0.07810224 0.08692066 0.02846777 0.0091899885 0.10389914 0.0032068077 0.009190297
-0.04311379 -0.0012672503 0.01814134 0.029060805 0.016009092 0.0024324341 0.06927578 0.08304964
0.013422841 0.089653835 0.031445056 0.015782518 0.08046782 0.03993646 0.08310498 -0.0113998
-0.012916552 -0.0074132686 -0.06601537 0.0765183 0.023943938 0.05201485 -0.003887387 0.008318952
00000000: 5366 e63c 9006 b63d 4649 363d 2e4e e83c
00000010: f2ca 9d3c 1ef0 d93d d2bb 903c cb44 013e
00000020: 5942 efbc eeaf e23d 42d7 afbb a355 2d3d
00000030: f753 f63d 0753 023e 574c c13d 827c f33d
00000040: 1ea5 8e3d 65fb f43d bfcc 5a3d c561 103d
00000050: 7a85 e13d 061e da3d 93ae 0f3d e8b6 7c3d
00000060: 5261 b23c 8e88 b13d 9b3c 143c 8010 683d
00000070: 5b0b 013d e7aa 503d 993f e83d ae07 c13d
00000080: b214 b53c 80b4 e43c 5891 033e 170c 063e
00000090: 5b18 d03d b8da d63d b514 5a3d 83d8 0a3d
000000a0: 7bac 783c 4208 153d 41a4 bb3d e781 133e
000000b0: 235e 4ebc 64f4 b33d 74ff 793c 8999 a43d
000000c0: d4d3 6d3d 28ea c73d 41e0 1a3e ff69 f43c
000000d0: 3b60 803d 0b84 a73d 7bc9 863c 571e 993d
000000e0: 4e1f e73d f846 0a3e 2337 9c3d 95c9 8d3d
000000f0: f494 973d c503 1a3c a1cf 273d dad5 1d3c
00000100: 947c a6ba 937a d33b 6797 d73d 8c9a 843d
00000110: ecd3 883d 29fb 743d a853 cb3c d6ba 46bb
00000120: 2057 ed3d 438b 063d f56a 1a3e 64ce 073e
00000130: c314 993d fa0f ac3d 484a 0bbc c379 463d
00000140: 8c04 9e3d c69c 033e 5089 1a3d b73c 8d3d
00000150: 8eb3 973d 2463 0d3c fc27 033e 1b44 8b3d
00000160: c7db b8bb 3f0a bc3d 6192 8f3c 03b6 0d3e
00000170: efd3 ea3c 7771 1c3c 2bf3 233e b2ed 453d
00000180: 1d22 193e 5bd0 ee3d 86a0 093e c3cb a13d
00000190: 5d24 a63d 5936 013d 00c2 503c 96a5 063d
000001a0: d321 01bc e51b 023e 5b53 0b3e 414c 973d
000001b0: 7fb1 063e eb67 f53d b03a df3d 26a1 843b
000001c0: 295c 9cbc 07c5 d13d 45b6 953d 9583 253d
000001d0: 9477 a63c f7a8 7f3d 5f0a 923c 83c3 743d
000001e0: fe89 8b3d 54e5 423d f79b 593d 0f0e e43d
000001f0: 0dbc 5a3d bbe2 833d b0c6 ee3d 336d 783d
00000200: 359f 06bd 99b6 003d 4d99 7c3d 328c 5c3c
00000210: 9f13 093e 6c6e 233e f260 d73d ca21 323d
00000220: b7b6 fa3d 146c ed3d 0cae a13c 625c c63d
00000230: ae91 f83c fb83 963d 42a3 e03d 5917 c33c
00000240: ebdb 093e 4243 243d 7508 ad3d 9d10 8a3d
00000250: 78bb e13d 83fe 473d b947 073e 3e78 723d
00000260: 814a 483d 332b 3f3d fa8d d63d 8b24 493d
00000270: 6f26 2f3e b66f ba3c e33b 9a3d e1cd 413c
00000280: 10a3 903d 4eff 833d 8f28 163d 71b3 503d
00000290: 205d b63b 2b1d 843d 8489 d53d 5d1b 253d
000002a0: c73e c63d 7315 803c 8a2c 193e 05e8 cd3d
000002b0: 3d35 4a3d 3625 543d 738f bb3c a5f6 a83d
000002c0: 0e48 bc3d 9aa6 b23c c13d 803c b206 1d3c
000002d0: 17f1 e13d 35c0 333d ceba 6d3c 953b b63d
000002e0: eff3 3f3d 32f5 d63d 80ea ce3d 3e08 d03d
000002f0: 68b8 ad3d 6c40 5e3d aa84 f83d 000c 8a3d
00000300: 7532 bf3d aaca d73d 5d51 233e 3f40 983d
00000310: 55d1 91bc 3e74 c03c f985 eb3d 8cdd bd3d
00000320: 1dc5 34bd d2b5 813c b83b 753d 814d b4ba
00000330: 7fd0 5d3d 12f5 e3bc af52 2b3d 8fec b83c
00000340: 13c7 94bc 3092 853d 427c 0e3d 1c23 823c
00000350: acc0 febc b0fc 1e3d a7f1 a53d f424 143d
00000360: 277c 14bd 7b03 bdbc 7efe 3b3c 3660 a6ba
00000370: 0393 b0bb 71b7 3a3d 5fbf a8bc 0327 883d
00000380: cfcb 893d 11f4 9f3d 7603 b23d 3e35 e93c
00000390: 9b91 163c 13c9 d43d 4e29 523b e692 163c
000003a0: 1698 30bd dd19 a6ba 269d 943c ed10 ee3c
000003b0: 8025 833c 7969 1f3b 76e0 8d3d ee15 aa3d
000003c0: 7aeb 5b3c 6e9c b73d 88cc 003d 574a 813c
000003d0: 50cc a43d 6a94 233d f232 aa3d 3ac6 3abc
000003e0: f29f 53bc 01eb f2bb 1133 87bd a0b5 9c3d
000003f0: 1426 c43c 860d 553d 88c3 7ebb 374c 083c

weight f4 [49, 200]
0.16632153 0.12025016 0.074305005 0.0030011341 0.0076321205 -0.048712935 0.067112096 -0.010135128
0.04138524 0.119959265 0.10232803 0.0699741 0.11493721 0.080305465 -0.11938857 0.052456073
0.09086754 -0.00015847535 0.08504846 0.00079353614 0.085701 -0.111464046 0.022677414 -0.087667935
-0.09532679 -0.0692222 0.103492215 0.02570702 0.09872591 -0.040542535 0.03079591 -0.066966124
0.060204495 -0.039676968 0.11402268 0.15675423 -0.107624516 -0.11816663 0.03644725 -0.13869008
-0.100026146 0.019135423 0.08007331 0.078809835 0.070690915 0.19404642 0.022563413 -0.1285303
0.03466751 -0.032000095 -0.010870916 0.01821975 0.033369582 -0.040455975 -0.010864315 0.10231798
-0.08659544 -0.069216155 0.09598476 -0.122387365 -0.009546622 -0.09395507 -0.1087842 -0.10962966
-0.047181338 -0.029605186 -0.081672765 -0.06373943 -0.04879528 -0.052699625 -0.053207207 0.05928046
-0.07185037 0.0869041 -0.06767119 -0.01240753 0.055307146 -0.108372726 0.11312365 -0.066668704
-0.075395204 -0.11291521 0.035394263 -0.006119603 0.059809335 0.09739801 -0.062262766 -0.054837838
-0.021959322 -0.02400218 0.07255721 0.13705084 0.048204537 0.029698418 0.013935011 -0.06744291
0.12419864 -0.033446804 -0.041516673 0.0870966 -0.06809943 -0.05208126 -0.10929613 -0.08386578
0.06479521 0.08952143 -0.016642643 -0.04828995 0.038492955 -0.11372471 0.0050306274 0.080066584
0.046808377 0.011307108 0.23454802 -0.08067056 0.13181157 0.006731283 0.090104125 0.03920556
0.0052654315 -0.04942211 0.061852798 0.101158135 -0.053370964 -0.06845648 -0.028648125 0.0046209986
0.05979085 0.069974355 -0.057967827 -0.059262868 0.038167756 0.12633476 -0.03872744 -0.095393084
-0.08844242 0.07739755 0.06999937 0.04118581 0.013141408 0.07601158 0.054617405 0.0070283473
-0.002620111 0.03610823 -0.059961125 0.0033090254 0.10494788 -0.08707468 0.04828129 -0.07672978
0.03908875 0.1079941 -0.012747545 0.008490695 -0.10771246 -0.09277342 0.0725527 0.055953894
0.086576596 0.03504939 -0.10865497 0.11271049 0.026220093 0.057174724 0.0839638 0.039812025
0.024534255 -0.051111832 -0.027288286 0.08990488 0.10570747 -0.09441929 0.07872464 -0.047544308
-0.0053331163 -0.07921133 0.034295198 0.11379366 0.003346818 0.03249347 -0.07590503 0.037867695
-0.07831078 -0.05286413 0.060845282 0.06268954 -0.075977355 -0.14419888 -0.012982466 -0.042926043
0.10223802 0.03401332 0.030049501 -0.09342099 0.06332938 0.05075025 0.049169064 0.08000827
0.012786875 0.07461804 0.14046393 -0.09385727 0.005401869 0.13543518 0.00039337785 0.13172735
0.08450856 0.016987566 0.028276138 -0.0005918116 0.072960325 -0.06746172 -0.025408067 -0.04111021
-0.008587092 -0.08511684 0.09021724 -0.10053193 -0.110891044 -0.082676165 0.01784402 0.14356735
-0.10831151 -0.14103568 -0.061338123 0.07301692 0.13773155 0.09125952 0.06724347 -0.05617616
0.07143453 0.0034257318 -0.14110355 -0.13708462 -0.114651226 0.12431032 -0.13243185 0.02393506
0.064592935 0.005640893 0.009611265 -0.009325514 -0.021997046 -0.041619264 -0.01597812 -0.021022141
-0.10382076 -0.12678769 0.11828429 -0.02348829 -0.08664011 -0.13504232 0.11631204 -0.14563252
00000000: 3150 2a3e b745 f63d 392d 983d adae 443b
00000010: de16 fa3b 3787 47bd 1172 893d cf0d 26bc
00000020: 9283 293d 34ad f53d 5c91 d13d 954e 8f3d
00000030: 3364 eb3d 3177 a43d ff81 f4bd 2edc 563d
00000040: c318 ba3d 672c 26b9 e32d ae3d 4f05 503a
00000050: 0284 af3d 4347 e4bd fcc5 b93c 3f8b b3bd
00000060: b13a c3bd 5ec4 8dbd baf3 d33d 8797 d23c
00000070: cf30 ca3d ee0f 26bd b447 fc3c 8925 89bd
00000080: fd98 763d 5184 22bd b984 e93d 2e84 203e
00000090: 3e6a dcbd 5901 f2bd b649 153d c604 0ebe
000000a0: 82da ccbd e4c1 9c3c 7afd a33d 0d67 a13d
000000b0: 66c6 903d 1bb4 463e e8d6 b83c 729d 03be
000000c0: 85ff 0d3d 8812 03bd ed1b 32bc 9641 953c
000000d0: 8bae 083d 2ab5 25bd 3d00 32bc 178c d13d
000000e0: f358 b1bd 33c1 8dbd a893 c43d 3aa6 fabd
000000f0: 6f69 1cbc 846b c0bd 40ca debd 8485 e0bd
00000100: 3841 41bd 9386 f2bc 0d44 a7bd d189 82bd
00000110: 8fdd 47bd 90db 57bd cdef 59bd 11d0 723d
00000120: 4926 93bd c7fa b13d 3197 8abd f448 4bbc
00000130: bf89 623d 85f2 ddbd 5fad e73d 9a89 88bd
00000140: cd68 9abd 1740 e7bd 93f9 103d f386 c8bb
00000150: a2fa 743d 9c78 c73d 3e07 7fbd a49d 60bd
00000160: 09e4 b3bc 38a0 c4bc e098 943d 0e57 0c3e
00000170: 1f72 453d 194a f33c ac4f 643c 821f 8abd
00000180: db5b fe3d 84ff 08bd 630d 2abd b45f b23d
00000190: b777 8bbd 2953 55bd a6d6 dfbd d2c1 abbd
000001a0: 5ab3 843d 0357 b73d 2756 88bc afcb 45bd
000001b0: caaa 1d3d 80e8 e8bd f6d7 a43b f3f9 a33d
000001c0: 24ba 3f3d 7341 393c 5b2d 703e 9b36 a5bd
000001d0: 9df9 063e 1892 dc3b 8388 b83d 0296 203d
000001e0: a489 ac3b d76e 4abd 5c59 7d3d ff2b cf3d
000001f0: 839b 5abd e932 8cbd 79af eabc bf6b 973b
00000200: 40e7 743d b74e 8f3d ac6f 6dbd 9fbd 72bd
00000210: cb55 1c3d e65d 013e aaa0 1ebd 735d c3bd
00000220: 4d21 b5bd 9b82 9e3d d45b 8f3d 74b2 283d
00000230: 0f4f 573c f6ab 9b3d 80b6 5f3d 0d4e e63b
00000240: 2bb6 2bbb 39e6 133d cc99 75bd 3cdc 583b
00000250: eaee d63d 3654 b2bd 9ac2 453d 8124 9dbd
00000260: 861b 203d 032c dd3d 14db 50bc 8e1c 0b3c
00000270: 5a98 dcbd feff bdbd 8396 943d e92f 653d
00000280: 124f b13d f38f 0f3d 7f86 debd c2d4 e63d
00000290: 85cb d63c 0b30 6a3d 36f5 ab3d ef11 233d
000002a0: 10fc c83c a45a 51bd af8b dfbc 0d20 b83d
000002b0: 287d d83d e75e c1bd 623a a13d d2bd 42bd
000002c0: 6cc1 aebb 8d39 a2bd 1f79 0c3d a70c e93d
000002d0: 4a56 5b3b df17 053d 1974 9bbd 281b 1b3d
000002e0: 6761 a0bd 0f88 58bd e738 793d 6063 803d
000002f0: 049a 9bbd dfa8 13be 69b4 54bc 38d3 2fbd
00000300: 2b62 d13d 8d51 0b3d 5f2a f63c 8153 bfbd
00000310: d5b2 813d 7fdf 4f3d 8065 493d 60db a33d
00000320: 0a80 513c 58d1 983d c7d5 0f3e 3e38 c0bd
00000330: 2902 b13b 85af 0a3e 483e ce39 89e3 063e
00000340: d312 ad3d 8229 8b3c 5ca3 e73c ce23 1bba
00000350: 396c 953d 5f29 8abd 9424 d0bc 2e63 28bd
00000360: e0b0 0cbc bd51 aebd d1c3 b83d afe3 cdbd
00000370: d81a e3bd 1f52 a9bd 9f2d 923c 5203 133e
00000380: 6dd2 ddbd a86b 10be af3d 7bbd e589 953d
00000390: 8009 0d3e 45e6 ba3d f2b6 893d f918 66bd
000003a0: 444c 923d 3e82 603b 737d 10be e95f 0cbe
000003b0: 43ce eabd 6996 fe3d 379c 07be 7513 c43c
000003c0: 4d49 843d 3dd7 b83b 9178 1d3c 0aca 18bc
000003d0: 2633 b4bc f678 2abd 8ce4 82bc a036 acbc
000003e0: fb9f d4bd a2d4 01be 093f f23d 846a c0bc
000003f0: 5f70 b1bd 8948 0abe 0235 ee3d b120 15be

bias f4 [49]
-0.0561717 0.03738001 -0.030402957 -0.041269712 0.046284087 -0.032238416 0.031423967 0.08708632
-0.019141681 0.009516882 0.0056216666 0.024611397 0.02298835 0.036741585 -0.00827531 0.052953646
0.016675623 -0.076866426 -0.010641829 -0.08070749 0.012530636 0.03414187 -0.047886454 0.010554167
-0.06115472 0.022563461 -0.033149958 -0.05258258 -0.008968146 0.036043428 -0.07958063 0.024693666
-0.007401914 -0.051722415 -0.054995123 0.04901322 0.043574285 0.04830393 -0.036429178 -0.08075027
-0.05647886 0.034694124 0.03504901 -0.020355746 0.03490528 -0.03114448 0.033113614 -0.0001970969
-0.063285366
00000000: 4c14 66bd c81b 193d 9f0f f9bc 6e0a 29bd
00000010: 6294 3d3d 6e0c 04bd 6bb6 003d 505a b23d
00000020: 04cf 9cbc b2ec 1b3c f535 b83b d79d c93c
00000030: 1052 bc3c 587e 163d 2a95 07bc ece5 583d
00000040: 519b 883c 256c 9dbd 115b 2ebc f849 a5bd
00000050: 4c4d 4d3c 58d8 0b3d 9624 44bd 63eb 2c3c
00000060: 5f7d 7abd 02d7 b83c 40c8 07bd d560 57bd
00000070: 21ef 12bc 46a2 133d 2bfb a2bd 5f4a ca3c
00000080: c18b f2bb e2da 53bd 9142 61bd 16c2 483d
00000090: f37a 323d 57da 453d c336 15bd 6660 a5bd
000000a0: 6156 67bd 6d1b 0e3d 8d8f 0f3d 18c1 a6bc
000000b0: d7f8 0e3d b522 ffbc 24a2 073d ccab 4eb9
000000c0: c29b 81bd
