src/your_mlflow_tracking_uri/0/69f12f7c6f1743b0bc8930ed267dc976/artifacts/models/data/model.pth (torch, 975278 bytes, 7 tensors)

weight f4 [51, 83]
1.9096677 1.0781858 -0.911641 0.84082615 -0.30377135 0.2848479 0.08433142 -1.4259202
-1.8908741 -0.17270409 0.82192856 0.5244652 -0.2828829 -1.6442078 0.012377701 1.2465066
-0.5883065 -1.0409873 -0.28989613 0.84812975 0.94966257 -0.08957089 0.39723852 1.0181487
0.31151193 0.38228393 0.7420328 0.2415665 0.07055595 -0.24100849 2.1910832 2.05095
0.961115 -0.2587186 -0.643678 -0.5349603 -1.0268985 0.91425127 -0.114649706 0.40942666
-0.528261 0.88689446 -0.7386142 1.0272374 -0.23177591 -0.16802241 -0.7627257 0.19603303
-1.2204567 1.8649638 0.030973518 0.76466703 2.5731766 0.5869166 1.425182 0.44177684
0.90125465 -2.0073037 -1.4892862 1.729982 1.9090433 0.9277968 0.08118943 0.37883607
-0.031496227 -0.23939861 -1.29386 -0.5152247 -0.34542337 0.067596585 0.51429397 0.88631845
-1.0059752 1.903841 0.4398416 0.14414524 0.31234652 1.7058309 0.15321319 0.6438595
0.14929578 2.920199 -0.7391889 0.18120384 -1.3692821 0.42031446 1.7392354 -0.83861667
-0.74476725 0.079308055 -0.23128836 -0.5752843 0.43361166 1.3768445 -0.2429652 1.9169487
-0.7221418 0.31679758 0.26452017 0.42686287 -1.2809955 0.95129824 -0.038861293 -0.22923857
-0.017753921 -0.098852426 -1.2278209 1.5968962 0.5676771 1.0198132 0.4970938 -0.13367905
1.6939936 2.0130816 -0.11733792 0.4995583 -0.4700293 -1.2491246 -0.5708351 0.68438196
-0.49887604 1.013069 0.28331044 -1.870847 0.35434753 0.9413314 2.2400947 -1.009447
0.90261006 -1.4685394 -0.73077524 -0.3434447 1.2462219 1.4567059 -0.05554864 0.01671222
-1.4439431 -0.40165225 -0.08284755 0.3422944 0.38292903 0.27440652 0.8142037 0.9628185
-0.59444416 0.49026355 0.41561332 -2.7759223 -0.61554116 1.430917 0.24908489 0.68091214
-1.3652704 0.82166636 0.7911397 0.43843508 1.3959752 1.4249543 -0.74753183 -0.50787556
0.23888235 0.86955 0.10707463 -0.28444386 -1.4316713 -1.3602148 -1.0786469 -0.49568674
-1.4221424 0.66125375 -0.24453548 0.90485114 -0.03573472 1.0411572 -0.40275937 0.7486166
1.4879997 -1.1958978 2.1427984 2.479484 -0.67200917 -0.44606003 -1.8014637 -1.4335282
1.4496565 0.34514573 0.116696395 1.6576626 -0.49507767 -0.36060083 -1.4180998 1.6725063
0.050572578 1.2230568 0.094986625 1.133512 1.2576189 1.5004249 0.12095929 1.1729896
2.6740167 0.71269655 0.68192774 -0.13440143 -0.6560247 -0.56117153 -0.5267938 -1.1716806
-0.41730118 0.18184273 -1.593693 0.18581904 0.31448182 0.098775975 -1.3201337 1.6989192
1.082904 0.7274842 -0.74797714 0.77695584 0.5732962 -0.9774305 0.759915 -0.4572474
3.008349 -1.0628884 -0.418716 -1.0690737 -0.05903975 -1.0355295 0.8824541 1.2957236
-0.72928494 1.1290957 1.5227393 1.0198462 1.2284131 -0.61260957 -0.9658324 -1.0153397
1.1794329 0.24325788 0.7008491 1.0020173 1.081997 0.97917044 -0.35028428 -1.3912065
1.2193671 0.49477488 0.39134663 -0.43506616 0.2178915 -0.9386662 -0.006745896 0.5263743
00000000: fe6f f43f fe01 8a3f 4e61 69bf 6240 573f
00000010: eb87 9bbe 95d7 913e f4b5 ac3d 8e84 b6bf
00000020: 2a08 f2bf 57d9 30be e969 523f 5a43 063f
00000030: 07d6 90be 6775 d2bf d7cb 4a3c 878d 9f3f
00000040: 419b 16bf 123f 85bf 446d 94be 081f 593f
00000050: 161d 733f f170 b7bd d962 cb3e b252 823f
00000060: 7e7e 9f3e b8ba c33e ddf5 3d3f 355d 773e
00000070: a37f 903d eeca 76be b53a 0c40 c442 0340
00000080: a20b 763f c476 84be 15c8 24bf 29f3 08bf
00000090: 6971 83bf 5f0c 6a3f 77cd eabd 5fa0 d13e
000000a0: 1d3c 07bf 840b 633f d215 3dbf 847c 833f
000000b0: aa56 6dbe 110e 2cbe fe41 43bf e2bc 483e
000000c0: ed37 9cbf 22b7 ee3f 2dbc fd3c 38c1 433f
000000d0: edae 2440 2b40 163f 5d6c b63f 9330 e23e
000000e0: a0b8 663f aa77 00c0 eea0 bebf 0d70 dd3f
000000f0: 885b f43f 1784 6d3f a546 a63d cdf6 c13e
00000100: 3002 01bd e924 75be 349d a5bf c4e5 03bf
00000110: 55db b0be 1470 8a3d c5a8 033f c4e5 623f
00000120: ccc3 80bf 10b1 f33f eb32 e13e cf9a 133e
00000130: e2eb 9f3e ab58 da3f ebe3 1c3e fad3 243f
00000140: fee0 183e 8ae4 3a40 7c3b 3dbf 808d 393e
00000150: a344 afbf 7533 d73e 449f de3f 95af 56bf
00000160: 11a9 3ebf 436c a23d dbd6 6cbe d545 13bf
00000170: 5902 de3e 713c b03f dfcb 78be 935e f53f
00000180: 49de 38bf 4b33 a23e 306f 873e c58d da3e
00000190: a9f7 a3bf 4888 733f 052d 1fbd 84bd 6abe
000001a0: ac70 91bc 2473 cabd 3c29 9dbf 1867 cc3f
000001b0: 4953 113f 3d89 823f 1483 fe3e 29e3 08be
000001c0: c8d4 d83f 54d6 0040 dd4e f0bd 1bc6 ff3e
000001d0: aea7 f0be 51e3 9fbf 4022 12bf a833 2f3f
000001e0: ae6c ffbe 3fac 813f 110e 913e ea77 efbf
000001f0: 0a6d b53e 18fb 703f b65d 0f40 8f35 81bf
00000200: 7411 673f 19f9 bbbf 1614 3bbf fcd7 afbe
00000210: 3384 9f3f 5775 ba3f f986 63bd 11e8 883c
00000220: 21d3 b8bf 5da5 cdbe faab a9bd 3641 af3e
00000230: 460f c43e 037f 8c3e a76f 503f 467b 763f
00000240: 7e2d 18bf d303 fb3e 45cb d43e b6a8 31c0
00000250: 1b94 1dbf 4a28 b73f 1c10 7f3e 4250 2e3f
00000260: 2ec1 aebf ba58 523f 2288 4a3f 907a e03e
00000270: 51af b23f e764 b63f 3f5e 3fbf 2204 02bf
00000280: 939d 743e d49a 5e3f f249 db3d a0a2 91be
00000290: 0141 b7bf 851b aebf 1a11 8abf a7ca fdbe
000002a0: c308 b6bf ed47 293f 8267 7abe 53a4 673f
000002b0: 925e 12bd a444 853f 7a36 cebe 56a5 3f3f
000002c0: c676 be3f 2e13 99bf 9c23 0940 deaf 1e40
000002d0: cb08 2cbf fb61 e4be 5d96 e6bf da7d b7bf
000002e0: 588e b93f f1b6 b03e 85fe ee3d 4a2e d43f
000002f0: d27a fdbe aca0 b8be 4b84 b5bf b014 d63f
00000300: 3125 4f3d 208d 9c3f 5988 c23d ec16 913f
00000310: a8f9 a03f ec0d c03f 81b9 f73d 8624 963f
00000320: 1723 2b40 4873 363f d192 2e3f 87a0 09be
00000330: 3cf1 27bf f0a8 0fbf f5db 06bf a1f9 95bf
00000340: 80a8 d5be fb34 3a3e 22fe cbbf 5947 3e3e
00000350: c303 a13e 0f4b ca3d 24fa a8bf 2f76 d93f
00000360: 999c 8a3f 683c 3a3f 6e7b 3fbf 94e6 463f
00000370: 8ac3 123f e338 7abf ca89 423f 551c eabe
00000380: ca88 4040 ba0c 88bf f261 d6be 68d7 88bf
00000390: aad3 71bd 3b8c 84bf 83e8 613f 45da a53f
000003a0: 6bb2 3abf 3586 903f 1fe9 c23f 528a 823f
000003b0: a43c 9d3f fbd3 1cbf cb40 77bf a7f6 81bf
000003c0: a8f7 963f 9818 793e d96a 333f 1a42 803f
000003d0: e17e 8a3f eaaa 7a3f 7658 b3be 0e13 b2bf
000003e0: 3914 9c3f 2253 fd3e 965e c83e fec0 debe
000003f0: f31e 5f3e 6e4c 70bf ad0c ddbb 77c0 063f

weight_ih_l0 f4 [800, 83]
-0.012160325 -0.08663464 -0.036897454 -0.020706562 -0.013094874 0.076819845 -0.0163064 -0.0748864
-0.123506464 0.008487148 0.009095384 -0.032802437 0.01905094 0.039420396 -0.025791949 0.08709606
-0.011115738 0.031525493 0.03166261 0.08476459 0.16080311 0.040719394 0.04795776 -0.06645037
-0.06595954 0.051009543 0.028358908 0.089996554 -0.020460617 -0.04713388 0.07413772 0.0325717
0.08762576 -0.007173979 0.00061879854 0.015978515 0.034102254 -0.12901887 -0.04820846 0.07055214
0.016187074 0.0887264 -0.0032829612 -0.031914543 -0.0560642 -0.019879596 -0.031814314 0.018218441
0.03480874 -0.010078545 0.070090994 0.0016290331 0.011936409 -0.058173448 0.05933205 -0.08054973
0.029558504 -0.042976085 0.057670314 -0.044361915 0.044094775 -0.12695974 0.007601635 -0.05547241
-0.035843056 -0.032370966 -0.007264927 0.018735101 0.082276605 0.006529428 0.07975124 -0.03192609
-0.029156607 -0.014141991 0.0052722665 -0.0021899315 0.05131288 0.0903835 -0.055706672 -0.027509745
0.049657803 -0.071939096 0.043609533 0.05744968 0.017323337 0.043542568 0.012123138 -0.036725294
-0.03812508 0.03197474 -0.007871006 0.011703372 -0.040649842 -0.018973274 -0.053114258 -0.04914531
0.022253942 -0.10075841 0.050040863 0.10863323 0.057690524 -0.011925174 -0.10372428 -0.06916764
-0.06424868 -0.06421176 0.036102578 -0.003949355 0.036579017 0.030440746 -0.028456217 0.07812382
0.06036078 0.022666525 -0.105336696 0.04145409 -0.016888836 0.02161809 -0.11752306 -0.003513126
-0.10936022 0.044848073 0.085540205 0.026057666 -0.046174444 0.06775117 -0.006894998 0.042165536
0.07271433 -0.08015137 0.021592535 0.040112983 -0.026138788 0.048357688 0.028100995 0.059198085
-0.02973689 -0.05549091 -0.003874185 0.038778517 -0.005285966 0.056284152 0.05596192 0.012837226
-0.10149033 0.0021901138 0.07859612 -0.045481905 -0.0810762 0.019347781 -0.03890316 -0.049375966
0.021676784 0.027140794 0.004151157 0.055360973 -0.020675298 0.078395575 0.009903137 -0.036385994
-0.003757007 0.031535897 0.042804223 0.046124414 -0.05979622 -0.024356818 -0.03543168 0.0153606385
-0.08785242 0.010558777 0.00870047 -0.023114642 0.10805575 0.08855601 -0.06355488 0.08533525
-0.034055453 -0.017155658 0.056558162 0.010566308 -0.004754872 0.021592299 -0.0526121 -0.028009783
0.01782391 0.037735637 0.008032279 0.004002234 0.038336214 0.04196566 0.032545164 0.03109724
-0.0003352897 0.035102073 -0.05737624 -0.0603337 0.06488192 0.05939258 -0.025339644 0.03328068
-0.0250039 -0.06806652 0.038331892 -0.027758747 -0.019135313 0.049184907 0.060723405 0.07545662
-0.051175304 -0.04031899 -0.017313529 0.078047164 0.0034848747 0.056446493 -7.995922e-05 -0.039976843
-0.046441738 0.11960854 0.045328755 0.046166215 -0.11121532 -0.013335284 0.09462345 -0.03250582
0.042200327 -0.08783123 0.054768104 -0.08645894 -0.04058611 -0.0522949 -0.030900365 -0.06724301
-0.051002346 -0.0132965185 -0.03955731 0.09577466 -0.027298905 0.051384505 0.009710321 0.025270628
0.085630134 -0.03827794 -0.07546224 0.08523766 0.045766108 0.028704204 0.01715463 -0.059617843
0.013398583 -0.027222505 0.0064994525 0.011303431 -2.1855629e-05 -0.035731427 0.013439069 0.05235004
00000000: 1a3c 47bc 816d b1bd c921 17bd cfa0 a9bc
00000010: e28b 56bc b953 9d3d 0095 85bc 0a5e 99bd
00000020: f5f0 fcbd ae0d 0b3c ce04 153c d95b 06bd
00000030: b810 9c3c 4877 213d a349 d3bc 6b5f b23d
00000040: c91e 36bc e020 013d a7b0 013d 0f99 ad3d
00000050: 92a9 243e 61c9 263d 5b6f 443d 2217 88bd
00000060: cc15 87bd 62ef 503d f150 e83c 1d50 b83d
00000070: 069d a7bc 750f 41bd 84d5 973d e769 053d
00000080: 2275 b33d b313 ebbb de36 223a 60e5 823c
00000090: ceae 0b3d 861d 04be 3c76 45bd a47d 903d
000000a0: c19a 843c 30b6 b53d f326 57bb d3b8 02bd
000000b0: 93a3 65bd 89da a2bc ba4f 02bd d73e 953c
000000c0: 9c93 0e3d 7b20 25bc de8b 8f3d 4885 d53a
000000d0: ee90 433c 4847 6ebd 2a06 733d 42f7 a4bd
000000e0: ad24 f23c b107 30bd b537 6c3d d7b4 35bd
000000f0: b99c 343d bc01 02be 2317 f93b 0a37 63bd
00000100: 2bd0 12bd 6b97 04bd a00e eebb 5b7a 993c
00000110: a380 a83d d0f4 d53b 9e54 a33d efc4 02bd
00000120: d6d9 eebc cfb3 67bc fac2 ac3b f484 0fbb
00000130: 742d 523d fc1a b93d ae2c 64bd 1e5c e1bc
00000140: fb65 4b3d ce54 93bd e99f 323d 5b50 6b3d
00000150: ace9 8d3c b159 323d 20a0 463c 436d 16bd
00000160: 0b29 1cbd f2f7 023d 64f5 00bc 80bf 3f3c
00000170: 7380 26bd d76d 9bbc 568e 59bd 984c 49bd
00000180: e64d b63c 6d5a cebd a6f7 4c3d 197b de3d
00000190: e64c 6c3d ce61 43bc 656d d4bd c3a7 8dbd
000001a0: d094 83bd 7581 83bd 4ce0 133d 9769 81bb
000001b0: e1d3 153d df5e f93c 031d e9bc 62ff 9f3d
000001c0: de3c 773d 26af b93c c4ba d7bd c4cb 293d
000001d0: 755a 8abc 6c18 b13c eeaf f0bd 793c 66bb
000001e0: 40f8 dfbd 9db2 373d b42f af3d e376 d53c
000001f0: 6a21 3dbd 20c1 8a3d 6fef e1bb c5b5 2c3d
00000200: 40eb 943d 6726 a4bd d4e2 b03c 834d 243d
00000210: 0321 d6bc b612 463d 0f34 e63c b179 723d
00000220: c79a f3bc 704a 63bd 0ae6 7dbb 39d6 1e3d
00000230: e635 adbb 368a 663d 5438 653d 3a53 523c
00000240: 2ada cfbd 0388 0f3b 01f7 a03d 3c4b 3abd
00000250: 470b a6bd 3d7f 9e3c eb58 1fbd 743e 4abd
00000260: 8393 b13c 5f56 de3c 6e06 883b 30c2 623d
00000270: 3e5f a9bc dc8d a03d c440 223c 7b09 15bd
00000280: 1e38 76bb c92b 013d 7b53 2f3d f4ec 3c3d
00000290: e2ec 74bd f387 c7bc cf20 11bd 30ab 7b3c
000002a0: f8eb b3bd b8fe 2c3c 6b8c 0e3c eb5a bdbc
000002b0: 554c dd3d da5c b53d 1029 82bd 3fc4 ae3d
000002c0: bb7d 0bbd 068a 8cbc 88a9 673d 4f1e 2d3c
000002d0: c2ce 9bbb 55e2 b03c c97f 57bd c674 e5bc
000002e0: 7303 923c af90 1a3d d299 033c 2c25 833b
000002f0: 6f06 1d3d 2fe4 2b3d 144e 053d a4bf fe3c
00000300: d2c9 afb9 31c7 0f3d 5903 6bbd 7820 77bd
00000310: d0e0 843d a245 733d 1695 cfbc 5351 083d
00000320: fbd4 ccbc 7666 8bbd e701 1d3d 5066 e3bc
00000330: a9c1 9cbc 1d76 493d 1bb9 783d 0089 9a3d
00000340: 329d 51bd 8625 25bd 1ad5 8dbc 31d7 9f3d
00000350: 7f62 643b 7034 673d c8af a7b8 c2be 23bd
00000360: b139 3ebd 52f5 f43d a5aa 393d c918 3d3d
00000370: dcc4 e3bd 3c7c 5abc f0c9 c13d d324 05bd
00000380: 40da 2c3d dce0 b3bd 8554 603d 6211 b1bd
00000390: 9f3d 26bd 2d33 56bd c322 fdbc b4b6 89bd
000003a0: d6e7 50bd a4d9 59bc d906 22bd 8125 c43d
000003b0: f4a1 dfbc 8f78 523d 0a18 1f3c 5904 cf3c
000003c0: da5e af3d 54c9 1cbd f28b 9abd 1591 ae3d
000003d0: 3e75 3b3d 1425 eb3c de87 8c3c d731 74bd
000003e0: bb85 5b3c bb01 dfbc 5cf9 d43b 0732 393c
000003f0: 9b56 b7b7 1e5b 12bd 8a2f 5c3c ff6c 563d

weight_hh_l0 f4 [800, 200]
-0.01484106 0.099406995 0.02452239 -0.16804567 -0.06539087 0.015389566 0.11817053 0.055115778
0.06517684 0.10801632 0.051619377 -0.022736883 0.00067764375 0.14185864 -0.07768122 0.049945183
0.071758226 -0.0075649507 0.052860577 0.02385828 -0.024887748 -0.14444199 0.074735776 -0.10697932
-0.04324007 -0.007758694 4.556284e-05 0.025891397 -0.03166886 0.104296856 0.057791855 0.019043475
0.03560194 -0.043555427 -0.038526412 -0.023056725 -0.010933853 0.09864663 -0.059445694 0.124149665
0.13403045 -0.034340445 0.06784002 0.0008918726 0.038096827 0.10945599 0.08290087 -0.04063767
0.056228306 -0.0941969 -0.012188674 0.083124906 0.1103426 0.0040345085 -0.049715206 0.19171439
-0.013905628 -0.016445583 0.1384986 -0.017225504 -0.12196771 -0.06402079 -0.021991363 -0.025552224
0.0032308458 -0.07844694 -0.080203734 -0.14819534 -0.09202372 0.028715601 -0.015818477 0.095441684
-0.03921265 0.12350831 -0.02632269 -0.008445821 0.06907412 -0.030683218 0.1255154 0.063120216
-0.09636097 0.063010596 0.08592082 0.043968868 0.06487769 -0.021698833 0.03446795 -0.12849154
-0.0050262883 -0.1399996 0.0562537 0.020061728 0.032505073 -0.12277728 -0.08012844 0.00240122
-0.09772006 -0.1156785 -0.08937903 -0.09138556 -0.07159971 -0.1342715 -0.017323574 -0.09441785
0.031037245 0.10279609 -0.107890464 -0.16059326 0.15607186 0.05039097 0.08805607 0.16281933
0.13133745 0.0105047 0.014902539 -0.06085239 -0.0023813648 -0.01540737 0.13390954 0.17332463
-0.1465304 -0.13021588 0.06626558 0.0076168743 0.020170258 -0.05745444 -0.007055242 -0.13400646
0.09837384 -0.046636995 -0.09078109 0.014737077 0.1128933 0.00056549825 -0.014330331 -0.08239793
-0.006839835 -0.005046217 0.04643706 0.08104737 0.046458285 0.15604486 0.108125664 -0.05330769
0.13336067 -0.0767356 0.005171476 0.12877241 0.11651351 -0.097501814 0.018637061 -0.12236139
0.02171506 0.051175706 -0.12659585 0.053283673 0.028592069 -0.073235765 0.093360364 0.002346489
0.11603683 0.10809026 -0.05826905 0.037257668 0.034496557 0.054336086 0.018369203 0.0011887645
0.041137606 0.13775226 -0.036520716 0.047624078 0.08617729 0.005672405 0.09723768 0.007191032
0.007640209 0.0041100583 0.06832871 -0.07837158 -0.09610099 0.069225684 -0.07702186 0.12732877
-0.06671413 -0.13859648 0.039853632 0.010914683 -0.08646002 -0.04841385 0.06913701 -0.011721546
0.037653517 0.12331443 0.052871045 -0.049157597 0.022766592 0.08298865 0.0100363465 0.08754953
0.07142374 -0.04987088 -0.005360049 -0.119100906 -0.09315008 -0.03375 -0.009887965 0.018027874
0.08419178 0.009728206 0.025026651 0.033702794 0.087244585 0.03890031 -0.014162514 0.03752424
-0.010590074 -0.07788565 0.025890507 -0.021744465 -0.055526543 -0.051157936 -0.055608816 -0.05529922
0.02033421 -0.029404787 -0.012769247 0.07972572 -0.05610882 -0.022837821 0.06075613 -0.048534896
0.023354316 -0.09423064 -0.1232333 -0.08883522 -0.02003691 0.02606646 -0.057780806 0.106493115
0.056993235 0.040696427 0.0032400722 -0.014428544 0.021967445 -0.053953294 0.013026517 0.044627912
-0.032214124 -0.03383824 0.0735469 0.06464702 0.054967795 0.010114616 0.030589608 0.02341936
00000000: eb27 73bc e595 cb3d 2ee3 c83c 2a14 2cbe
00000010: a6eb 85bd 8524 7c3c 6403 f23d 15c1 613d
00000020: 6f7b 853d a937 dd3d d76e 533d b342 babc
00000030: e7a3 313a 6443 113e 5517 9fbd 5293 4c3d
00000040: faf5 923d 68e3 f7bb 5584 583d 7172 c33c
00000050: 64e1 cbbc 9ae8 13be 120f 993d f917 dbbd
00000060: 801c 31bd a43c febb ba1a 3f38 321a d43c
00000070: 35b7 01bd 9799 d53d 27b7 6c3d 1001 9c3c
00000080: 57d3 113d 2d67 32bd dfcd 1dbd 75e1 bcbc
00000090: e723 33bc 3f07 ca3d 547d 73bd 2e42 fe3d
000000a0: 473f 093e 91a8 0cbd b5ef 8a3d 8fcc 693a
000000b0: 6b0b 1c3d 762a e03d eec7 a93d af73 26bd
000000c0: a74f 663d 4eea c0bd 01b3 47bc 643d aa3d
000000d0: 4dfb e13d e933 843b 2ca2 4bbd c750 443e
000000e0: 6ed4 63bc e3b8 86bc 94d2 0d3e 801c 8dbc
000000f0: 35ca f9bd 551d 83bd 3b27 b4bc e652 d1bc
00000100: 99bc 533b caa8 a0bd db41 a4bd 85c0 17be
00000110: ef76 bcbd fb3c eb3c c095 81bc ee76 c33d
00000120: 729d 20bd edf1 fc3d afa2 d7bc 5760 0abc
00000130: bb76 8d3d 5f5b fbbc 1c87 003e 2c45 813d
00000140: e658 c5bd b30b 813d 41f7 af3d b318 343d
00000150: 98de 843d c0c1 b1bc 442e 0d3d 4993 03be
00000160: 90b3 a4bb 0e5c 0fbe 486a 663d 7e58 a43c
00000170: 0a24 053d a872 fbbd 611a a4bd c95d 1d3b
00000180: 7421 c8bd d9e8 ecbd 5a0c b7bd 5a28 bbbd
00000190: dea2 92bd 787e 09be 2bea 8dbc 255e c1bd
000001a0: d241 fe3c c286 d23d adf5 dcbd 8f72 24be
000001b0: 4dd1 1f3e c366 4e3d be56 b43d 1cba 263e
000001c0: 537d 063e e81b 2c3c c729 743c 5b40 79bd
000001d0: ac10 1cbb 326f 7cbc 951f 093e 037c 313e
000001e0: 110c 16be 5057 05be 40b6 873d f996 f93b
000001f0: 193c a53c 5955 6bbd a92f e7bb fd38 09be
00000200: 3978 c93d 6f06 3fbd 70eb b9bd c873 713c
00000210: 9a34 e73d f23d 143a c4c9 6abc 3fc0 a8bd
00000220: b220 e0bb bc5a a5bb c934 3e3d 2afc a53d
00000230: 0b4b 3e3d 39ca 1f3e fd70 dd3d 2a59 5abd
00000240: b38f 083e 8e27 9dbd 7c75 a93b eadc 033e
00000250: a39e ee3d 08af c7bd c0ac 983c 9c98 fabd
00000260: c8e3 b13c 9e9d 513d 58a2 01be fb3f 5a3d
00000270: ea39 ea3c a2fc 95bd b833 bf3d 8ec7 193b
00000280: b8a4 ed3d 6d5e dd3d 87ab 6ebd 7f9b 183d
00000290: 434c 0d3d 848f 5e3d 037b 963c 51d0 9b3a
000002a0: e87f 283d ee0e 0d3e bf96 15bd 7711 433d
000002b0: b87d b03d 95df b93b 8c24 c73d c0a2 eb3b
000002c0: b85a fa3b abad 863b ecef 8b3d 4781 a0bd
000002d0: 99d0 c4bd 32c6 8d3d a3bd 9dbd 7962 023e
000002e0: 6ba1 88bd 3cec 0dbe 903d 233d 80d3 323c
000002f0: f311 b1bd 9a4d 46bd b497 8d3d ba0b 40bc
00000300: 933a 1a3d 478c fc3d 4f8f 583d 7a59 49bd
00000310: 0181 ba3c f4f5 a93d 7d6f 243c 2b4d b33d
00000320: 9c46 923d 6845 4cbd 5aa3 afbb 2deb f3bd
00000330: 78c5 bebd 713d 0abd 2201 22bc 31af 933c
00000340: bd6c ac3d 0e63 1f3c b104 cd3c f10b 0a3d
00000350: 4aad b23d ee55 1f3d e409 68bc 04b3 193d
00000360: fd81 2dbc 8382 9fbd 5418 d43c 7321 b2bc
00000370: cd6f 63bd fc8a 51bd 12c6 63bd 6f81 62bd
00000380: ee93 a63c 4fe2 f0bc 1b36 51bc 3d47 a33d
00000390: 5dd2 65bd 6216 bbbc 6bdb 783d 87cc 46bd
000003a0: 8d51 bf3c fefb c0bd be61 fcbd 3def b5bd
000003b0: 7224 a4bc 5489 d53c 91ab 6cbd 1019 da3d
000003c0: bd71 693d 4cb1 263d 6457 543b b365 6cbc
000003d0: 12f5 b33c 21fe 5cbd 2c6d 553c c2cb 363d
000003e0: f5f2 03bd f799 0abd c29f 963d a865 843d
000003f0: e925 613d c6b7 253c 0f97 fa3c f5d9 bf3c

bias_ih_l0 f4 [800]
0.14806038 0.06482099 0.052983828 0.1052519 0.088852964 0.13073546 0.0058358116 0.06875727
0.046139542 0.096758716 0.120312825 0.015294967 0.031128675 0.13376088 0.017093496 0.041935455
0.084764995 0.024473382 0.13621931 0.0036437719 0.12714094 0.036839426 0.008792151 0.11878952
0.031203805 0.04861275 0.14183214 0.1377259 -0.01531311 0.07915589 0.116070576 0.09393484
0.10570515 0.031361572 0.040019464 0.07932075 0.028290007 0.085012585 0.06531842 0.08542458
0.10723864 0.0345548 0.072509944 0.09305028 0.07828422 0.007234349 0.0838794 0.113404274
0.034091525 0.0899335 0.111671135 0.007972516 0.045709327 0.12253876 0.120974265 0.03533124
0.106768474 0.03422491 0.075592026 0.12155266 0.12296492 0.04374765 0.089726456 0.016565904
0.09185085 -0.020590525 0.04168019 -0.031171668 -0.02261729 0.11077734 0.03361596 0.015518828
0.08120435 0.07362582 0.14833853 0.15932679 0.095582895 0.092411235 0.08807861 0.025526598
0.009627339 0.10418426 0.06644205 0.0031354947 0.11428041 0.02259525 0.16857633 0.034335896
0.121935315 0.02730267 0.05848145 0.06553136 0.012536164 0.07606269 0.089575484 0.114390485
0.060805526 0.07712934 -0.0044877883 0.11201759 0.0063611832 -0.015329252 0.108423315 0.11515697
-0.024114467 0.08394145 0.042339385 0.033073395 0.13140856 0.13703795 0.10904852 0.0719106
-0.014577867 0.09208057 0.03170228 0.073100515 0.052554607 0.010506963 0.09574699 0.02373369
0.07254883 0.10679823 0.09509999 0.017308157 0.022268109 0.13940603 0.060083847 0.118479095
-0.012279993 0.08871355 0.055726368 0.036552332 0.108691275 0.06265741 0.00058238686 0.15582263
0.11744816 0.12132273 -0.014455415 0.028970188 0.08784565 0.124882214 0.10982997 0.094653845
0.063843 0.1036389 -0.00011213507 0.12711209 0.09932072 -0.0058148257 0.11372411 0.09902626
0.06562317 0.04440903 0.008198552 0.05879713 0.08523058 0.051144984 0.031460915 0.07984157
0.025524989 0.11910153 0.060343836 0.006068341 0.08366982 -0.0061415527 -0.026041474 0.04156154
0.065838434 0.06501938 0.110464886 0.06985584 0.13820349 0.14295378 0.024093466 0.0792786
0.050774857 0.05497173 0.078271806 0.1031086 0.097058475 0.07900628 0.10968081 0.030129034
0.14367016 0.11009419 0.034116752 0.11226331 0.08039962 -0.00869228 0.021562979 0.0757732
-0.002863509 0.050349854 0.07779028 0.09616085 0.02146224 0.09890164 0.012846133 0.1270278
-0.043037705 -0.030881532 0.041479968 0.031322744 0.08193539 0.05023213 0.074010625 0.04473082
0.08111741 0.09391288 0.00990949 -0.038493395 0.060571868 0.044453837 0.057829686 -0.004202761
0.021548262 0.030660057 0.009093079 -0.02378983 0.054133255 0.06100716 0.016242942 -0.005903527
0.036678907 0.048599824 0.01099276 0.055326063 -0.029258953 -0.013088879 0.08426392 0.012640379
0.0069723474 -0.026083339 0.006643248 -0.05380086 0.024292972 0.05231472 0.017707348 0.06577389
0.08030929 0.06666147 -0.022713127 -0.051787764 0.049899098 -0.012630069 0.043409035 0.0103942165
0.021394365 0.01767388 0.031513505 -0.023538595 0.096968725 -0.04622098 0.067610964 -0.07554889
00000000: 249d 173e dec0 843d 9205 593d 4f8e d73d
00000010: 8bf8 b53d 84df 053e 563a bf3b 9dd0 8c3d
00000020: d1fc 3c3d 6f29 c63d 9266 f63d be97 7a3c
00000030: 9001 ff3c 9df8 083e a907 8c3c 83c4 2b3d
00000040: 4599 ad3d 677c c83c 137d 0b3e 59cc 6e3b
00000050: 3c31 023e f0e4 163d f40c 103c eb47 f33d
00000060: 1f9f ff3c 2a1e 473d 723c 113e 0508 0d3e
00000070: d7e3 7abc 7c1c a23d 69b6 ed3d e960 c03d
00000080: f17b d83d fe74 003d 73eb 233d eb72 a23d
00000090: 72c0 e73c 141b ae3d aac5 853d 15f3 ae3d
000000a0: ef9f db3d 5589 0d3d 1880 943d 2591 be3d
000000b0: 7a53 a03d 1e0e ed3b f6c8 ab3d 8040 e83d
000000c0: 8ea3 0b3d 0e2f b83d d6b3 e43d 289f 023c
000000d0: b439 3b3d 9af5 fa3d 5bc1 f73d 7eb7 103d
000000e0: 6ea9 da3d 6b2f 0c3d fecf 9a3d 9af0 f83d
000000f0: 08d5 fb3d bc30 333d 81c2 b73d 38b5 873c
00000100: 4c1c bc3d 76ad a8bc d9b8 2a3d ba5b ffbc
00000110: e547 b9bc 3bdf e23d e4b0 093d af42 7e3c
00000120: 774e a63d 22c9 963d 0ee6 173e 9026 233e
00000130: f7c0 c33d 1a42 bd3d 8f62 b43d 281d d13c
00000140: fdbb 1d3c 8f5e d53d c512 883d df7c 4d3b
00000150: d90b ea3d ac19 b93c 469f 2c3e cca3 0c3d
00000160: 39b9 f93d d9a9 df3c 3f8a 6f3d 4e35 863d
00000170: 7c64 4d3c c1c6 9b3d 5a73 b73d 8f45 ea3d
00000180: 370f 793d fdf5 9d3d 4c0e 93bb 7a69 e53d
00000190: 7971 d03b 8b27 7bbc 0b0d de3d 6bd7 eb3d
000001a0: b48b c5bc 7fe9 ab3d 106c 2d3d f877 073d
000001b0: f78f 063e ad53 0c3e d554 df3d dd45 933d
000001c0: 02d8 6ebc bd94 bc3d 40da 013d b9b5 953d
000001d0: 8043 573d 6625 2c3c ff16 c43d 286d c23c
000001e0: 7b94 943d 08b9 da3d c9c3 c23d d6c9 8d3c
000001f0: 9c6b b63c 74c0 0e3e 7b1a 763d 2ba5 f23d
00000200: 0632 49bc 73af b53d 5541 643d e6b7 153d
00000210: 8899 de3d 8752 803d 52ab 183a f88f 1f3e
00000220: a988 f03d 0d78 f83d 68d6 6cbc e352 ed3c
00000230: 6ce8 b33d 3fc2 ff3d 89ee e03d e0d9 c13d
00000240: 1ec0 823d a240 d43d 0f2a ebb8 ac29 023e
00000250: a968 cb3d 4b8a bebb 30e8 e83d 48ce ca3d
00000260: 7165 863d 3ee6 353d 3853 063c 42d5 703d
00000270: 5f8d ae3d 677d 513d 29dd 003d fa83 a33d
00000280: c819 d13c 81eb f33d 192b 773d efd8 c63b
00000290: 155b ab3d 143f c9bb ee54 d5bc 6f3c 2a3d
000002a0: 4dd6 863d e128 853d 6a3b e23d 9410 8f3d
000002b0: 3785 0d3e 7a62 123e a95f c53c d25c a23d
000002c0: 4cf9 4f3d 092a 613d f84c a03d 9a2a d33d
000002d0: 98c6 c63d 0bce a13d 55a0 e03d 2ad1 f63c
000002e0: 451e 133e 1079 e13d 02be 0b3d 4eea e53d
000002f0: 8ea8 a43d 116a 0ebc d8a4 b03c fb2e 9b3d
00000300: b6a9 3bbb a63b 4e3d 8350 9f3d fbef c43d
00000310: 94d1 af3c f18c ca3d 9678 523c 9313 023e
00000320: 4e48 30bd 44fb fcbc e6e6 293d 474c 003d
00000330: becd a73d 35c0 4d3d e292 973d aa37 373d
00000340: e220 a63d 6555 c03d 6a5b 223c 40ab 1dbd
00000350: 351a 783d 3a15 363d d2de 6c3d 51b7 89bb
00000360: fb85 b03c cd2a fb3c 23fb 143c e4e2 c2bc
00000370: d5ba 5d3d a5e2 793d eb0f 853c 6072 c1bb
00000380: 9f3c 163d 9c10 473d fa1a 343c 959d 623d
00000390: 79b0 efbc bd72 56bc 9092 ac3d 9819 4f3c
000003a0: 4a78 e43b baac d5bc 9aaf d93b 4a5e 5cbd
000003b0: 0e02 c73c f647 563d 000f 913c 76b4 863d
000003c0: 3279 a43d cf85 883d e110 babc 681f 54bd
000003d0: ff62 4c3d 59ee 4ebc accd 313d 814c 2a3c
000003e0: 3c43 af3c d0c8 903c 4e14 013d 03d4 c0bc
000003f0: 8a97 c63d 3652 3dbd 9e77 8a3d 60b9 9abd

bias_hh_l0 f4 [800]
0.031996228 0.10106336 0.05748885 0.02277863 0.024768783 0.09591115 0.017920943 0.12589976
-0.034368817 0.08035255 0.01978155 0.03685149 0.10330096 0.13565591 0.09614763 0.120665036
0.05260281 0.11421856 0.040881313 0.036574036 0.10952507 0.10450091 0.03683268 0.053190514
0.024177799 0.11386941 0.034022633 0.08073699 0.028824914 0.086729966 0.1204307 0.11002657
0.005387895 0.021156773 0.11504203 0.12682039 0.10532486 0.11514099 0.07575564 0.035620715
0.020600881 0.051165324 0.12484587 0.16762403 -0.019691257 0.0985265 0.030621657 0.074178636
0.0532588 0.09391619 0.14984712 0.019617517 0.057779294 0.06405648 0.033976484 0.07008704
0.099578574 0.13059585 0.06470043 0.078281984 0.05398237 0.0040890006 0.04716908 0.025777632
0.045802645 0.00014116624 0.102295406 0.055951405 0.06477751 0.08406586 0.0577328 -0.000558824
0.11974403 0.026174057 0.14954342 0.1303546 0.085172206 0.086781636 -0.007384725 0.05269429
0.09577788 0.14105155 0.052800324 0.055283207 0.09149868 -0.0028324784 0.12442353 0.070443735
-0.013824511 0.09001094 0.0029366035 0.13064273 0.014573415 0.010381469 0.16393365 0.03941207
0.15059696 0.11860542 0.12926787 0.090645276 0.0680704 0.011827686 0.03333849 0.035802554
-0.024128832 0.11892387 0.12593843 0.07600246 0.12433343 0.112333596 0.08867214 -0.021743692
-0.022491623 0.061175067 0.068765104 0.06899213 0.017075747 0.033902943 0.025357949 0.06362913
0.07145547 0.03412178 0.076279126 0.10139761 0.068633676 0.07511099 0.11472651 0.0781107
-0.013571229 0.016645692 0.057030346 0.0076306807 0.13664818 0.14792378 0.10824689 0.060765676
0.09787183 0.1065175 0.016599145 0.11701631 0.021501845 0.046358526 0.12925622 0.049802877
0.12464377 0.041437104 0.08538824 0.07732986 0.09482496 0.04957492 0.14273088 0.048388414
0.0527623 0.045756556 0.11108069 0.064057216 0.13451658 0.011341029 0.067499906 0.016015973
0.07578127 0.036533188 0.022624534 0.05290377 0.015311542 0.07540171 0.05619227 0.034168657
0.077367924 0.018993685 0.13117939 0.098565735 0.046239574 0.045326475 0.034225352 0.06698615
0.09005041 0.040376324 0.0035999569 0.004019465 0.09547655 0.052541595 0.026335105 0.088752754
0.057425782 0.13149565 0.09926484 0.09724942 0.07223479 0.075581245 0.13470758 0.09090454
0.07738769 0.07749373 0.12962525 0.07020608 0.00030205707 0.032965872 0.12315086 0.11951852
-0.0429362 0.0014670473 0.053124115 0.014108833 0.052287072 -0.013710669 0.049162563 -0.0015642238
-0.027037129 0.06626592 0.03415975 0.0023842107 -0.043441378 0.029462907 0.075525604 0.02699272
-0.03951727 -0.017831221 -0.0047178054 0.0031072581 -0.00044591702 0.023078714 -0.021078875 0.052221544
0.046095658 0.06325645 0.08383615 0.019393608 0.0094839865 0.0910643 -0.0040952694 -0.0072951536
-0.04996856 -0.011825742 0.019816082 0.038683586 -0.0015721836 -0.0005588776 0.06575887 0.0882093
0.027272737 0.07370492 0.0032069755 0.00989006 0.06836178 0.024433186 0.05962743 -0.011946605
-0.0078484295 0.0017783438 -0.063283905 0.078376964 0.025364833 0.050934598 0.004514161 -0.022256283
00000000: 7a0e 033d 4ffa ce3d 6e79 6b3d 409a ba3c
00000010: e7e7 ca3c 116d c43d f1ce 923c deeb 003e
00000020: 51c6 0cbd e18f a43d eb0c a23c 97f1 163d
00000030: 748f d33d 62e9 0a3e 0ce9 c43d 3b1f f73d
00000040: 0b76 573d 6ceb e93d 2a73 273d a8ce 153d
00000050: ae4e e03d 9304 d63d dddd 163d 4cde 593d
00000060: 8510 c63c 5d34 e93d 515b 0b3d 6f59 a53d
00000070: 3a22 ec3c 7b9f b13d 5fa4 f63d 9c55 e13d
00000080: f08c b03b f850 ad3c 289b eb3d 34dd 013e
00000090: 8fb4 d73d 0acf eb3d c625 9b3d 07e7 113d
000000a0: 2ec3 a83c bb92 513d 31af ff3d a2a5 2b3e
000000b0: 8f4f a1bc 43c8 c93d 45da fa3c f8ea 973d
000000c0: e625 5a3d 2257 c03d 8671 193e eab4 a03c
000000d0: fba9 6c3d 0b30 833d ed2a 0b3d cb89 8f3d
000000e0: daef cb3d ebba 053e a981 843d 4e52 a03d
000000f0: 9e1c 5d3d 06fd 853b 5d34 413d 9d2b d33c
00000100: 8e9b 3b3d 0606 1439 4180 d13d 4d2d 653d
00000110: 12aa 843d b92a ac3d 3a79 6c3d 0b7e 12ba
00000120: 5c3c f53d fa6a d63c e921 193e ad7b 053e
00000130: c46e ae3d 92ba b13d 90fb f1bb f8d5 573d
00000140: 3127 c43d d16f 103e 2745 583d a570 623d
00000150: a963 bb3d 1aa1 39bb c4d1 fe3d ce44 903d
00000160: 3480 62bc a857 b83d 0874 403b 35c7 053e
00000170: 55c5 6e3c 0917 2a3c 39de 273e 8d6e 213d
00000180: 1736 1a3e 66e7 f23d cc5e 043e 3ba4 b93d
00000190: 7e68 8b3d e9c8 413c f18d 083d b3a5 123d
000001a0: d4a9 c5bc 5c8e f33d 01f6 003e 2ea7 9b3d
000001b0: 86a2 fe3d 280f e63d bd99 b53d d41f b2bc
000001c0: 5a40 b8bc b592 7a3d b8d4 8c3d bf4b 8d3d
000001d0: 70e2 8b3c d0dd 0a3d 79bb cf3c fd4f 823d
000001e0: 3f57 923d 48c3 0b3d 3b38 9c3d 8da9 cf3d
000001f0: d08f 8c3d cad3 993d bcf5 ea3d 81f8 9f3d
00000200: dc59 5ebc 8c5c 883c a798 693d ca0a fa3b
00000210: 80ed 0b3e 5579 173e 8cb0 dd3d 6ee5 783d
00000220: 0771 c83d d925 da3d eefa 873c 3fa6 ef3d
00000230: a324 b03c 70e2 3d3d be5b 043e 1afe 4b3d
00000240: 3c45 ff3d f4b9 293d 08e0 ae3d 1e5f 9e3d
00000250: 9733 c23d 120f 4b3d 0b28 123e ee32 463d
00000260: 481d 583d 3a6b 3b3d 467e e33d 6e30 833d
00000270: b7be 093e b9cf 393c 643d 8a3d ee33 833c
00000280: 3633 9b3d d3a3 153d 1657 b93c a0b1 583d
00000290: 43dd 7a3c 366c 9a3d de29 663d 6ff4 0b3d
000002a0: 1373 9e3d a598 9b3c e453 063e d5dc c93d
000002b0: b565 3d3d 41a8 393d e22f 0c3d 0930 893d
000002c0: 596c b83d a561 253d 41ed 6b3b b7b5 833b
000002d0: 3689 c33d db35 573d b8bc d73c 01c4 b53d
000002e0: 4c37 6b3d cca6 063e 5d4b cb3d b42a c73d
000002f0: d5ef 933d 57ca 9a3d c9f0 093e 292c ba3d
00000300: 707d 9e3d 08b5 9e3d 7bbc 043e 35c8 8f3d
00000310: 6a5d 9e39 3907 073d 8536 fc3d 20c6 f43d
00000320: dedd 2fbd f049 c03a ac98 593d bc28 673c
00000330: f82a 563d b7a2 60bc af5e 493d a406 cdba
00000340: f87c ddbc 6db6 873d 18eb 0b3d 6b40 1c3b
00000350: 96ef 31bd 325c f13c 2bad 9a3d d61f dd3c
00000360: dcdc 21bd c812 92bc d297 9abb 24a3 4b3b
00000370: f8c9 e9b9 920f bd3c 9bad acbc 42e6 553d
00000380: cdce 3c3d 998c 813d 4ab2 ab3d 58df 9e3c
00000390: b962 1b3c eb7f ba3d 9c31 86bb 2f0c efbb
000003a0: d5ab 4cbd c2c0 41bc 5655 a23c ae72 1e3d
000003b0: ba11 ceba a481 12ba 96ac 863d 14a7 b43d
000003c0: 136b df3c 9bf2 963d 1f2c 523b eb09 223c
000003d0: 4301 8c3d 1b28 c83c e43b 743d b1bb 43bc
000003e0: b396 00bc 5117 e93a fe9a 81bd 1a84 a03d
000003f0: e9c9 cf3c cca0 503d 87eb 933b cf52 b6bc

weight f4 [49, 200]
0.18618113 0.108492896 0.056754086 0.0068738083 0.010500196 0.008623736 0.06606437 0.08443875
0.033712283 0.050631326 0.10839635 0.08017385 0.090025894 0.048397996 -0.09853287 0.033508677
0.0823616 0.01177102 0.03595641 -0.049156345 0.10517992 -0.12915201 0.044642847 -0.081808545
-0.094346575 -0.015263155 0.09746775 0.036768135 0.04969041 -0.011462346 0.029800117 -0.103083044
0.06021194 -0.0412504 0.060413424 0.22726117 -0.17180064 -0.11013651 0.042072233 -0.0552875
-0.09823158 0.0285693 0.106690556 0.09783042 0.08484436 0.22292171 0.04485932 -0.12646666
0.09134677 -0.042153466 0.04489857 0.029667178 0.0608489 -0.056135297 -0.015107227 0.09594279
-0.06486288 -0.06961197 0.0920326 -0.08926567 -0.037649717 -0.09661897 -0.07660854 -0.10762699
-0.09898526 -0.04699849 -0.093135834 -0.06145171 -0.04287869 -0.033418003 -0.080808505 0.05302922
-0.09616607 0.08979369 -0.067633875 -0.022539202 0.04123264 -0.10541714 0.11461348 -0.06749608
-0.09043903 -0.037852388 0.044226117 -0.005723975 0.06916433 0.075498514 -0.04972657 -0.0686
0.009156049 0.031255547 0.07533665 0.123172745 0.0537371 0.018583134 -0.026734175 -0.06831193
0.12009078 -0.044913754 -0.073185846 0.026240338 -0.03422486 -0.057200436 -0.123940825 -0.09879224
0.070869245 0.04481725 -0.0044538253 -0.045137577 0.04841848 -0.10978295 -0.007896245 0.06650188
0.038517866 0.04774752 0.16763029 -0.05095895 0.14338104 0.019989569 0.09737851 0.06319917
0.009158176 -0.048040397 0.07027763 0.1184797 -0.049274262 -0.07341561 -0.010247498 0.023652704
0.057334166 0.11975766 -0.040928267 -0.07907269 0.035024308 0.09173783 -0.017850645 -0.09109083
-0.07493769 0.061580215 0.06534864 0.03275695 0.034859072 0.08098697 0.022102166 0.033386823
-0.012026278 0.033112884 -0.086844206 0.022751436 0.0855549 -0.07646136 0.052863322 -0.09540279
0.016939273 0.092153884 -0.038581457 -0.023020048 -0.10828057 -0.0882776 0.08908522 0.0048857033
0.08243815 0.018089617 -0.087916635 0.12116402 0.03596269 0.07512807 0.044161722 0.01596776
0.03533172 -0.034843814 -0.020900004 0.094751336 0.09246906 -0.09761004 0.07696211 -0.05187607
-0.03883715 -0.079522215 0.04044469 0.07142303 -0.0022212758 0.035960924 -0.09493348 0.043999795
-0.0795269 -0.07351445 0.04222347 0.053999703 -0.0847827 -0.1363833 0.010769333 -0.04217577
0.09929403 0.012197359 -0.025944933 -0.10311099 0.05813054 0.042730886 0.052451655 0.06347967
0.008374036 0.07270187 0.13542408 -0.08595478 0.008611691 0.11889455 -0.0038654178 0.13648213
0.05992529 0.063034326 0.016133595 0.016014999 0.08001294 -0.046375223 -0.015840173 -0.05777151
-0.020722829 -0.09290087 0.14557622 -0.09548011 -0.107147835 -0.074751645 0.01837866 0.1939093
-0.13592638 -0.20023467 -0.07289772 0.071619004 0.07766808 0.06015084 0.0694888 -0.05219475
0.06796701 0.0073640766 -0.114373334 -0.12352355 -0.12436265 0.114892684 -0.09867208 0.047483634
0.064309925 -0.0100241965 0.05125369 0.012611508 -0.04421556 -0.06367458 -0.080031954 -0.022504695
-0.08306046 -0.113536514 0.11556215 -0.04111462 -0.10264046 -0.12533449 0.12521687 -0.1316436
00000000: 44a6 3e3e 8631 de3d f976 683d af3d e13b
00000010: 0409 2c3c 924a 0d3c c24c 873d 39ee ac3d
00000020: e415 0a3d cb62 4f3d e8fe dd3d 3032 a43d
00000030: 7f5f b83d fa3c 463d 9acb c9bd 6540 093d
00000040: 33ad a83d 3cdb 403c 0747 133d 2a58 49bd
00000050: 9268 d73d 6d40 04be 6bdb 363d 3d8b a7bd
00000060: c738 c1bd 5012 7abc 2c9d c73d 2f9a 163d
00000070: 2c88 4b3d 90cc 3bbc 601f f43c 341d d3bd
00000080: cca0 763d 2ef6 28bd 1174 773d 27b7 683e
00000090: 82ec 2fbe 408f e1bd ef53 2c3d 2575 62bd
000000a0: a32d c9bd 2a0a ea3c 9480 da3d 515b c83d
000000b0: e1c2 ad3d 9745 643e 68be 373d 7a80 01be
000000c0: 0414 bb3d 1da9 2cbd 90e7 373d 9508 f33c
000000d0: b23c 793d 20ee 65bd 4d84 77bc a77d c43d
000000e0: d4d6 84bd b890 8ebd 967b bc3d ebd0 b6bd
000000f0: 9736 1abd 2be0 c5bd f0e4 9cbd 8a6b dcbd
00000100: c9b8 cabd 7d81 40bd 00be bebd cab4 7bbd
00000110: 91a1 2fbd 51e1 08bd ee7e a5bd 2b35 593d
00000120: b7f2 c4bd c1e5 b73d a183 8abd 22a4 b8bc
00000130: 8fe3 283d f1e4 d7bd 79ba ea3d 633b 8abd
00000140: 1938 b9bd 1b0b 1bbd 7226 353d 2f90 bbbb
00000150: 07a6 8d3d f79e 9a3d 16ae 4bbd 287e 8cbd
00000160: 4103 163c d105 003d 1a4a 9a3d fe41 fc3d
00000170: 6f1b 5c3d a83b 983c a101 dbbc 20e7 8bbd
00000180: 28f2 f53d 7cf7 37bd 76e2 95bd faf5 d63c
00000190: 5e2f 0cbd 014b 6abd b0d4 fdbd 9653 cabd
000001a0: e523 913d 4b92 373d 65f1 91bb 2ee2 38bd
000001b0: 7552 463d e2d5 e0bd 415f 01bc 2332 883d
000001c0: e9c4 1d3d e792 433d 46a7 2b3e 55ba 50bd
000001d0: 7bd2 123e 2ac1 a33c 626e c73d 916e 813d
000001e0: 2d0c 163c 02c6 44bd b8ed 8f3d 7ca5 f23d
000001f0: cfd3 49bd ec5a 96bd 1fe5 27bc 51c3 c13c
00000200: 3bd7 6a3d 8143 f53d 66a4 27bd ddf0 a1bd
00000210: a675 0f3d 0be1 bb3d 843b 92bc d48d babd
00000220: ee78 99bd 893b 7c3d 82d5 853d 272c 063d
00000230: 63c8 0e3d 7fdc a53d 9a0f b53c 9fc0 083d
00000240: de09 45bc 60a1 073d 60db b1bd 3861 ba3c
00000250: 6837 af3d c697 9cbd 3687 583d 8a62 c3bd
00000260: 3bc4 8a3c 2dbb bc3d 9707 1ebd 8a94 bcbc
00000270: 34c2 ddbd e3ca b4bd 5072 b63d 4018 a03b
00000280: 55d5 a83d ad30 943c a30d b4bd d724 f83d
00000290: 9d4d 133d bfdc 993d ece2 343d d2ce 823c
000002a0: feb7 103d 63b8 0ebd 7c36 abbc fd0c c23d
000002b0: 6b60 bd3d c6e7 c7bd 509e 9d3d 017c 54bd
000002c0: b413 1fbd 8bdc a2bd 55a9 253d 3d46 923d
000002d0: d392 11bb c34b 133d 7c6c c2bd 2139 343d
000002e0: 00df a2bd be8e 96bd 84f2 2c3d cb2e 5d3d
000002f0: 8da2 adbd 10a8 0bbe db71 303c 80c0 2cbd
00000300: ab5a cb3d 6fd7 473c 788a d4bc db2b d3bd
00000310: 4a1a 6e3d 9506 2f3d 8cd7 563d a101 823d
00000320: 4133 093c b8e4 943d 9cac 0a3e 0f09 b0bd
00000330: 0d18 0d3c fc7e f33d f352 7dbb f9c1 0b3e
00000340: 3974 753d 2418 813d 9a2a 843c e331 833c
00000350: d3dd a33d f2f3 3dbd 40c3 81bc d2a1 6cbd
00000360: ecc2 a9bc d042 bebd ef11 153e 138b c3bd
00000370: 5370 dbbd 6417 99bd d88e 963c 2990 463e
00000380: 4930 0bbe 510a 4dbe 664b 95bd fcac 923d
00000390: 7110 9f3d ba60 763d 2550 8e3d 2aca 55bd
000003a0: 4a32 8b3d 5a4e f13b 913c eabd eaf9 fcbd
000003b0: d8b1 febd db4c eb3d 9614 cabd 337e 423d
000003c0: ecb4 833d 873c 24bc 64ef 513d 80a0 4e3c
000003d0: 601b 35bd d167 82bd cbe7 a3bd c45b b8bc
000003e0: 9a1b aabd d585 e8bd d9ab ec3d ce67 28bd
000003f0: 2935 d2bd af57 00be da38 003e 94cd 06be

bias f4 [49]
-0.052894246 0.03676074 -0.02119019 -0.03792277 0.04340151 -0.04172978 0.033926215 0.08269699
-0.026574356 0.0052437205 0.009274803 0.018575555 0.018134229 0.029726109 -0.01205837 0.049266025
0.014235213 -0.07495268 -0.011393524 -0.08686862 0.015603332 0.043435045 -0.04943264 0.008263791
-0.06411585 0.026230209 -0.027493708 -0.061405122 -0.013428339 0.053286266 -0.081588164 0.03036646
-0.014816596 -0.035692446 -0.052440107 0.053666178 0.043955255 0.033284746 -0.018401463 -0.07724337
-0.054991093 0.039935786 0.04150284 -0.02716834 0.022817394 -0.03714009 0.045230344 -0.0074515557
-0.0704916
00000000: a3a7 58bd 6e92 163d 0d97 adbc e854 1bbd
00000010: c8c5 313d d9ec 2abd 37f6 0a3d 0a5d a93d
00000020: 77b2 d9bc 84d3 ab3b 58f5 173c c32b 983c
00000030: 3c8e 943c 2b84 f33c 7890 45bc 2ccb 493d
00000040: d03a 693c ca80 99bd e7ab 3abc 2de8 b1bd
00000050: 1ea5 7f3c f2e8 313d e179 4abd da64 073c
00000060: 2c4f 83bd bce0 d63c 7c3a e1bc f083 7bbd
00000070: 8902 5cbc b342 5a3d b217 a7bd 15c3 f83c
00000080: 4fc1 72bc 3e32 12bd 70cb 56bd 11d1 5b3d
00000090: 6d0a 343d 9655 083d aabe 96bc c631 9ebd
000000a0: 573e 61bd b593 233d e2fe 293d 2390 debc
000000b0: 8beb ba3c 3520 18bd 7443 393d 2e2c f4bb
000000c0: e65d 90bd
